last_brain.pth (torch_old, 5138 bytes, 12 tensors)

fc1.weight f4 [30, 5]
0.760191 -0.34451082 0.49436286 0.7397421 -0.42620707 0.011332685 -0.17778064 0.3583881
-0.648853 0.08436889 -0.12361925 -0.19117844 0.16142112 0.20370114 0.2012277 0.44770318
0.31906652 0.2278445 0.892247 -0.6216401 -0.6667229 -2.5584671 -1.581055 -0.054895278
0.26280236 -0.65606344 -0.16911447 0.25057516 0.2149625 -0.57735145 -0.4141343 -0.031392597
0.2821827 -0.58847165 0.74625236 -0.44514492 -0.15191114 -0.0058092074 0.4613788 0.38059372
-0.3613829 -0.225418 0.48005864 -0.7162717 0.66668683 0.325573 -0.1259177 -0.041034743
0.4440326 0.04244335 -0.48221356 -0.3111878 0.1852175 0.51360434 -0.56684065 -0.31420317
0.7119721 0.31612238 0.59874904 -0.3007141 -0.49300545 -3.050328 -0.06307749 0.26808077
-0.07788645 -0.35946822 -0.51160216 0.7084094 0.1282537 0.5336243 -0.48745295 0.6188122
-0.3063249 0.77959794 -0.42126328 -0.59170395 0.5286959 0.21975851 0.15285915 -0.09933353
-0.5469485 0.9799962 -0.16978602 0.073763594 -0.60462916 -0.49683675 1.1327467 0.7070905
0.6726663 -0.47150034 0.24890798 -0.2285649 -0.31398886 -0.9203755 0.5693149 0.4393859
0.68168795 0.32507282 0.023760527 0.033161536 0.38435578 -0.3864105 -0.017730776 -0.49805373
0.67201006 -0.17342936 0.9567685 0.52114683 -0.15101187 -0.2159599 -0.06064332 0.6554581
0.18917798 0.55072725 -0.67520493 0.29238072 0.8873813 0.565403 -0.3016827 0.0077973977
-0.287871 -0.3566547 -0.42220616 0.17408317 0.11019468 1.0479815 0.15391132 0.6222165
0.6227893 -0.4284101 0.6536654 0.9524273 0.22596003 -0.017388172 0.02532926 -0.32062662
-2.693171 0.22810887 0.27835473 0.16154423 -0.5929319 -3.65848 0.5929605 0.01853836
-0.29615918 0.5261373 -0.4895604 0.61993974 0.46992767 0.018611694
00000000: e19b 423f b963 b0be 211d fd3e bd5f 3d3f
00000010: d037 dabe baac 393c 210c 36be a57e b73e
00000020: 3b1b 26bf 99c9 ac3d 172c fdbd 48c4 43be
00000030: 944b 253e 0897 503e a20e 4e3e 5a39 e53e
00000040: b05c a33e 1250 693e 4d6a 643f ce23 1fbf
00000050: 5aae 2abf edbd 23c0 0360 cabf dfd9 60bd
00000060: 088e 863e c6f3 27bf 582c 2dbe 634b 803e
00000070: 211f 5c3e 4ecd 13bf 6909 d4be 8695 00bd
00000080: 407a 903e 14a6 16bf 650a 3f3f 09ea e3be
00000090: 988e 1bbe 2a5b bebb d839 ec3e 2edd c23e
000000a0: 2e07 b9be fad3 66be 3fca f53e 955d 37bf
000000b0: fdab 2a3f 81b1 a63e 92f0 00be 0c14 28bd
000000c0: 3e58 e33e 14d9 2d3d b2e4 f6be 0254 9fbe
000000d0: a8a9 3d3e 937b 033f 781c 11bf 3ddf a0be
000000e0: ce43 363f cbda a13e 9e47 193f 33f7 99be
000000f0: 366b fcbe 9338 43c0 c52e 81bd e241 893e
00000100: ee82 9fbd 380c b8be 5cf8 02bf 525a 353f
00000110: f054 033e 9a9b 083f 6f93 f9be 7a6a 1e3f
00000120: 9ed6 9cbe bb93 473f d2af d7be e979 17bf
00000130: 9d58 073f 6008 613e 1c87 1c3e 616f cbbd
00000140: d104 0cbf 08e1 7a3f 63dc 2dbe 5e11 973d
00000150: fac8 1abf 6361 febe d8fd 903f e203 353f
00000160: dc33 2c3f 7e68 f1be bce1 7e3e eb0c 6abe
00000170: 26c3 a0be bb9d 6bbf 9fbe 113f 30f7 e03e
00000180: 1a83 2e3f f26f a63e 70a5 c23c 64d4 073d
00000190: 48ca c43e 99d7 c5be 2240 91bc e600 ffbe
000001a0: da08 2c3f 7797 31be c8ee 743f e169 053f
000001b0: dba2 1abe 9824 5dbe 2165 78bd 1acc 273f
000001c0: dfb7 413e 76fc 0c3f 3bda 2cbf edb2 953e
000001d0: 6c2b 633f 40be 103f 2876 9abe 5081 ff3b
000001e0: d463 93be 729b b6be 682b d8be dc42 323e
000001f0: c0ad e13d 4224 863f ee9a 1d3e 9549 1f3f
00000200: 1f6f 1f3f 9258 dbbe 9e56 273f 47d2 733f
00000210: 1162 673e a471 8ebc 4f7f cf3c 2c29 a4be
00000220: ea5c 2cc0 5f95 693e 8384 8e3e da6b 253e
00000230: 63ca 17bf 8924 6ac0 42cc 173f c2dd 973c
00000240: 2da2 97be efb0 063f a9a7 fabe 5fb4 1e3f
00000250: 5c9a f03e 8d77 983c

fc1.bias f4 [30]
0.11103191 -0.28247064 -0.1285244 -0.56347275 0.17252819 0.44799024 -0.33756846 -0.16216476
-0.4599029 0.15006603 -0.44016084 -0.31531084 0.44994333 0.3850442 0.40075147 0.5362805
0.33414862 -0.55920005 -0.6129486 0.03789309 -0.46075115 0.12259357 -0.5019443 -0.03462187
-0.099888 -0.55462444 0.046844408 0.2802007 0.3386236 0.40835112
00000000: b364 e33d fe9f 90be e69b 03be c03f 10bf
00000010: 3bab 303e fa5e e53e c6d5 acbe 850e 26be
00000020: 6578 ebbe e9aa 193e c35c e1be 6c70 a1be
00000030: f95e e63e 8324 c53e 4c2f cd3e ae49 093f
00000040: 8715 ab3e bc27 0fbf 33ea 1cbf c935 1b3d
00000050: 93e7 ebbe 5612 fb3d 6c7f 00bf a9cf 0dbd
00000060: 1492 ccbd defb 0dbf ecdf 3f3d 7776 8f3e
00000070: 1360 ad3e 6613 d13e

fc2.weight f4 [3, 30]
0.025103878 0.2587551 0.26302177 -0.3308707 0.6190521 0.53690827 -0.253304 0.051748257
-0.35338542 -0.36731997 -0.2958316 0.2116278 0.4777291 0.4490694 -0.086765684 0.31263086
-0.28417784 -0.7346151 -0.4859874 -0.32575473 -0.66682065 0.077118926 -0.6130537 -0.002512359
-0.10376727 -0.30166915 -0.36140925 0.43630323 0.6997224 0.06997267 0.12871292 0.44131905
-0.033709705 -0.51270694 0.4491619 0.4213335 -0.081922434 -0.12505822 -0.3196934 -0.11865153
0.43751296 -0.3950868 0.70361584 0.33241934 -0.21382521 -0.072858594 -0.5462099 -0.8369554
-0.68577236 -0.24679793 -0.4424751 -0.28733134 -0.81087935 -0.33620217 0.13747627 0.0598648
-0.45795023 0.45822564 0.54148144 0.35870302 -0.41890535 0.37553924 0.034244683 -0.49121958
0.45707938 0.29049873 -0.61559254 0.17694509 -0.44382048 -0.051527962 -0.6206199 -0.122550696
0.24685842 0.151149 0.41898918 0.29505724 0.32534137 0.09374982 0.15974686 -0.3110533
0.009180431 -0.15215789 -0.27821633 -0.2883917 -0.17634714 -0.79082996 -0.46587968 0.27403754
0.60535955 -0.39771795
00000000: a6a6 cd3c 8c7b 843e caaa 863e e267 a9be
00000010: 337a 1e3f d272 093f 10b1 81be fbf5 533d
00000020: efee b4be 5d11 bcbe 3d77 97be f5b4 583e
00000030: e998 f43e 6dec e53e 35b2 b1bd 2711 a03e
00000040: c27f 91be bc0f 3cbf 57d3 f8be 53c9 a6be
00000050: c2b4 2abf 87f0 9d3d 16f1 1cbf 64a6 24bb
00000060: ef83 d4bd 6174 9abe a20a b9be 2363 df3e
00000070: 0221 333f d54d 8f3d 52cd 033e 92f4 e13e
00000080: 3013 0abd c340 03bf 8cf8 e53e 06b9 d73e
00000090: f3c6 a7bd 430f 00be daae a3be 93ff f2bd
000000a0: b301 e03e d148 cabe 2b20 343f de32 aa3e
000000b0: fff4 5abe e336 95bd 69d4 0bbf b642 56bf
000000c0: c78e 2fbf 99b8 7cbe 198c e2be 181d 93be
000000d0: ca95 4fbf b122 acbe 94c6 0c3e cb34 753d
000000e0: 7478 eabe 8d9c ea3e 879e 0a3f eca7 b73e
000000f0: c37a d6be ae46 c03e 2744 0c3d 2281 fbbe
00000100: 4f06 ea3e 40bc 943e 7997 1dbf 1831 353e
00000110: 703c e3be fc0e 53bd f2e0 1ebf dcfb fabd
00000120: 74c8 7c3e cec6 1a3e c085 d63e be11 973e
00000130: 2593 a63e e8ff bf3d ae94 233e 6142 9fbe
00000140: 8569 163c 47cf 1bbe 5f72 8ebe 14a8 93be
00000150: 5894 34be d573 4abf c887 eebe a64e 8c3e
00000160: d8f8 1a3f b0a1 cbbe

fc2.bias f4 [3]
0.05265653 0.2749204 0.2565592
00000000: 60ae 573d 5ec2 8c3e ba5b 833e

exp_avg f4 [30, 5]
1.6205539e-07 -1.1720503e-07 4.462985e+11 -470561.25 0.0010180702 -1.5987423e-07 1.2278299e-08 2.184238e+12
-2.3029838e+06 0.00020070025 -6e-45 6.914626e-33 2.2321496e+12 -2.3534992e+06 2.5411924e-05 3.091644e-08
8.565193e-07 -2.1471279e+12 2.2638562e+06 0.0055451714 2.0429782e-08 7.224124e-08 -2.4135714e-08 0.0009448786
-0.0009448786 6.5104996e-07 -5.5475073e-08 4.2130048e+12 -4.4420425e+06 -0.0070708874 1.5309044e-07 -9.5325277e-07
-1.5781482e+12 1.6639444e+06 -0.0015402989 0.0 6.27506e-36 2.0256864e+09 -2135.8125 -6e-45
3.6581773e-07 -4.0898053e-07 -2.292707e+12 2.4173488e+06 -0.00020992653 -2.8272206e-07 -1.2549035e-07 2.031423e+10
-21418.598 0.003559586 1.344785e-06 4.5584184e-07 -1.9005039e+12 2.0038235e+06 0.003713363 9.6718296e-08
5.2315346e-07 1.8430705e+12 -1.9432675e+06 -0.00067796785 8.522821e-07 1.8623653e-07 2.147349e-06 0.008721028
-0.008721028 -1.2479163e-06 -1.2826888e-06 3.5589057e+12 -3.7523838e+06 -0.0050553107 -7.921404e-07 4.4777872e-07
-4.152059e-07 0.0009972765 -0.0009972765 1.9900571e-07 8.298196e-07 2.5857268e+12 -2.7262975e+06 -0.0026621013
-4.0960697e-07 1.5208606e-06 -6.1530164e-07 -0.002146816 0.002146816 -3.9408687e-07 9.543096e-07 -5.054579e+12
5.329364e+06 0.007250725 5.903367e-07 7.0145245e-07 5.1631923e-07 -0.002729392 0.002729392 -9.670581e-08
-2.4904978e-07 -2.0999995e+12 2.2141652e+06 0.0044466103 3.689289e-07 1.9360827e-07 3.2862715e-07 -0.0015894645
0.0015894645 2.7077982e-07 4.4825015e-07 8.484981e+11 -894626.25 0.001061314 -3.5701103e-07 9.516781e-07
-4.2012333e+12 4.429629e+06 0.007802793 3.0065883e-07 2.8258938e-07 2.500069e+11 -263598.4 0.000423121
0.0 0.0 0.0 0.0 0.0 3.5709505e-07 -4.8690015e-07 -1.9136522e+12
2.0176874e+06 0.0051874276 7.352315e-08 -1.8005329e-08 -2.3689248e+12 2.4977098e+06 0.007951483 5.353637e-07
7.848124e-08 3.4842248e+12 -3.6736428e+06 -0.00670984 5.1976394e-07 1.0849076e-07 5.3808254e+12 -5.67335e+06
-0.009793384 -8.423203e-09 -6.1988476e-07 7.931862e+11 -836307.44 -0.0035272015
00000000: 7201 2e34 26b2 fbb3 edd2 cf52 28c4 e5c8
00000010: c470 853a e5a9 2bb4 88f0 5232 5d47 fe53
00000020: 1f90 0cca 1073 5239 0400 0080 759c 0f0a
00000030: 9fed 0154 6da5 0fca b12b d537 fcc8 0433
00000040: 8feb 6535 66f5 f9d3 c12c 0a4a 45b4 b53b
00000050: 917d af32 0b23 9b33 ff52 cfb2 bbb1 773a
00000060: bbb1 77ba d0c3 2e35 7d43 6eb3 aa3a 7554
00000070: 758f 87ca e7b2 e7bb 2e61 2434 08e3 7fb5
00000080: 7bb8 b7d3 431e cb49 dbe3 c9ba 0000 0000
00000090: ad74 0505 0b7b f14e 007d 05c5 0400 0080
000000a0: 9b65 c434 db91 dbb4 ff73 05d4 138b 134a
000000b0: b91f 5cb9 06c9 97b4 86be 06b4 525a 9750
000000c0: 3255 a7c6 f147 693b 767e b435 6dba f434
000000d0: 6e3f ddd3 7c9b f449 e55b 733b 72b3 cf33
000000e0: d56e 0c35 c88f d653 1c37 edc9 a7b9 31ba
000000f0: 61c8 6435 4ff8 4734 2d1b 1036 a5e2 0e3c
00000100: a5e2 0ebc 147e a7b5 da28 acb5 d427 4f54
00000110: ff06 65ca 05a7 a5bb 79a3 54b5 3d66 f034
00000120: 77e9 deb4 0cb7 823a 0cb7 82ba 46ae 5534
00000130: c5c0 5e35 5582 1654 6666 26ca a676 2ebb
00000140: f4e7 dbb4 5f20 cc35 352b 25b5 99b1 0cbb
00000150: 99b1 0c3b e392 d3b4 d415 8035 8c1b 93d4
00000160: a8a3 a24a 7d97 ed3b a177 1e35 724b 3c35
00000170: 3099 0a35 99df 32bb 99df 323b 95ac cfb3
00000180: 24b5 85b4 dd78 f4d3 5524 074a dfb4 913b
00000190: 3411 c634 a3e2 4f34 2c6e b034 9455 d0ba
000001a0: 9455 d03a b25f 9134 08a7 f034 6e8e 4553
000001b0: 246a 5ac9 ca1b 8b3a 39ab bfb4 d276 7f35
000001c0: 418b 74d4 7a2e 874a 92ae ff3b 3c6a a134
000001d0: cab6 9734 4ad6 6852 cdb5 80c8 57d6 dd39
000001e0: 0000 0000 0000 0000 0000 0000 0000 0000
000001f0: 0000 0000 c5b6 bf34 86b3 02b5 48c7 ded3
00000200: bb4c f649 4cfb a93b c7e3 9d33 23aa 9ab2
00000210: bbe3 09d4 b772 184a f046 023c eab5 0f35
00000220: 8589 a833 ffce 4a54 ab38 60ca 38de dbbb
00000230: e885 0b35 6dfb e833 469a 9c54 0c23 adca
00000240: 6e74 20bc a3b5 10b2 2866 26b5 95ad 3853
00000250: 372d 4cc9 9f28 67bb

exp_avg_sq f4 [30, 5]
4.4428393e-06 6.401554e-06 3.3649866e+23 3.7408014e+11 5.7564203e-06 1.5471085e-07 4.673526e-08 1.7447623e+25
1.9396246e+13 2.4247165e-06 2.0374041e-14 0.0 1.8759331e+25 2.0854457e+13 2.9420034e-08 2.9649733e-05
2.7609727e-05 3.4212035e+25 3.8032992e+13 3.275404e-05 2.1086837e-09 4.5026464e-08 3.9241637e-08 8.751098e-06
8.751098e-06 1.0051503e-05 9.730438e-06 7.775112e+25 8.643469e+13 2.7535129e-05 1.1010924e-06 2.657887e-06
2.0704081e+25 2.3016403e+13 1.621397e-05 0.0 0.0 6.4296298e+22 7.147719e+10 7.283113e-12
1.5598288e-06 2.1596436e-06 3.8181553e+25 4.2445836e+13 1.3450953e-05 1.1607559e-05 1.1024186e-05 3.1729025e+24
3.527266e+12 1.6936057e-05 1.6072937e-06 1.2106422e-06 2.793904e+25 3.1059392e+13 2.253284e-05 1.1271321e-05
1.0035169e-05 1.1623901e+25 1.2922109e+13 2.1017644e-05 2.7465974e-06 1.5607804e-07 1.6419137e-05 2.9213696e-05
2.9213696e-05 7.0914834e-06 5.121887e-06 5.3232e+25 5.9177175e+13 9.201302e-06 7.6630495e-06 8.810176e-06
9.118537e-06 6.878583e-06 6.878583e-06 4.63977e-06 5.996543e-06 2.6119882e+25 2.9037062e+13 8.414413e-06
2.9002751e-05 2.5145524e-05 3.670765e-05 2.3717585e-05 2.3717585e-05 7.074745e-05 6.29759e-05 1.56175e+26
1.736174e+14 6.98006e-05 1.6593098e-06 1.8651165e-06 4.317065e-06 1.4738142e-05 1.4738142e-05 1.4635115e-05
1.645001e-05 3.2953397e+25 3.6633785e+13 1.3900774e-05 1.7282086e-06 1.0930602e-06 3.0954423e-06 8.20793e-06
8.20793e-06 5.567807e-06 4.882491e-06 1.4778113e+24 1.6428596e+12 1.1070622e-05 6.6969194e-05 5.8555783e-05
1.1129688e+26 1.2372706e+14 6.4222084e-05 8.407057e-06 8.958214e-06 3.9627584e+23 4.405336e+11 9.623898e-06
0.0 0.0 0.0 0.0 0.0 1.7661025e-05 2.0850723e-05 2.822602e+25
3.1378427e+13 2.3732742e-05 2.796769e-05 3.073489e-05 4.039892e+25 4.4910833e+13 2.7924147e-05 1.2244866e-06
3.8874706e-08 5.1224584e+25 5.6945575e+13 1.3831321e-05 2.9079927e-06 1.1448941e-07 1.3147108e+26 1.4615435e+14
4.041897e-05 9.8827895e-06 9.9961735e-06 1.2143098e+24 1.3499289e+12 1.11214495e-05
00000000: b313 9536 eecc d636 4283 8e66 d431 ae52
00000010: 4627 c136 981e 2634 f6b9 4833 d9ea 6669
00000020: 5320 8d55 50b8 2236 5783 b728 0000 0000
00000030: 1647 7869 74bc 9755 57b7 fc32 51b8 f837
00000040: 709b e737 7165 e269 fc5c 0a56 6261 0938
00000050: 5be8 1031 1f63 4133 a38a 2833 aed1 1237
00000060: aed1 1237 e0a2 2837 ea3f 2337 e1a0 806a
00000070: 4a39 9d56 3dfb e637 3fc9 9335 275e 3236
00000080: 1402 8969 6477 a755 3c03 8837 0000 0000
00000090: 0000 0000 26d8 5965 fb22 8551 3a20 002d
000000a0: 4f5b d135 65ee 1036 11aa fc69 c46a 1a56
000000b0: 67ab 6137 16be 4237 85f4 3837 d9f8 2768
000000c0: 5c50 4d54 e811 8e37 31ba d735 597d a235
000000d0: 93e2 b869 a0fc e155 e804 bd37 f419 3d37
000000e0: b95c 2837 4fd7 1969 9b0a 3c55 0c4f b037
000000f0: 2f52 3836 6896 2734 d4bb 8937 ef0f f537
00000100: ef0f f537 61f3 ed36 addc ab36 4221 306a
00000110: 0a49 5756 4b5f 1a37 8c90 0037 6bcf 1337
00000120: d1fb 1837 94ce e636 94ce e636 52af 9b36
00000130: ea35 c936 cdd8 ac69 be45 d355 a12b 0d37
00000140: ef4a f337 9aef d237 8af6 1938 20f5 c637
00000150: 20f5 c637 3f5e 9438 ee11 8438 582f 016b
00000160: 73e7 1d57 e961 9238 73b5 de35 ea54 fa35
00000170: 4edb 9036 d743 7737 d743 7737 5789 7537
00000180: 21fe 8937 3a11 da69 df45 0556 5f37 6937
00000190: ccf4 e735 43b5 9235 4bbb 4f36 cab4 0937
000001a0: cab4 0937 19d3 ba36 47d4 a336 2878 9c67
000001b0: 0841 bf53 f6bb 3937 d071 8c38 cb99 7538
000001c0: 1020 b86a e70e e156 f8ae 8638 090c 0d37
000001d0: 3c4b 1637 50d4 a766 b323 cd52 5476 2137
000001e0: 0000 0000 0000 0000 0000 0000 0000 0000
000001f0: 0000 0000 c326 9437 96e8 ae37 bdc8 ba69
00000200: e04e e455 ad15 c737 289c ea37 56e9 0038
00000210: 37ab 056a 7962 2356 a63e ea37 0a59 a435
00000220: 31f7 2633 e97c 296a b32a 4f56 120d 6837
00000230: ef26 4336 38dd f533 2b80 d96a 36ed 0457
00000240: 8a87 2938 42ce 2537 3db5 2737 ef91 8067
00000250: 0427 9d53 4396 3a37

exp_avg f4 [30]
-0.001438829 0.00075067894 0.00030312236 -0.0075517246 -0.0008441304 0.0067162784 -0.002437354 2.4858073e-07
-0.0006976111 -0.003929053 -0.004386202 0.0006997676 0.0039195814 0.004167143 0.00071724533 0.0063526444
-0.0010343083 -0.010037241 0.0033063898 -0.0046786885 0.0018460107 0.001399291 -0.010883357 0.0015408533
0.0 -0.006476416 -0.00700122 0.005059466 0.010101049 -0.004922397
00000000: 1797 bcba 36c9 443a 65ec 9e39 7574 f7bb
00000010: a248 5dba 3a14 dc3b 04bc 1fbb ad74 8534
00000020: e3df 36ba 49bf 80bb 21ba 8fbb 9c70 373a
00000030: d56f 803b 878c 883b 8505 3c3a d829 d03b
00000040: a191 87ba 3d73 24bc 04b0 583b af4f 99bb
00000050: d7f5 f13a 6a68 b73a 1c50 32bc 75f6 c93a
00000060: 0000 0000 1d38 d4bb 7d6a e5bb e1c9 a53b
00000070: df7e 253c 0f4c a1bb

exp_avg_sq f4 [30]
3.2890523e-05 3.844798e-06 3.4549868e-07 8.507333e-05 7.010266e-05 9.3670526e-05 4.0975683e-05 1.0179673e-09
3.6744907e-05 6.4687294e-05 4.034088e-05 4.5871922e-05 0.00016180193 5.7615554e-05 4.8423324e-05 4.7189227e-05
0.00014834617 0.00019524507 3.091162e-05 9.263983e-05 1.881738e-05 3.7993243e-05 0.00017110689 4.7934256e-05
0.0 6.2665975e-05 0.00016836953 8.144923e-05 0.00019371102 6.772674e-05
00000000: eef3 0938 9002 8136 fa7c b934 6569 b238
00000010: 1404 9338 fb70 c438 4edd 2b38 8ae8 8b30
00000020: 8b1e 1a38 baa8 8738 b133 2938 9a66 4038
00000030: 60a9 2939 3ba8 7138 261a 4b38 0ced 4538
00000040: 5f8d 1b39 b3ba 4c39 19a7 0138 a147 c238
00000050: 04da 9d37 ef5a 1f38 286b 3339 040d 4938
00000060: 0000 0000 8a6b 8338 5a8c 3039 b9cf aa38
00000070: e81e 4b39 8408 8e38

exp_avg f4 [3, 30]
3.8133797e+12 2.9148785e+12 1.4794971e+12 1.3894565e+12 6.554897e-05 2.1195623e+12 1.7906756e+12 -8.769653e+09
3.2177628e+12 -5.0079197e+08 1.08333983e+12 2.6120372e+12 0.008326527 5.447492e+12 0.013892251 1.9024938e+12
0.00872595 4.8543606e+12 -0.00014960906 2.0950027e+12 -0.00011821394 4.1264037e+12 1.09779354e+12 4.119782e+12
0.0 4.2531826e+12 1.3737697e+12 1.9585314e+12 4.6039024e+12 4.841193e+12 0.0026365998 -0.0010493908
-1.4138045e-06 0.00116523 -0.002449445 0.0015254485 -0.0028555698 -6e-45 -0.0024683047 0.0009374934
0.00077928044 0.00068077707 -0.00017708846 -0.004232603 0.0027680437 -0.0012890754 0.0013815825 0.00043549863
-0.0022315618 -0.00024365827 -0.0018366047 -0.00038890328 0.00079357816 -0.0009974709 0.0 0.00027939092
-0.0005141169 -0.00070488005 0.00013166368 0.0005900085 0.0050331857 0.0014249897 6.6201795e-07 0.0030323502
0.0015675549 0.0045446334 0.0025358675 -6e-45 0.0021529356 0.0021439586 0.0019957626 0.001834924
0.0035588606 0.0023957165 0.0063166204 0.0041067437 0.0038441415 0.0017363188 0.001992938 0.00021027759
0.0016122564 0.0008052997 0.0022735386 0.0006041373 0.0 0.0013543955 0.00014600491 0.002146965
0.0028226315 0.003353133
00000000: c9f7 5d54 13ab 2954 733c ac53 08c1 a153
00000010: 5677 8938 e1bf f653 4b76 d053 92ad 02d0
00000020: 674c 3b54 d5cb eecd 163c 7c53 630a 1854
00000030: fc6b 083c fa8a 9e54 539c 633c bc7a dd53
00000040: 49f7 0e3c ce47 8d54 60e0 1cb9 f2e3 f353
00000050: a0e9 f7b8 3530 7054 9899 7f53 89cd 6f54
00000060: 0000 0000 5c91 7754 87ed 9f53 c900 e453
00000070: bffd 8554 b3e5 8c54 ceca 2c3b b68b 89ba
00000080: f4c1 bdb5 a1ba 983a de86 20bb 8ff1 c73a
00000090: 8324 3bbb 0400 0080 48c3 21bb 1ec2 753a
000000a0: a048 4c3a 2d76 323a d2b0 39b9 a6b1 8abb
000000b0: 1168 353b 31f6 a8ba 3716 b53a a353 e439
000000c0: 653f 12bb 857e 7fb9 3aba f0ba b7e5 cbb9
000000d0: 2108 503a 92bd 82ba 0000 0000 377b 9239
000000e0: cdc5 06ba b3c7 38ba 330f 0a39 cdaa 1a3a
000000f0: 6ced a43b b8c6 ba3a 87b5 3135 65ba 463b
00000100: 6a76 cd3a 26eb 943b cc30 263b 0400 0080
00000110: 4418 0d3b a881 0c3b 57cb 023b d581 f03a
00000120: c63b 693b 7401 1d3b a7fb ce3b dd91 863b
00000130: feed 7b3b 3195 e33a f49b 023b f67d 5c39
00000140: 5952 d33a bf1a 533a a6ff 143b f85e 1e3a
00000150: 0000 0000 f985 b13a e518 1939 18b4 0c3b
00000160: e6fb 383b 3dc0 5b3b

exp_avg_sq f4 [3, 30]
8.418226e+25 3.4242188e+25 6.767744e+24 1.6975939e+25 3.7381958e-06 1.6162397e+25 2.5351337e+25 9.274558e+22
6.8818147e+25 2.88464e+21 1.1728297e+25 2.675944e+25 8.885372e-05 1.3510647e+26 0.00035043183 1.255964e+25
0.00020467922 1.4492111e+26 2.4873943e-06 3.2822437e+25 1.3980341e-06 7.954644e+25 1.1948053e+25 1.0368414e+26
0.0 1.1377678e+26 1.668179e+25 1.3396374e+25 9.381441e+25 1.1409439e+26 0.00027691873 6.419494e-07
1.9027664e-10 0.000110047884 5.825948e-06 8.871053e-05 4.1975454e-05 1.672226e-12 3.8821156e-05 4.658181e-05
1.6645505e-05 6.328041e-05 5.5927358e-05 6.878661e-05 0.00015666687 0.00011864317 0.00011315563 9.433715e-05
1.3719711e-05 0.00014696183 1.0494193e-05 0.00015143873 6.134916e-05 0.00020671955 0.0 0.00020595963
0.00021562437 1.8994722e-05 4.6090914e-05 0.00021549329 9.298302e-05 1.0614393e-06 5.347004e-11 4.7496582e-05
5.784636e-06 5.787104e-05 3.856596e-05 2.4818304e-13 3.2455013e-05 2.3132188e-05 6.109516e-06 4.2810876e-05
3.914431e-05 3.4611363e-05 0.00014147634 0.00010007754 0.00012626004 4.9562368e-05 1.9567588e-05 5.8042257e-05
1.2429183e-05 8.757719e-05 3.1419604e-05 8.232594e-05 0.0 6.0531856e-05 9.5194315e-05 1.4176368e-05
2.7017044e-05 6.7756366e-05
00000000: 9344 8b6a 8698 e269 0424 b368 b8ac 6069
00000010: b7dd 7a36 55e8 5569 d6c2 a769 fc1d 9d65
00000020: 3db3 636a 6c60 1c63 0439 1b69 4114 b169
00000030: fa56 ba38 d183 df6a 2aba b739 b739 2669
00000040: 299f 5639 7ac0 ef6a 1ced 2636 5f33 d969
00000050: 16a4 bb35 3a99 836a 9421 1e69 f187 ab6a
00000060: 0000 0000 573a bc6a 1ac8 5c69 ae4c 3169
00000070: f333 9b6a dbc0 bc6a 672f 9139 6d52 2c35
00000080: 1d36 512f 82c9 e638 837c c336 1a0a ba38
00000090: cd0e 3038 4b58 eb2b e6d3 2238 d660 4338
000000a0: f3a1 8b37 69b5 8438 8b93 6a38 8841 9038
000000b0: f146 2439 11d0 f838 f74d ed38 dfd6 c538
000000c0: b62d 6637 c419 1a39 3710 3037 86cb 1e39
000000d0: 94a8 8038 dbc2 5839 0000 0000 def6 5739
000000e0: 3a19 6239 db56 9f37 be51 4138 0af6 6139
000000f0: e1ff c238 c776 8e35 ea29 6b2e 1137 4738
00000100: a519 c236 8eba 7238 e2c1 2138 f2b6 8b2a
00000110: 4e20 0838 ff0b c237 5800 cd36 d48f 3338
00000120: e22e 2438 ab2b 1138 4459 1439 b8e0 d138
00000130: ac64 0439 30e1 4f38 1325 a437 6672 7338
00000140: ef86 5037 a5a9 b738 8bc8 0338 67a6 ac38
00000150: 0000 0000 96e3 7d38 0fa3 c738 09d7 6d37
00000160: a9a2 e237 6c18 8e38

exp_avg f4 [3]
0.01168992 -0.0049201045 0.007123424
00000000: 1487 3f3c d438 a1bb 9d6b e93b

exp_avg_sq f4 [3]
0.0003612437 0.00036395225 0.0002438041
00000000: 4f65 bd39 d8d0 be39 aaa5 7f39
