last_brain.pth (torch_old, 5138 bytes, 12 tensors)

fc1.weight f4 [30, 5]
000000 7f bd 42 3f 35 8c b0 be 3b e9 25 3f aa 21 16 3f
       0.760704 -0.3448197 0.64809006 0.5864512
000010 d4 f5 fd be 8d 42 0d 3c d6 a8 35 be 63 07 8a 3e
       -0.49601614 0.008621824 -0.17740187 0.2695876
000020 b4 26 0f bf 2c 62 58 bd 17 2c fd bd 48 c4 43 be
       -0.5591843 -0.052828 -0.12361925 -0.19117844
000030 cc 70 94 3d 1b d5 95 3e 1b 57 a0 3e 4d 3e e5 3e
       0.07248077 0.2926415 0.31316456 0.44774094
000040 2a eb a3 3e cc 29 a9 3e b4 4a 4a 3f 3c 4d 3b bf
       0.32015353 0.330397 0.7902024 -0.73164725
000050 ef eb 29 bf b7 98 23 c0 9f 7a ca bf 7d da f3 3c
       -0.6637563 -2.556196 -1.5818671 0.02976727
000060 4b 6a 36 3e 04 9a 27 bf 6d 4b 2d be 21 5c 21 3e
       0.17813985 -0.65469384 -0.16923304 0.157578
000070 8f 5a 9d 3e c9 6f fa be db 89 d3 be b7 8e 10 bd
       0.30733153 -0.4891341 -0.41316113 -0.035292353
000080 c5 c7 c5 3e f9 77 31 bf bf 8a 52 3f 09 ea e3 be
       0.38628975 -0.6932369 0.8224296 -0.44514492
000090 98 8e 1b be 7d ce 7a 3d 9a e6 c9 3e 2e dd c2 3e
       -0.15191114 0.06123208 0.39433748 0.38059372
0000a0 1d 07 b8 be 8d ba 68 be 52 1a 15 3f 90 bb 51 bf
       -0.35942927 -0.22727413 0.58243287 -0.8192682
0000b0 42 3b 3e 3f f9 68 a6 3e a6 32 01 be 34 9a 8f 3c
       0.7430917 0.32501963 -0.12616977 0.017529584
0000c0 4f b2 c5 3e f2 52 8f bc 6c 45 f3 be d7 e9 9d be
       0.386126 -0.017495606 -0.47513902 -0.30842468
0000d0 d1 c5 93 3e 80 bd d2 3e d4 c3 20 bf 0e c6 a0 be
       0.2886186 0.41160202 -0.6279881 -0.31401104
0000e0 fc 8b 36 3f 01 0a 6b 3e 15 65 2f 3f 58 a4 ba be
       0.7130735 0.22953035 0.68513614 -0.3645351
0000f0 a7 a9 fa be 0e 05 43 c0 5c e3 73 bd 9d 51 5e 3e
       -0.4895756 -3.0471835 -0.059543 0.2171082
000100 63 7a dc bc e0 a5 b9 be 16 f0 03 bf 88 a1 1d 3f
       -0.026913827 -0.36259365 -0.5153822 0.615746
000110 6b 6f 61 3e 6c 80 06 3f 98 8d fa be 6c ac 1e 3f
       0.22015159 0.52539706 -0.48936152 0.61981845
000120 d5 4e 9d be aa 9f 49 3f ae c7 db be 89 51 17 bf
       -0.30724207 0.78759253 -0.4292578 -0.5910879
000130 be ec 07 3f f6 c7 04 3e 6c 6e 78 3e 8b 25 9f bd
       0.53095615 0.12966904 0.24260873 -0.07770833
000140 10 26 0c bf 9a 65 7b 3f ee 8d 2e be 57 da fe 3d
       -0.5474558 0.98201907 -0.1704633 0.12443989
000150 18 c2 27 bf 5a 8a fe be 21 18 91 3f 0c 95 4e 3f
       -0.6553054 -0.4971493 1.1335489 0.8069618
000160 c9 c4 12 3f 71 86 0c bf 7e 01 81 3e eb 8a 66 be
       0.5733152 -0.5489264 0.2519645 -0.2251393
000170 ea e9 9f be fb c0 72 bf df e1 18 3f 15 e1 e0 3e
       -0.3123315 -0.94825715 0.5971965 0.43921724
000180 45 68 2e 3f 04 05 db 3e 84 20 a3 bd 7f d1 c2 3c
       0.6812785 0.42777264 -0.07965186 0.023781536
000190 9b bf c5 3e b6 35 c5 be 91 0b 87 bc a9 d7 07 bf
       0.38622746 -0.3851754 -0.016485007 -0.53063446
0001a0 0f 60 34 3f d4 ce 30 be 75 47 75 3f 4a 4e 08 3f
       0.70459074 -0.17266399 0.9581216 0.5324446
0001b0 a8 77 26 be 36 4c 71 be 3c 96 79 bd 76 02 28 3f
       -0.16256583 -0.23564228 -0.06093429 0.65628755
0001c0 36 26 94 3e 7b e9 e6 3e 01 90 45 bf 93 0d 96 3e
       0.28935403 0.45100006 -0.7717286 0.2930723
0001d0 b0 54 63 3f 09 33 35 3f 96 af e3 be ec 64 a9 3d
       0.888011 0.70781 -0.444699 0.082712024
0001e0 d4 63 93 be 72 9b b6 be 68 2b d8 be dc 42 32 3e
       -0.287871 -0.3566547 -0.42220616 0.17408317
0001f0 c0 ad e1 3d d4 36 86 3f 83 e0 1c 3e 14 b1 39 3f
       0.11019468 1.0485482 0.1532002 0.72535825
000200 80 31 05 3f 0e 5e 05 bf af 5c 27 3f e1 d0 73 3f
       0.52028656 -0.5209664 0.653758 0.952406
000210 e4 fa a7 3e f0 06 f6 bd cf 21 93 3d 3f 82 a2 be
       0.32808602 -0.12013042 0.07184183 -0.31739995
000220 69 31 2c c0 e6 60 0b 3e a3 8a bd 3e 11 06 66 3e
       -2.6905158 0.13611183 0.37019834 0.22463252
000230 28 45 17 bf 82 01 6a c0 61 75 ff 3e 15 aa e4 3d
       -0.590899 -3.656342 0.4989424 0.11165253
000240 e0 e1 54 be c5 af 06 3f 0a 53 fb be 95 b9 29 3f
       -0.2078929 0.52611953 -0.4908679 0.662988
000250 f6 70 da 3e 55 05 18 bc
       0.42664307 -0.009278615

fc1.bias f4 [30]
000000 e1 0e 18 3e cb 94 cf be 26 bd 31 be 28 d3 fd be
       0.14849426 -0.40543208 -0.1735731 -0.49575162
000010 d0 18 09 3e 96 e9 ca 3e 42 61 93 be af 64 c8 bd
       0.13388371 0.39631337 -0.2878514 -0.09784829
000020 c9 e3 d0 be e3 6e 39 3e 72 6e c4 be 3d 8d 8f be
       -0.40798786 0.18108706 -0.38365513 -0.28037444
000030 55 e0 c6 3e f6 2d b7 3e fa 7b ca 3e 80 7d 00 3f
       0.38843027 0.35777253 0.39547712 0.501915
000040 50 89 b4 3e 96 1b 04 bf 09 92 16 bf 4d 2d b3 3d
       0.3526101 -0.5160459 -0.5881658 0.08748875
000050 57 dd de be 1f ad 41 3e 81 78 e4 be df 4a 02 3c
       -0.43528244 0.18913697 -0.44623187 0.007952421
000060 14 92 cc bd b6 7e fd be da 45 ab 3d 86 95 50 3e
       -0.099888 -0.49510735 0.083629325 0.20369539
000070 ad ed 88 3e d5 6c d1 3e
       0.26743832 0.40903345

fc2.weight f4 [3, 30]
000000 ee fd 96 bd 12 b0 2b 3e c5 3a 38 3e 92 6a df be
       -0.07372652 0.16766384 0.17991169 -0.43635994
000010 42 61 22 3f 3a 44 e5 3e 64 b0 b6 be 4d b2 4b bd
       0.63429654 0.44778615 -0.3568145 -0.049730588
000020 24 b1 e8 be 70 ee d5 be 85 05 cf be 44 64 f7 3d
       -0.45447648 -0.41783476 -0.404339 0.12079671
000030 c7 cf eb 3e d3 b6 b5 3e 4c 18 e5 bd 71 b8 66 3e
       0.4605696 0.35491046 -0.11186275 0.22531296
000040 14 7d 9c be d9 bb 55 bf 61 73 df be 00 62 db be
       -0.30564177 -0.8348976 -0.43642715 -0.42848206
000050 6d a2 1c bf 32 89 84 bc 9b 58 38 bf 35 9d d0 bd
       -0.6118534 -0.016178701 -0.720102 -0.10186235
000060 ef 83 d4 bd 84 e1 cd be 70 c3 ee be 72 64 b2 3e
       -0.10376727 -0.40211117 -0.46633482 0.3484226
000070 db 03 1b 3f 50 07 c9 bc 4f 66 c5 3d 97 93 bb 3e
       0.6055276 -0.02453962 0.096386544 0.3663604
000080 87 55 e7 bd d1 f5 0e bf 5c 17 cd 3e 39 ee b7 3e
       -0.1129561 -0.55843836 0.40056884 0.35923937
000090 86 74 fc bd 43 0f 00 be fc 6c b7 be 98 15 1f be
       -0.123269126 -0.12505822 -0.35825336 -0.15535581
0000a0 a2 23 b0 3e cf c7 df be d7 3b 27 3f 92 0e 9b 3e
       0.34402186 -0.4370713 0.65325683 0.30284554
0000b0 4b 90 8d be e5 5a ef bd ed 5d 18 bf bd f5 5d bf
       -0.2764915 -0.11687259 -0.5951832 -0.8670309
0000c0 ac 13 3e bf 6f af 80 be 0e 49 fe be 0d 44 9a be
       -0.74248767 -0.25133845 -0.4966511 -0.30130044
0000d0 30 c1 5b bf 6d b1 b0 be 94 c6 0c 3e dc e4 2d 3d
       -0.85841656 -0.34510365 0.13747627 0.042454585
0000e0 6e cc ec be 92 4a d2 3e c8 f9 ff 3e 2e 13 aa 3e
       -0.46249717 0.41072518 0.49995255 0.33217758
0000f0 62 1a f3 be 6a f9 5d 3e c4 96 8b 3d 37 41 0d bf
       -0.47481066 0.21677175 0.06815866 -0.55177635
000100 0c 9d c3 3e 3f a1 5c 3e c7 eb 32 bf 18 31 35 3e
       0.38205755 0.21545886 -0.6989102 0.17694509
000110 a8 99 07 bf 32 6e de bd 0e dd 3c bf 6e fd 28 be
       -0.52968836 -0.10860862 -0.737748 -0.16502926
000120 a6 69 3b 3e 78 bf a9 3d b3 9b b6 3e c9 ac 7b 3e
       0.1830202 0.08288473 0.35665664 0.24577631
000130 ac 91 8f 3e 6f ce 79 3d bd cb 70 3d cd e5 a3 be
       0.28040826 0.060987886 0.05878805 -0.32011262
000140 9a 12 c7 bd ab 64 2c be a1 1c ab be 67 18 9d be
       -0.09720345 -0.16835277 -0.3342028 -0.3068268
000150 58 94 34 be 72 58 51 bf c3 c3 f2 be c8 01 5d 3e
       -0.17634714 -0.8177558 -0.4741498 0.2158271
000160 d6 3b 0d 3f 2f 5e e4 be
       0.5516943 -0.44603106

fc2.bias f4 [3]
000000 9e fd 27 3d be 07 6f 3e 8a 42 45 3e
       0.041013353 0.23342797 0.19263664

exp_avg f4 [30, 5]
000000 b5 b6 01 39 e2 a0 bb b8 e7 6a af b9 f6 d3 0d b7
       0.00012370462 -8.9468216e-05 -0.0003345825 -8.453606e-06
000010 f6 d3 0d 37 97 ef ff b8 16 3f 1d 37 50 a8 e8 b8
       8.453606e-06 -0.000122039746 9.372618e-06 -0.00011093973
000020 39 53 d9 b8 39 53 d9 38 04 00 00 80 00 00 00 00
       -0.00010362868 0.00010362868 -6e-45 0.0
000030 04 00 00 00 04 00 00 80 04 00 00 00 a2 f8 c5 37
       6e-45 -6e-45 6e-45 2.3600009e-05
000040 49 65 2b 3a 9a 29 20 ba 7e 60 e4 ba 7e 60 e4 3a
       0.0006538225 -0.0006109715 -0.0017423776 0.0017423776
000050 13 d2 82 37 bb 4b 67 38 20 8d 9a b7 20 79 3a b9
       1.5595031e-05 5.514522e-05 -1.8423947e-05 -0.00017783465
000060 20 79 3a 39 9b 47 02 3a 8a 9d 31 b8 8c 68 82 3a
       0.00017783465 0.00049697765 -4.234681e-05 0.000994937
000070 c8 d0 4a 3a c8 d0 4a ba 6c 13 f5 38 b0 c0 3e ba
       0.00077367993 -0.00077367993 0.00011686128 -0.00072766375
000080 46 4f 2c b9 bc 77 95 3a bc 77 95 ba 00 00 00 00
       -0.0001643273 0.0011403481 -0.0011403481 0.0
000090 00 00 00 00 04 00 00 00 04 00 00 00 04 00 00 80
       0.0 6e-45 6e-45 -6e-45
0000a0 cc 67 92 39 06 ae a3 b9 e7 70 a6 b9 f1 6d 67 3a
       0.00027924625 -0.0003121944 -0.00031746106 0.0008828333
0000b0 f1 6d 67 ba 7d 4c 62 b9 66 e4 c8 b8 4b 33 d7 b9
       -0.0008828333 -0.00021581534 -9.579286e-05 -0.00041046212
0000c0 33 d5 83 ba 33 d5 83 3a ee 8c 86 3a 33 6f b6 39
       -0.0010058045 0.0010058045 0.0010265389 0.00034796595
0000d0 93 81 1c 3a a4 e2 5f 37 a4 e2 5f b7 0a d5 9a 38
       0.0005970236 1.3344605e-05 -1.3344605e-05 7.382974e-05
0000e0 99 5f d1 39 07 dd 48 39 32 82 22 ba 32 82 22 3a
       0.00039934812 0.00019155825 -0.000619921 0.000619921
0000f0 38 8c 2a 3a ad 11 15 39 96 d9 d6 3a 06 80 07 38
       0.00065058796 0.00014216332 0.001639175 3.230574e-05
000100 06 80 07 b8 8e b7 79 ba 6e 56 80 ba 9b a8 68 ba
       -3.230574e-05 -0.0009525948 -0.0009791383 -0.0008875222
000110 37 ed 2f 3a 37 ed 2f ba 4e 83 1e ba 18 35 b3 39
       0.0006711068 -0.0006711068 -0.00060467876 0.00034181098
000120 dd 2b a6 b9 c7 4d 53 ba c7 4d 53 3a 35 4a 1f 39
       -0.00031694668 -0.0008060601 0.0008060601 0.00015191066
000130 85 0d 26 3a 29 ab c7 39 24 9b 88 b9 24 9b 88 39
       0.0006334412 0.00038083762 -0.0002605553 0.0002605553
000140 38 ee a3 b9 dd 2a 98 3a a2 40 f6 b9 32 a0 f2 ba
       -0.0003126727 0.0011609454 -0.00046968932 -0.0018510877
000150 32 a0 f2 3a 1d b8 9d b9 d4 f6 3e 3a 2a b4 7f b9
       0.0018510877 -0.0003008255 0.0007284705 -0.00024385811
000160 91 ae 31 bb 91 ae 31 3b da 42 ec 39 99 5d 0c 3a
       -0.0027112106 0.0027112106 0.00045063236 0.00053545233
000170 69 a3 ce 39 8b 80 b8 b9 8b 80 b8 39 ea cf 9a b8
       0.00039413132 -0.00035190987 0.00035190987 -7.382019e-05
000180 b7 58 47 b9 b7 0c 1d ba f8 9d 12 ba f8 9d 12 3a
       -0.00019011168 -0.00059909694 -0.0005592997 0.0005592997
000190 8f a6 93 39 36 f8 1a 39 70 85 83 39 2d 15 74 b8
       0.0002816212 0.0001477905 0.00025085686 -5.8193855e-05
0001a0 2d 15 74 38 67 bd 58 39 64 65 b3 39 fc c7 09 b9
       5.8193855e-05 0.00020669923 0.00034217082 -0.00013139838
0001b0 b5 94 a4 b9 b5 94 a4 39 81 e1 8e b9 01 70 3e 3a
       -0.00031391313 0.00031391313 -0.00027252364 0.00072646147
0001c0 99 7e 4b ba 04 3b 3d bb 04 3b 3d 3b e5 a7 70 39
       -0.00077627 -0.0028874287 0.0028874287 0.00022950729
0001d0 4d 31 62 39 73 cb c7 b9 76 05 8c b7 76 05 8c 37
       0.00021571406 -0.0003810782 -1.6691843e-05 1.6691843e-05
0001e0 00 00 00 00 00 00 00 00 00 00 00 00 00 00 00 00
       0.0 0.0 0.0 0.0
0001f0 00 00 00 00 1f ea 8e 39 4a dd c2 b9 17 fd 87 ba
       0.0 0.00027258784 -0.00037167437 -0.0010375109
000200 8e 0b 42 ba 8e 0b 42 3a 6e 66 6b 38 7a 97 66 b7
       -0.00074022345 0.00074022345 5.612376e-05 -1.3744337e-05
000210 a3 c6 35 ba e3 fa b3 b9 e3 fa b3 39 99 42 d6 39
       -0.0006934201 -0.00034328466 0.00034328466 0.0004086688
000220 46 46 7b 38 d5 22 4e 3a c8 da 20 3a c8 da 20 ba
       5.990851e-05 0.0007863467 0.00061361166 -0.00061361166
000230 56 04 d0 39 9f ad ad 38 2b f2 4d 3a 97 f2 38 3a
       0.00039676082 8.281622e-05 0.0007856215 0.00070551917
000240 97 f2 38 ba e5 bf d7 b6 31 16 f8 b9 d7 3f c0 b9
       -0.00070551917 -6.429839e-06 -0.0004731878 -0.00036668658
000250 4d 97 f6 39 4d 97 f6 b9
       0.00047033504 -0.00047033504

exp_avg_sq f4 [30, 5]
000000 9a c6 9e 36 7c c6 e4 36 f1 e4 a0 36 8e b9 95 36
       4.731887e-06 6.818036e-06 4.795024e-06 4.4621474e-06
000010 8e b9 95 36 5a ed 30 34 1b c9 55 33 4f 74 0c 35
       4.4621474e-06 1.6477625e-07 4.977583e-08 5.2323315e-07
000020 0c a1 88 35 0c a1 88 35 cd 73 c3 28 00 00 00 00
       1.017966e-06 1.017966e-06 2.169957e-14 0.0
000030 a5 dd bd 2e 4b a3 35 2e 4b a3 35 2e 68 73 04 38
       8.634097e-11 4.129967e-11 4.129967e-11 3.1578733e-05
000040 ea ac f6 37 63 df 0b 38 66 a6 8a 37 66 a6 8a 37
       2.9406005e-05 3.3348228e-05 1.6528367e-05 1.6528367e-05
000050 d6 55 1a 31 0a f8 4d 33 bc 81 33 33 7a 56 ea 36
       2.2458742e-09 4.7955872e-08 4.1794678e-08 6.9838106e-06
000060 7a 56 ea 36 8e 9b 33 37 e5 de 2d 37 f0 f7 87 37
       6.9838106e-06 1.0705449e-05 1.03635e-05 1.6208709e-05
000070 30 cf 19 37 30 cf 19 37 a6 66 9d 35 e9 f8 3d 36
       9.16775e-06 9.16775e-06 1.1727286e-06 2.830808e-06
000080 2e d1 47 36 dc 17 2b 37 dc 17 2b 37 00 00 00 00
       2.977507e-06 1.0197949e-05 1.0197949e-05 0.0
000090 00 00 00 00 31 99 47 2e 31 76 08 2d 31 76 08 2d
       0.0 4.5383423e-11 7.756949e-12 7.756949e-12
0000a0 34 fa de 35 3f 5c 1a 36 27 4a be 36 f0 a5 25 37
       1.6613108e-06 2.3001483e-06 5.6710737e-06 9.873402e-06
0000b0 f0 a5 25 37 93 69 4f 37 fe fc 44 37 a4 9a 79 37
       9.873402e-06 1.2362742e-05 1.1741415e-05 1.4877562e-05
0000c0 8f 6a cb 36 8f 6a cb 36 2b c3 e5 35 a2 0f ad 35
       6.0622765e-06 6.0622765e-06 1.7118631e-06 1.2894054e-06
0000d0 4c 18 90 36 08 83 0d 37 08 83 0d 37 7a 67 49 37
       4.294363e-06 8.434763e-06 8.434763e-06 1.2004626e-05
0000e0 d4 50 33 37 59 cf 7f 37 1a a8 d6 36 1a a8 d6 36
       1.0688051e-05 1.5247461e-05 6.3972666e-06 6.3972666e-06
0000f0 19 50 44 36 9f 7d 32 34 d1 b1 92 37 f4 67 a0 37
       2.92529e-06 1.6623243e-07 1.7487358e-05 1.9121893e-05
000100 f4 67 a0 37 7e 6e fd 36 14 0b b7 36 b9 ff 49 37
       1.9121893e-05 7.5528505e-06 5.4551147e-06 1.2040074e-05
000110 03 e4 d4 36 03 e4 d4 36 d5 ed 08 37 3b 6d 1d 37
       6.3446364e-06 6.3446364e-06 8.161606e-06 9.383361e-06
000120 cc ef 22 37 bf 61 c6 36 bf 61 c6 36 48 d0 a5 36
       9.7117845e-06 5.912239e-06 5.912239e-06 4.9416303e-06
000130 1e 4d d6 36 27 e6 bf 36 82 d6 95 36 82 d6 95 36
       6.3866746e-06 5.719037e-06 4.465518e-06 4.465518e-06
000140 83 8f 01 38 cc a8 e0 37 d5 fa 23 38 61 38 95 37
       3.0889652e-05 2.6781483e-05 3.9095834e-05 1.7788438e-05
000150 61 38 95 37 5f 05 9e 38 9c a9 8c 38 8b a5 cd 38
       1.7788438e-05 7.5350275e-05 6.7073124e-05 9.8059965e-05
000160 af 59 0b 38 af 59 0b 38 b7 32 ed 35 21 4f 05 36
       3.3223707e-05 3.3223707e-05 1.7672636e-06 1.9864603e-06
000170 ea 47 9a 36 f8 9e 7c 37 f8 9e 7c 37 67 c1 82 37
       4.5979295e-06 1.5057383e-05 1.5057383e-05 1.5587268e-05
000180 6e f8 92 37 54 62 9f 37 0b 33 42 37 0b 33 42 37
       1.752024e-05 1.9000065e-05 1.1575185e-05 1.1575185e-05
000190 17 0c f7 35 b5 40 9c 35 1f 3f 5d 36 8b 05 0c 37
       1.8406453e-06 1.1641738e-06 3.2968308e-06 8.345941e-06
0001a0 8b 05 0c 37 b5 fa c6 36 ea 7c ae 36 54 a3 0b 37
       8.345941e-06 5.930046e-06 5.200146e-06 8.323073e-06
0001b0 74 09 b6 36 74 09 b6 36 f4 94 95 38 2d ca 82 38
       5.425123e-06 5.425123e-06 7.132618e-05 6.236541e-05
0001c0 36 cf a1 38 69 b9 05 38 69 b9 05 38 37 39 16 37
       7.715674e-05 3.1882348e-05 3.1882348e-05 8.954018e-06
0001d0 6a 12 20 37 76 41 4a 37 01 85 0a 37 01 85 0a 37
       9.5410305e-06 1.205538e-05 8.256408e-06 8.256408e-06
0001e0 00 00 00 00 00 00 00 00 00 00 00 00 00 00 00 00
       0.0 0.0 0.0 0.0
0001f0 00 00 00 00 41 ca 9d 37 c0 49 ba 37 cb 66 9f 37
       0.0 1.881004e-05 2.220727e-05 1.9002144e-05
000200 38 80 5a 37 38 80 5a 37 a2 df f9 37 65 4c 09 38
       1.3023666e-05 1.3023666e-05 2.978725e-05 3.2734493e-05
000210 d0 7d 1f 38 70 69 cd 37 70 69 cd 37 47 0a af 35
       3.8025726e-05 2.4487003e-05 2.4487003e-05 1.3041507e-06
000220 09 d4 31 33 08 5e e7 36 39 9c e7 36 39 9c e7 36
       4.140387e-08 6.895283e-06 6.902523e-06 6.902523e-06
000230 3f d9 4f 36 14 ee 02 34 a0 ff 80 37 e2 b2 87 37
       3.0971858e-06 1.2193806e-07 1.5377824e-05 1.6176553e-05
000240 e2 b2 87 37 c6 97 30 37 74 9e 32 37 8f 6c 5c 37
       1.6176553e-05 1.0525755e-05 1.06465195e-05 1.3138298e-05
000250 f5 0a 24 37 f5 0a 24 37
       9.777713e-06 9.777713e-06

exp_avg f4 [30]
000000 02 df 9f 38 7a 61 86 39 04 00 00 00 63 86 6e ba
       7.623249e-05 0.00025631097 6e-45 -0.00090990047
000010 11 41 b5 ba 81 36 9c 3a fc 6c 02 bb 04 00 00 00
       -0.0013828595 0.0011918099 -0.0019901386 6e-45
000020 08 4a 0a bb 2f f3 98 ba df a1 8e b8 f6 9e a2 39
       -0.0021101255 -0.0011669154 -6.8012385e-05 0.00031017483
000030 a7 2d 44 3b 12 95 0d 3a d3 f2 67 b9 4b 09 d0 3a
       0.0029934437 0.00054009364 -0.00022120336 0.001587191
000040 91 f0 2d 39 b6 46 d3 ba 19 ad ef 39 98 33 00 bb
       0.00016588184 -0.0016119096 0.000457146 -0.0019562002
000050 25 86 a0 39 82 b2 ad 39 ad 24 28 bb 5f 8b 01 3a
       0.00030617524 0.0003313013 -0.0025656626 0.00049417274
000060 00 00 00 00 9b 04 ae ba 59 06 be ba 01 0c b1 3a
       0.0 -0.0013276519 -0.0014497741 0.0013507606
000070 da e2 09 3b e2 a3 3a b9
       0.0021039755 -0.00017799393

exp_avg_sq f4 [30]
000000 cd 75 06 38 ec ea d3 35 31 fe bd 2e c1 1b 8b 38
       3.20578e-05 1.5789096e-06 8.6398784e-11 6.633206e-05
000010 45 fc 8e 38 4c 5b 94 38 0e 41 0e 38 3b 01 69 2e
       6.8180765e-05 7.074195e-05 3.3916025e-05 5.297916e-11
000020 17 a0 06 38 83 1c 62 38 3f b8 cd 37 b9 a7 03 38
       3.2097185e-05 5.3909152e-05 2.45237e-05 3.1389038e-05
000030 46 b8 11 39 02 a7 53 38 f2 5f 4d 38 0a ac 00 38
       0.00013896925 5.046186e-05 4.8965165e-05 3.0677802e-05
000040 3c 38 1b 39 6d 0b 1f 39 51 3f 06 38 2c c2 aa 38
       0.00014802901 0.00015167678 3.2007058e-05 8.142399e-05
000050 f3 c9 a3 37 f1 13 06 38 5d 3e 0a 39 dd 5a 4a 38
       1.9525154e-05 3.196666e-05 0.00013183938 4.8245176e-05
000060 00 00 00 00 35 5d 55 38 2a ad 29 39 06 e2 69 38
       0.0 5.0869963e-05 0.00016181605 5.576203e-05
000070 74 51 0a 39 33 c3 8b 38
       0.00013191049 6.664395e-05

exp_avg f4 [3, 30]
000000 5a e5 3b 3b 77 f4 6d 37 04 00 00 80 e4 cf bc 3a
       0.002867064 1.418322e-05 -6e-45 0.0014405218
000010 4a 04 4d b9 ab 1f 0d 3b 48 f6 50 39 04 00 00 80
       -0.00019551921 0.0021533768 0.00019928173 -6e-45
000020 3d 64 a8 39 55 af cd 3a fa 56 9b 38 32 2e 74 3a
       0.0003211814 0.0015692512 7.4071766e-05 0.0009314745
000030 63 e9 9b 3a a1 55 82 3a 35 30 61 3b 90 f0 3c 3b
       0.0011895116 0.0009943732 0.003436101 0.002882991
000040 b4 d3 3c 3b 7e 9f 8b 3a 4f 35 aa 39 d3 5a b8 3a
       0.0028812708 0.0010652391 0.00032464645 0.0014065154
000050 20 b7 99 39 73 bc 01 3b 55 32 85 3a ea 08 49 3a
       0.00029318873 0.0019796162 0.0010162095 0.000766887
000060 00 00 00 00 6a 84 a5 3a 76 0e c7 3a a0 ea fc 39
       0.0 0.0012627963 0.0015186805 0.00048239995
000070 1a 24 3b 3a be e3 49 3b 64 d6 e4 3a de 63 87 b9
       0.00071388634 0.003080591 0.0017458913 -0.00025823613
000080 04 00 00 80 1a 45 26 3b 3a 3f aa b9 35 e2 b0 b6
       -6e-45 0.0025370778 -0.00032472034 -5.2715427e-06
000090 3b 6a 9e b9 04 00 00 80 69 e9 7d b9 38 c4 c7 39
       -0.00030215256 -6e-45 -0.00024214912 0.00038102432
0000a0 66 29 5c 39 02 71 97 3a bb 85 82 b9 bb 47 53 b9
       0.00020996257 0.0011554065 -0.0002489517 -0.0002014925
0000b0 ef 3b 01 b8 26 3f 85 ba d6 62 97 ba 7d a3 2e 3a
       -3.0811814e-05 -0.0010165914 -0.0011549841 0.0006661935
0000c0 13 48 b4 b9 d3 df e9 ba 26 0d dc b9 8c 37 f2 ba
       -0.00034385975 -0.0017843194 -0.00041971466 -0.0018479689
0000d0 a5 62 c6 3a 29 03 20 bb 00 00 00 00 66 1f ef 3a
       0.00151356 -0.0024415946 0.0 0.001824361
0000e0 14 bd 22 bb 76 f8 0c 39 d7 40 3a 3a 3c 17 e6 39
       -0.0024831938 0.00013444 0.0007104999 0.0004388633
0000f0 8a fa 07 39 9c cd 89 38 00 00 00 00 e2 a2 7c 39
       0.00012967936 6.570967e-05 0.0 0.00024093271
000100 ed 8c 62 b8 06 21 2f b9 46 38 de 3a 04 00 00 80
       -5.4013846e-05 -0.00016701603 0.0016954027 -6e-45
000110 db 17 a1 3a b4 42 a5 b9 b3 11 15 3a 35 fe 4f 39
       0.0012290435 -0.0003152095 0.00056865363 0.00019835758
000120 46 f8 6f b9 d0 f7 9d 36 d1 6b 87 b9 16 a6 7f 3a
       -0.00022885305 4.707814e-06 -0.00025829536 0.0009752227
000130 f3 4d 45 3a 98 d8 4b 3a b0 ee 1b 3a b1 d1 99 3a
       0.0007526569 0.00077761104 0.0005948348 0.0011735467
000140 55 b8 e7 39 d4 cf d2 3a b8 b9 5a 39 4b 6d 23 3b
       0.00044197091 0.0016083666 0.00020859286 0.002493697
000150 00 00 00 00 24 f8 86 39 78 1d c1 3a 59 f0 09 b9
       0.0 0.0002574335 0.0014733514 -0.00013154875
000160 e1 9f 63 b9 e9 e5 a8 b8
       -0.00021707967 -8.053688e-05

exp_avg_sq f4 [3, 30]
000000 eb 8e 49 39 23 6d 21 32 2f ee 0b 2a 90 27 99 38
       0.00019222095 9.396248e-09 1.2428317e-13 7.3029776e-05
000010 69 02 84 36 ad d2 36 38 44 a7 f6 36 c6 3b cb 29
       3.934187e-06 4.358839e-05 7.3508436e-06 9.02538e-14
000020 a4 59 c5 36 03 6a 0d 38 ca d6 eb 35 d0 f3 5c 38
       5.881493e-06 3.371575e-05 1.7571376e-06 5.2679155e-05
000030 00 17 17 38 3d b3 13 38 06 2e c2 38 1b 0f c2 38
       3.6022626e-05 3.521446e-05 9.2592134e-05 9.2534545e-05
000040 0b 47 c3 38 d6 c3 ae 38 11 2a 22 36 b0 c9 0b 39
       9.3115574e-05 8.333444e-05 2.4164367e-06 0.00013331207
000050 10 8e b2 35 b0 3e 17 39 77 cb 31 38 ac ea 3a 39
       1.3303379e-06 0.00014423835 4.238958e-05 0.00017825764
000060 00 00 00 00 83 42 34 39 a9 ad 53 39 94 0e 67 37
       0.0 0.00017190915 0.00020187222 1.3772067e-05
000070 53 08 e7 37 b9 84 18 39 bd 10 84 39 3c fb 1c 35
       2.7541222e-05 0.00014545293 0.00025189473 5.848012e-07
000080 2e 9c 2e 2d 7d 3f bb 38 0e 2f c4 36 02 ce 6a 38
       9.925434e-12 8.9286805e-05 5.846733e-06 5.5981807e-05
000090 33 f2 33 38 04 a8 fa 2b 6e 43 27 38 e8 b9 26 38
       4.290249e-05 1.7810202e-12 3.98787e-05 3.9750623e-05
0000a0 df 6a b3 36 c4 1b 6e 38 01 17 38 38 4d 5f 96 38
       5.347057e-06 5.676948e-05 4.3890443e-05 7.1703085e-05
0000b0 e5 3e c2 38 aa 63 e2 38 fd c9 b6 38 f8 62 bc 38
       9.262356e-05 0.00010795084 8.7160595e-05 8.982973e-05
0000c0 de a3 62 37 14 f3 23 39 72 c5 2e 37 e1 a3 27 39
       1.3508803e-05 0.00015635445 1.04171795e-05 0.00015987411
0000d0 39 7f 4c 38 7c 8c 66 39 00 00 00 00 cc 8b 5d 39
       4.8755875e-05 0.00021986844 0.0 0.00021128281
0000e0 4d bf 70 39 5c 18 8c 37 6a fb 24 38 a5 4d 5b 39
       0.00022959449 1.6700644e-05 3.9334795e-05 0.00020914392
0000f0 a2 18 ab 38 04 cb 92 33 00 00 00 00 84 a9 2c 38
       8.1585036e-05 6.835583e-08 0.0 4.116587e-05
000100 71 7c 89 36 b0 93 38 38 d7 93 bb 37 f1 cd 94 2a
       4.097405e-06 4.4006563e-05 2.236098e-05 2.6432982e-13
000110 85 a5 9b 37 b2 18 ab 37 2c dd 2f 36 0b be 2d 38
       1.8554516e-05 2.0396288e-05 2.620577e-06 4.1423405e-05
000120 42 17 0f 38 d5 b4 e9 37 67 9f f9 38 d0 e7 c9 38
       3.4115517e-05 2.7859971e-05 0.00011902936 9.627605e-05
000130 4c 75 fa 38 3a 1b 50 38 9d 82 16 37 21 fa 80 38
       0.00011942777 4.961642e-05 8.9711075e-06 6.150106e-05
000140 a7 97 a8 36 57 50 c1 38 ea 7a eb 37 6f eb b1 38
       5.024445e-06 9.2179216e-05 2.807142e-05 8.4838706e-05
000150 00 00 00 00 22 1e 82 38 eb 48 d3 38 a6 3a 5d 37
       0.0 6.204496e-05 0.00010074846 1.3186282e-05
000160 e0 46 cc 37 f4 80 83 38
       2.4351699e-05 6.270586e-05

exp_avg f4 [3]
000000 8b d8 9d 3b 73 5a f5 ba ef 91 8d 3a
       0.0048170737 -0.0018718973 0.0010800938

exp_avg_sq f4 [3]
000000 59 c3 84 39 9b 69 b6 39 3b 4f 68 39
       0.00025322547 0.00034792427 0.0002215476
