last_brain.pth (torch_old, 17334 bytes, 18 tensors)

fc1.weight f4 [30, 6]
0	0xbf571640	-0.84018326
1	0xbf48f987	-0.7850575
2	0x3f5a29f1	0.8522025
3	0x3f8a05cd	1.078302
4	0xbf42a451	-0.76031977
5	0x3cf8014b	0.030274054
6	0xbeaaff9e	-0.33398145
7	0xbeaf350d	-0.34220162
8	0xbe9abf3d	-0.30224028
9	0x3f887c21	1.0662881
10	0xbfa010d8	-1.250514
11	0xbd4e713a	-0.05040095
12	0x3e3b54c2	0.18294051
13	0x3e83642b	0.2566236
14	0x3f26e24e	0.65189064
15	0x3d9db608	0.07700735
16	0xbeb4f725	-0.35344806
17	0x3e6f1cac	0.23350781
18	0x3e1b32e0	0.15156126
19	0xbc459bef	-0.012061103
20	0x3f4b0ea4	0.79319215
21	0x3f5cd6bd	0.86265165
22	0x3e76fc04	0.24119574
23	0xbb822562	-0.0039717415
24	0x3fb0ca49	1.3811733
25	0xbe832676	-0.2561528
26	0xbda2c40a	-0.07947548
27	0x3da1491f	0.07875275
28	0x3e2d73cf	0.16938709
29	0x3c4364d1	0.011925892
30	0x3eb25a98	0.34834743
31	0x3d9f6f68	0.07784921
32	0x3f884340	1.0645523
33	0x3f64efe4	0.89428544
34	0xbf07b00d	-0.5300301
35	0xbe09c465	-0.13453825
36	0xbf8d4106	-1.1035469
37	0xbe9b2e58	-0.30308795
38	0xbfa89c64	-1.3172727
39	0x3f0db703	0.5535738
40	0x3e8778e2	0.26459414
41	0x3d08cb1d	0.03339683
42	0x3e3f7eaa	0.18700662
43	0xbfa9ca31	-1.3264829
44	0xbf4b514e	-0.79420936
45	0x3d8f35d4	0.06992689
46	0xbe9a893f	-0.30182835
47	0x3d54234a	0.051791467
48	0x3f9ae6d7	1.2101697
49	0xbe5e7665	-0.21724851
50	0xbf1da8f4	-0.61585927
51	0xbf4887b9	-0.78332096
52	0x3f92f1d5	1.1480051
53	0x3d86a6aa	0.065747574
54	0x3f0c326b	0.5476443
55	0x3e3f76c3	0.18697648
56	0xbb8e7d1a	-0.0043484094
57	0x3f78d170	0.97194576
58	0xbf59bf38	-0.850574
59	0xbca5e08d	-0.020248676
60	0xbee71964	-0.4513656
61	0xbf8933bf	-1.0718917
62	0x3f85a2f4	1.0440354
63	0x3e56c26f	0.20972608
64	0x3f03df81	0.51512915
65	0x3d54c1b3	0.05194254
66	0x3eb2a4d2	0.34891373
67	0x3f82aebb	1.0209574
68	0xbfef8702	-1.8713076
69	0xbea969c6	-0.3308851
70	0xbedf16ed	-0.43572178
71	0x3bdbf5b2	0.006712639
72	0x3eecd951	0.4625955
73	0xbf8f7c64	-1.1209836
74	0x3c9eb863	0.019375032
75	0xbf210959	-0.6290489
76	0x3f5de04b	0.8667037
77	0xbe8757ab	-0.26434073
78	0x3fb175e7	1.3864106
79	0xbe9ea055	-0.309817
80	0xbe4e3d8b	-0.20140664
81	0x3f19634d	0.59917146
82	0xbf9cdde5	-1.2255217
83	0x3d52a26f	0.05142444
84	0x3f5c3f46	0.8603405
85	0x3f09c9d3	0.53823584
86	0xbf49d5b9	-0.7884174
87	0xbe49c89d	-0.19705434
88	0x3f324f0f	0.69651884
89	0x3d91ce2f	0.071194045
90	0xbea091e8	-0.31361318
91	0xbe620270	-0.22071242
92	0x3fbd3ec5	1.4784781
93	0x3ee26aea	0.44222194
94	0x3e0ad6ae	0.13558456
95	0xbe688ad0	-0.22709203
96	0xbf2d0499	-0.6758514
97	0x3e251157	0.16119896
98	0xbf5c66e4	-0.860945
99	0x3fc365e4	1.526547
100	0xbfaa6f75	-1.3315264
101	0xbe0ff5ff	-0.14058684
102	0xbf09dc6d	-0.5385197
103	0xbf365923	-0.7122976
104	0xbfd12fdf	-1.6342734
105	0x3e81e724	0.2537166
106	0x3dc23c27	0.094841294
107	0x3e093e88	0.1340276
108	0x3f394ca3	0.72382563
109	0xbf4fe415	-0.812074
110	0xbe70c2e3	-0.23511843
111	0xbf413e81	-0.75486
112	0x3f60ad5f	0.87764543
113	0xbd911901	-0.07084847
114	0xbea8e685	-0.32988372
115	0x3ed55daa	0.41673023
116	0xbfa4a132	-1.2861693
117	0x3fa4e3f9	1.2882072
118	0xbe088abb	-0.13334171
119	0x3e38bb69	0.18040241
120	0x3f880ab2	1.0628264
121	0x3f3ee4a9	0.7456766
122	0x3f48e91d	0.784807
123	0xbe5c8325	-0.21534403
124	0xbe3dadf9	-0.18523397
125	0x3c4b1985	0.012396221
126	0x3f13ed0c	0.5778358
127	0xbf08bfa5	-0.53417426
128	0xbde35f91	-0.11102212
129	0xbcdf0718	-0.027225062
130	0x3f6edf6b	0.9330966
131	0x3d9f239a	0.07770462
132	0x3f4a9f9b	0.7914979
133	0xbe720308	-0.23633969
134	0x3f7b650a	0.9820105
135	0xbf8a89d3	-1.0823311
136	0xbe8c4551	-0.27396634
137	0x3c866689	0.016406314
138	0xbfad8c4c	-1.355844
139	0xbe2d1f1b	-0.16906397
140	0x3f452e76	0.7702402
141	0x3d585088	0.052811176
142	0xbf085b1f	-0.5326404
143	0x3d8a15a1	0.06742407
144	0x3ed3c537	0.413614
145	0xbf571f6b	-0.84032315
146	0x3bf2fc51	0.0074153324
147	0x3e8b97d6	0.2726428
148	0x3ebefac4	0.37300694
149	0xbe71bc32	-0.23606947
150	0x3e2fa561	0.17152931
151	0xbf53ad56	-0.82686365
152	0x3f17d9b4	0.59316564
153	0x3dcea58f	0.100901715
154	0xbea2d105	-0.31800094
155	0x3d8c8413	0.06861129
156	0x3f8aec1f	1.0853308
157	0x3f207f79	0.6269451
158	0x3ecf1a56	0.4044978
159	0x3e2d8664	0.16945797
160	0x3f1d5c0a	0.61468565
161	0xbd118d9c	-0.03553544
162	0xbe5df51b	-0.21675532
163	0xbf854088	-1.0410318
164	0x3efdd601	0.49577335
165	0xbf19a667	-0.60019535
166	0xbe70e964	-0.23526531
167	0xbb82b945	-0.003989371
168	0xbf862f98	-1.0483274
169	0xbefa6bb9	-0.4891031
170	0xbd94e7eb	-0.07270797
171	0xbde24f12	-0.11050238
172	0xbf2b457b	-0.66902894
173	0x3cbacb24	0.022801943
174	0xbe0b61a9	-0.13611473
175	0x3e8c226e	0.27370018
176	0xbf136d9e	-0.5758914
177	0xbf6f365b	-0.93442315
178	0x3f720678	0.9454112
179	0x3a45ef55	0.0007550617

fc1.bias f4 [30]
0	0xbf42e49a	-0.7613007
1	0x3e2146fb	0.15749733
2	0xbf49f90b	-0.78895634
3	0xbdd56265	-0.10419158
4	0xbf7bb527	-0.9832329
5	0x3f161bab	0.5863597
6	0xbeb83071	-0.35974458
7	0xbed70f0f	-0.42003676
8	0xbedb7e15	-0.4286963
9	0x3e8362be	0.25661272
10	0x3faf9ca9	1.3719684
11	0xbc14b35f	-0.0090759685
12	0xbf8734dc	-1.0563006
13	0x3f032dc6	0.5124172
14	0xbf815429	-1.0103809
15	0x3f8cef74	1.1010575
16	0xbf7f2194	-0.9966061
17	0x3edf3028	0.43591428
18	0x3fb51fcb	1.4150327
19	0xbfab2166	-1.3369567
20	0x3f8e12fb	1.1099542
21	0xbe5e9b1f	-0.21738862
22	0xbfa55794	-1.2917352
23	0xbfc5560d	-1.5416886
24	0x3f2d5e2d	0.67721826
25	0xbfea897d	-1.8323208
26	0xbf906949	-1.128213
27	0x3fb98bc7	1.4495782
28	0x3f4b554e	0.7942704
29	0x3fd9aebe	1.7006452

fc_another.weight f4 [30, 30]
0	0x3ddca256	0.107731506
1	0x3ddc25c9	0.107493944
2	0xbf0d436a	-0.5518099
3	0x3d8b3595	0.06797329
4	0x3dc7602c	0.0973514
5	0x3f1a67a2	0.6031438
6	0x3e4ed2fb	0.2019767
7	0xbe79de04	-0.24401098
8	0xbe93101d	-0.2872323
9	0x3ed2ccd4	0.41171896
10	0x3e4e7fca	0.20165935
11	0xbe03721d	-0.128365
12	0x3c98ecd9	0.018667625
13	0xbe0dbbd0	-0.13841176
14	0xbeb793bf	-0.3585491
15	0x3f5c085e	0.8595027
16	0x3e2cf5ef	0.16890691
17	0xbd9734c4	-0.07383111
18	0x3e97058b	0.29496416
19	0xbecca9be	-0.39973253
20	0x3e59e486	0.21278581
21	0xbe6bcdbd	-0.23027702
22	0xbf0a66ec	-0.54063296
23	0xbeb1ba09	-0.34712246
24	0x3f3b5b31	0.7318602
25	0xbefed122	-0.4976893
26	0x3b8ca461	0.0042920564
27	0x3deaf6e6	0.114728734
28	0xbdbd81d7	-0.092532806
29	0x3d7ce594	0.06174238
30	0xbe14e6f8	-0.14541233
31	0x3e52a772	0.20571688
32	0xbf9475d4	-1.1598458
33	0xbece783b	-0.40326104
34	0xbf69b9ab	-0.9129893
35	0x3e770de8	0.24126399
36	0xbc1cc286	-0.009567862
37	0xbe0cfa31	-0.13767315
38	0xbede815e	-0.43458074
39	0xbec2cbbf	-0.3804607
40	0xbec4f9af	-0.38471743
41	0x3ed01755	0.406428
42	0x3f131cbb	0.57465714
43	0xbf139929	-0.5765558
44	0xbf182d63	-0.59444255
45	0x3eb96dab	0.36216483
46	0x3eb6187f	0.35565564
47	0xbee7ebc1	-0.45297053
48	0x3e9348af	0.2876639
49	0xbed6f2d7	-0.41982147
50	0xbefe27e4	-0.4963981
51	0xbeb42f01	-0.3519211
52	0x3e63715d	0.22211213
53	0x3ea0ecc9	0.31430653
54	0x3ebd7a15	0.37007204
55	0x3e232f43	0.15935998
56	0x3ee7cd71	0.45273927
57	0xbf01449e	-0.50495327
58	0xbe7e5725	-0.2483793
59	0xbee8ce88	-0.4547007
60	0x3e5f064e	0.21779749
61	0x3d018d21	0.03162873
62	0xbe24aa1c	-0.16080517
63	0xbdeb4761	-0.11488224
64	0xbcd9fe9c	-0.026610665
65	0x3dae5b21	0.08513475
66	0x3cdcbaf7	0.02694462
67	0xbd302429	-0.043003235
68	0x3dcd8f5b	0.100371085
69	0xbe27473a	-0.16335765
70	0xbe2184c7	-0.15773307
71	0x3e39148f	0.18074249
72	0xbd8c150f	-0.06839954
73	0xbe211eb0	-0.15734363
74	0xbe3e3535	-0.18574984
75	0x3c986b60	0.018605888
76	0xbd016b17	-0.03159627
77	0x3da79601	0.08182908
78	0xbc8f00ac	-0.017456375
79	0xbb987e0f	-0.004653699
80	0xbe8aa4b9	-0.27078798
81	0x3c098386	0.008393174
82	0x3ce203f8	0.027589783
83	0xbd79c737	-0.060981
84	0xbdef90d2	-0.11697544
85	0xbdcb3def	-0.09923922
86	0x3e13e482	0.14442638
87	0xbddc3125	-0.10751561
88	0x3d816410	0.063179135
89	0xbeaeafe3	-0.34118566
90	0xbea5b3d4	-0.3236376
91	0xbdb071c9	-0.08615453
92	0x3e2c7ae7	0.16843759
93	0xbe74e20a	-0.23914352
94	0xbd9be95a	-0.07612868
95	0x39f2be66	0.00046299695
96	0xbce2b32a	-0.027673323
97	0xbe89249e	-0.2678575
98	0xbe1a4d65	-0.15068586
99	0xbcf24186	-0.02957226
100	0x3e1c66c6	0.1527358
101	0x3f039dea	0.5141283
102	0xbd9de090	-0.077088475
103	0x3af2bcad	0.0018519365
104	0x3e2ca8c7	0.16861258
105	0x3c86bdf8	0.016448006
106	0xbbae0b3c	-0.005311398
107	0x3e14048b	0.14454858
108	0xbe22e35d	-0.15907045
109	0xbd8cbbc7	-0.06871753
110	0x3e850779	0.25982264
111	0xbddca8f1	-0.107744105
112	0xbe986415	-0.29763857
113	0xbe2507dd	-0.16116281
114	0xbe4c5711	-0.19955088
115	0xbec23cf7	-0.37937137
116	0xbe90fef5	-0.28319517
117	0x3e81eac2	0.25374418
118	0x3e3e1e61	0.18566276
119	0x3ea8e018	0.3298347
120	0xbd9e44fc	-0.077280015
121	0x3dee7694	0.11643711
122	0xbd35433e	-0.04425358
123	0xbe2f1c82	-0.17100719
124	0xbaf73986	-0.0018861748
125	0x3d14a07c	0.036285862
126	0xbd5c51a1	-0.053788785
127	0x3c96fea5	0.01843197
128	0xbd11b207	-0.03557017
129	0xbd9d5679	-0.07682509
130	0xbdd50e3e	-0.10403107
131	0xbd08c429	-0.033390198
132	0x3e6006fe	0.21877667
133	0xbe0bdf46	-0.13659391
134	0xbc79fbc7	-0.015257782
135	0xbe2086b1	-0.1567638
136	0x3d2d0d85	0.04224922
137	0xbda9db09	-0.08293731
138	0x3d8922a1	0.06696058
139	0xbcd12950	-0.025532395
140	0xbc2c8bda	-0.01053139
141	0x3d7a53fc	0.06111525
142	0x3e61b4c3	0.22041611
143	0x3e9c05de	0.30473226
144	0x3c9fd9c3	0.019513017
145	0x3e1c132b	0.15241687
146	0xbe0b4dbb	-0.1360387
147	0xbdcfc230	-0.1014446
148	0xbdea6cbd	-0.114465214
149	0xbe104c7b	-0.14091675
150	0xbd29f917	-0.041497316
151	0xbd089b11	-0.033351008
152	0x3d18df6e	0.037322454
153	0x3d104db7	0.035230365
154	0x3cdcc294	0.02694825
155	0x3d872b3d	0.06600044
156	0xbe89c387	-0.26906988
157	0xbde91a1a	-0.113819316
158	0xbdb21261	-0.08694912
159	0x3e0514ba	0.12996188
160	0x3e9d9153	0.30774936
161	0xbd50a9c8	-0.050943166
162	0xbe6b3298	-0.22968519
163	0x3e95da65	0.29268184
164	0xbd248d27	-0.040173676
165	0x3e73ee3a	0.23821345
166	0xbce5b9d8	-0.028042719
167	0x3bfdbda5	0.0077435547
168	0x3e7d158d	0.24715252
169	0xbeb9f89e	-0.36322492
170	0x3ec5e736	0.38652962
171	0xbdcc7013	-0.09982314
172	0xbcdb043e	-0.026735421
173	0xbe05b847	-0.13058577
174	0x3e795043	0.24347024
175	0xbf3d9f67	-0.74071354
176	0xbe8fa5fa	-0.28056318
177	0x3eb6d7e4	0.35711586
178	0x3e9a270f	0.30107924
179	0x3edfc511	0.43705037
180	0x3ec3c2b1	0.38234475
181	0x3e348251	0.17627837
182	0x3d331932	0.0437252
183	0x3dc3ac2f	0.09554326
184	0xbeeb0118	-0.45899272
185	0x3d4ce65d	0.05002438
186	0x3ed9e790	0.4255948
187	0x3d727d96	0.0592018
188	0xbec9b4d5	-0.39395776
189	0x3ed3587a	0.4127844
190	0x3e713646	0.2355586
191	0x3ec592ad	0.38588467
192	0xbe6dc083	-0.23217969
193	0x3e3bcf6d	0.18340845
194	0xbe95c457	-0.29251358
195	0x3e2ebdf1	0.17064644
196	0x3e7604ed	0.24025317
197	0x3ea46b6d	0.3211321
198	0xbe86419b	-0.26221928
199	0x3e53ebca	0.20695415
200	0xbde209b5	-0.11037008
201	0xbe53121c	-0.20612377
202	0xbf63dff0	-0.89013577
203	0x3c1885be	0.00930923
204	0xbd8848a9	-0.06654484
205	0xbf137fde	-0.57616985
206	0xbf3fbe75	-0.7489999
207	0x3e5b95b1	0.21443821
208	0x3eade2c3	0.33962068
209	0x3d19c557	0.037541714
210	0x3e20de27	0.15709744
211	0x3e9c876d	0.30572072
212	0x3dfa51a5	0.12222604
213	0xbcd640eb	-0.026154002
214	0xbd7c2610	-0.061559737
215	0xbdb4e282	-0.088322654
216	0xbd3d41ac	-0.046205208
217	0xbe1caa2f	-0.15299295
218	0xbe0683f4	-0.13136274
219	0xbcdff832	-0.027340028
220	0xbeb4d41c	-0.35318077
221	0x3e2b3502	0.1671944
222	0xbdcebc16	-0.10094468
223	0xbde1cc9a	-0.11025353
224	0xbe021027	-0.12701474
225	0x3dfde8be	0.12397908
226	0x3e81e91c	0.2537316
227	0xbe128b3e	-0.14310929
228	0xbd7d6e5d	-0.06187283
229	0xbde53caa	-0.111932114
230	0xbd8fe435	-0.07025949
231	0xbe1f4000	-0.15551758
232	0x3e39cd1c	0.1814465
233	0x3e568843	0.20950417
234	0x3d111e76	0.03542944
235	0xbc83a270	-0.016068667
236	0xbd887170	-0.066622615
237	0xbe847fa0	-0.2587862
238	0xbe13c5f1	-0.14430977
239	0xbeb71ac5	-0.3576261
240	0xbe1250f0	-0.14288688
241	0x3e10015c	0.14063019
242	0xbf16ad0f	-0.58857816
243	0xbda8ae94	-0.08236423
244	0xbeaf505f	-0.34241006
245	0x3f213a3b	0.6297948
246	0xbe028879	-0.12747373
247	0xbd8a9dcd	-0.06768379
248	0xbed327ff	-0.41241452
249	0x3e9611aa	0.29310352
250	0x3d31c411	0.043399874
251	0xbedb98b1	-0.42889932
252	0x3dadcbc3	0.0848613
253	0xbd073505	-0.033009548
254	0xbf3e404d	-0.74316865
255	0x3f0c738a	0.548638

fc_another.bias f4 [30]
0	0x3decbc1d	0.11559317
1	0xbd9567c9	-0.07295186
2	0xbe7b80d9	-0.2456087
3	0x3eaddd34	0.33957827
4	0xbe0020d6	-0.12512526
5	0x3f22d4bd	0.6360586
6	0x3eb83283	0.35976037
7	0xbe425def	-0.18981145
8	0x3f17b37c	0.59258246
9	0x3ebad7f4	0.36492884
10	0xbc8440d1	-0.016144188
11	0xbcff3270	-0.03115198
12	0xbd45baed	-0.04827397
13	0xbe376749	-0.17910494
14	0xbc11a8e9	-0.008890369
15	0xbe1cd335	-0.15314944
16	0xbe583680	-0.2111454
17	0xbfd9b77f	-1.7009124
18	0x3bbf6048	0.005840335
19	0x3e876fc4	0.26452458
20	0xbee58f07	-0.44835684
21	0x3d5e09a5	0.054208416
22	0x3da782ca	0.08179243
23	0xbf3b8394	-0.7324765
24	0xbdf72872	-0.12068261
25	0x3f32481c	0.6964128
26	0x3d8511db	0.06497546
27	0x3ead06cd	0.3379425
28	0x3e877f63	0.26464376
29	0x3f08ab4e	0.5338639

fc2.weight f4 [3, 30]
0	0xbe75d45b	-0.24006788
1	0xbd9a8833	-0.07545509
2	0x3d709156	0.058732353
3	0xbe99fb76	-0.30074662
4	0x3d46db27	0.048548844
5	0x3e66e4c8	0.2254821
6	0x3eef9187	0.46790716
7	0xbbc85a54	-0.0061142836
8	0x3f073d9d	0.5282839
9	0x3d0fe737	0.035132613
10	0xbe0ae28e	-0.13562986
11	0xbdd5fe32	-0.104488745
12	0x3e72c5cd	0.23708268
13	0xbe9b73b8	-0.30361724
14	0x3d1ff4f4	0.039051965
15	0x3d482d6c	0.048871443
16	0xbeaddc88	-0.33957314
17	0x3f5d9eac	0.8657024
18	0xbed4cc7e	-0.41562265
19	0xbf048e86	-0.51779974
20	0x3f083b51	0.5321551
21	0xbe0ec342	-0.13941672
22	0x3ef899d7	0.4855487
23	0x3f9f7dbc	1.2460246
24	0xbf4f01cb	-0.8086211
25	0xbe46646c	-0.19374245
26	0xbe3c2ee9	-0.1837727
27	0x3e23ff89	0.16015448
28	0xbf2ca247	-0.67435116
29	0xbea3b47c	-0.31973636
30	0xbeeec3de	-0.4663381
31	0xbed7558d	-0.42057458
32	0x3cce1f5c	0.025161438
33	0xbdfad218	-0.122471035
34	0x3ad74680	0.0016424209
35	0x3f10f4a8	0.56623316
36	0x3ed8ba72	0.42329746
37	0xbd250cf7	-0.040295567
38	0x3f1c72b5	0.6111253
39	0x3e151387	0.1455823
40	0x3e358b7f	0.17728995
41	0xbe89b708	-0.26897454
42	0x3e9c420e	0.30519146
43	0xbe97852d	-0.29593793
44	0x3d63009d	0.055420507
45	0xbd951b2c	-0.07280573
46	0xbe142104	-0.1446572
47	0x3f3f43c7	0.74712795
48	0xbd7bccfc	-0.061474785
49	0xbee0795f	-0.438426
50	0x3f0673b0	0.52520275
51	0xbe3b61b5	-0.18298991
52	0x3ec2d512	0.38053185
53	0x3f583247	0.8445172
54	0xbf2d84e6	-0.6778091
55	0xbebb65ac	-0.36601007
56	0xbe9e19ea	-0.30879146
57	0xbe79bbfd	-0.24388118
58	0xbf18c201	-0.59671026
59	0xbeea0f5c	-0.45714843
60	0xbf46bd1b	-0.776323
61	0xbf80effd	-1.0073239
62	0x3d6be5e9	0.057592306
63	0xbdd33e30	-0.10314596
64	0x3d5f753a	0.054555155
65	0x3f06aa72	0.5260383
66	0x3f04e4e1	0.5191174
67	0xbe9f7bbc	-0.3114909
68	0x3f0f3357	0.55937713
69	0xbe415011	-0.18878199
70	0xbeab37f7	-0.33441135
71	0xbc5d356c	-0.013501506
72	0x3f21c8b3	0.6319687
73	0x3c28d25c	0.01030406
74	0x3d1135e8	0.0354518
75	0x3d4cddb8	0.050016135
76	0xbe18ebbc	-0.14933676
77	0x3f0f93c9	0.5608488
78	0xbe980926	-0.2969448
79	0xbf23f319	-0.6404281
80	0x3ee95d1b	0.45578846
81	0xbf4ecc6e	-0.80780685
82	0x3f6e41f1	0.9306937
83	0x3fc9b0aa	1.5757039
84	0x3fa1ac27	1.2630662
85	0xbef9ad5a	-0.4876507
86	0xbd1747e8	-0.03693381
87	0x3e54d47e	0.20784184
88	0xbdf14af8	-0.11781877
89	0xbeb32017	-0.3498542

fc2.bias f4 [3]
0	0xbd61c607	-0.055120494
1	0xbe9efe98	-0.31053615
2	0xbed33035	-0.41247717

exp_avg f4 [30, 6]
0	0x3a763b7e	0.00093930203
1	0x3a53fb5f	0.00080864684
2	0x3aae2975	0.0013287502
3	0x3b85e84e	0.004086531
4	0xbb85e84e	-0.004086531
5	0x3d269156	0.040665947
6	0x3b1847e7	0.0023236217
7	0x3b313cdf	0.0027044339
8	0x3b25ebb7	0.00253175
9	0x3b0c0e31	0.0021370763
10	0xbb0c0e31	-0.0021370763
11	0x3b061565	0.002045953
12	0xbaa2fff7	-0.0012435903
13	0xbaab4519	-0.0013066857
14	0xbabe1c0b	-0.0014504207
15	0xb993c5ca	-0.0002818539
16	0x3993c5ca	0.0002818539
17	0x3cf632eb	0.030053576
18	0xbb00d550	-0.0019658394
19	0xbb527320	-0.0032112077
20	0xbb2616e4	-0.0025343234
21	0x3b25ba8a	0.0025288188
22	0xbb25ba8a	-0.0025288188
23	0xbd0ca8ab	-0.03434054
24	0xba33f56f	-0.00068648806
25	0xba6ecb07	-0.0009109233
26	0xba738a41	-0.0009290316
27	0x3a289cae	0.00064320385
28	0xba289cae	-0.00064320385
29	0x3c27a0b5	0.010231187
30	0xbaa4027f	-0.0012512951
31	0xbb22abb0	-0.0024821572
32	0xba0cf850	-0.00053775776
33	0x3ae30032	0.0017318784
34	0xbae30032	-0.0017318784
35	0x3c6e1b92	0.01453294
36	0x3a7fdc5a	0.0009760313
37	0x3a162742	0.0005727896
38	0xb7d9c406	-2.5959696e-05
39	0x3afc8d0d	0.0019268111
40	0xbafc8d0d	-0.0019268111
41	0xbd4906e6	-0.049078844
42	0x3acb1501	0.001549393
43	0x3b161ab4	0.00229041
44	0x3aa1f907	0.0012357541
45	0x3a6a9da8	0.0008949884
46	0xba6a9da7	-0.00089498836
47	0x3d23b6e7	0.03996935
48	0xba3d89c9	-0.00072303094
49	0xb9a9a91e	-0.00032360194
50	0xba899ba3	-0.0010498654
51	0xbb60f1da	-0.0034323842
52	0x3b60f1da	0.0034323842
53	0x3d506297	0.050875273
54	0x3a7602c9	0.00093845703
55	0x3a031430	0.00050002616
56	0x3aa3e342	0.0012503641
57	0x3a59d5e7	0.0008309767
58	0xba59d5e7	-0.0008309767
59	0x3c67383a	0.014112527
60	0xbb58709a	-0.00330261
61	0xbb94e0d6	-0.004543404
62	0xbb74828a	-0.0037309253
63	0x3afad800	0.0019137859
64	0xbafad800	-0.0019137859
65	0xbd83cf70	-0.0643605
66	0x3b3b422e	0.0028573382
67	0x3b7bd68e	0.0038427445
68	0x3b21df25	0.0024699655
69	0xbb90f999	-0.0044242856
70	0x3b90f999	0.0044242856
71	0x3caa4721	0.02078587
72	0x3ae70e3e	0.0017628146
73	0x3b1805bb	0.0023196775
74	0x3ac34819	0.0014898806
75	0x3a025904	0.0004972371
76	0xba025904	-0.0004972371
77	0x3cdcc03d	0.026947135
78	0xba53a109	-0.00080730073
79	0xba9f4893	-0.0012152366
80	0xba1ab345	-0.0005901347
81	0xba68a435	-0.00088745664
82	0x3a68a435	0.00088745664
83	0x3d0eea2a	0.034891285
84	0xbaf2b9d2	-0.0018518514
85	0xbb0046e3	-0.0019573502
86	0xbb242eb7	-0.0025052258
87	0xbaeae90d	-0.0017922238
88	0x3aeae90d	0.0017922238
89	0xbb873678	-0.004126366
90	0xba8b7a25	-0.001064126
91	0xbb057f64	-0.002037012
92	0xbaa7ba56	-0.0012796621
93	0x3b75f68c	0.0037530987
94	0xbb75f68c	-0.0037530987
95	0xbd89f2f8	-0.06735796
96	0x3b4c7044	0.0031194845
97	0x3b5a16c9	0.0033277741
98	0x3b2fbad2	0.0026814234
99	0x3b8dd89f	0.0043288018
100	0xbb8dd89f	-0.0043288018
101	0xbd3c846d	-0.04602473
102	0xba41ce42	-0.00073931005
103	0xbaa29402	-0.0012403729
104	0xbad20bb8	-0.0016025221
105	0x39729f73	0.00023138318
106	0xb9729f73	-0.00023138318
107	0xbd2cda90	-0.042200625
108	0xba1c19d6	-0.00059547776
109	0xb9a279a9	-0.00030989692
110	0xba00447d	-0.0004893018
111	0xba988dec	-0.0011638976
112	0x3a988dec	0.0011638976
113	0xbcd92873	-0.026508546
114	0xb9d9c2b4	-0.0004153453
115	0xba832c56	-0.001000772
116	0xba6929f9	-0.0008894499
117	0x3968aa7e	0.00022188757
118	0xb968aa7e	-0.00022188757
119	0x3c512ddc	0.012767281
120	0xbb2d324d	-0.0026427687
121	0xbb529025	-0.0032129374
122	0xbacaaafc	-0.0015462334
123	0xbb394b8b	-0.0028273787
124	0x3b394b8b	0.0028273787
125	0x3d024cfa	0.03181169
126	0xbb1bcb4c	-0.0023772297
127	0xbb4468a8	-0.0029969607
128	0xbb4927d6	-0.003069391
129	0xba25479e	-0.0006304922
130	0x3a25479e	0.0006304922
131	0x3aa9c060	0.0012951009
132	0xba74f794	-0.00093447533
133	0x39aeb554	0.00033322966
134	0x39011355	0.000123096
135	0xbab42955	-0.0013745228
136	0x3ab42955	0.0013745228
137	0x3d5d64d2	0.054051228
138	0x3826e928	3.9794628e-05
139	0x390ead91	0.00013606834
140	0x3a0af206	0.00053003465
141	0x3ac3045e	0.0014878621
142	0xbac3045e	-0.0014878621
143	0x3d51732d	0.05113523
144	0x3a95ca67	0.0011428118
145	0x3a8f1373	0.001091583
146	0x3a105fe0	0.00055074506
147	0x3b5a41e8	0.0033303443
148	0xbb5a41e8	-0.0033303443
149	0xbd4eff77	-0.0505366
150	0xb9a87805	-0.0003213288
151	0x38dda8cd	0.00010569543
152	0x39e0d055	0.0004287983
153	0xb9cd0a7b	-0.00039108456
154	0x39cd0a7b	0.00039108456
155	0x3e557781	0.20846368
156	0xba346fd9	-0.00068831217
157	0xba4d3ce0	-0.00078292005
158	0xba052c49	-0.00050801464
159	0x3a0d1a4d	0.0005382642
160	0xba0d1a4d	-0.0005382642
161	0x3d088fd6	0.033340298
162	0xbace0548	-0.0015718127
163	0xbaf1092d	-0.0018389575
164	0xbad70b12	-0.0016406497
165	0xb9589cee	-0.00020657826
166	0x39589cee	0.00020657826
167	0xbd6c146b	-0.05763666
168	0x39ff1d41	0.00048659186
169	0x3a3c333b	0.0007179265
170	0x3a0d2d4b	0.00053854723
171	0x3a6d82dc	0.0009060332
172	0xba6d82dc	-0.0009060332
173	0xbd300f1e	-0.042983167
174	0xbbc6a517	-0.0060621607
175	0xbbd87c97	-0.006606649
176	0xbbe86728	-0.0070923753
177	0xbc01dbd1	-0.0079259435
178	0x3c01dbd1	0.0079259435
179	0xbe80e2ba	-0.2517298

exp_avg_sq f4 [30, 6]
0	0x387ac704	5.9789993e-05
1	0x3886bc41	6.424683e-05
2	0x388b7611	6.650028e-05
3	0x389b5baf	7.408053e-05
4	0x389b39ba	7.401728e-05
5	0x3df8af6b	0.12142833
6	0x388e8a58	6.796856e-05
7	0x38926727	6.981036e-05
8	0x38913a4c	6.9249974e-05
9	0x3890c74c	6.903577e-05
10	0x3890cd73	6.904723e-05
11	0x3cd2632e	0.025682058
12	0x37f98862	2.9746621e-05
13	0x380dcd3e	3.3808166e-05
14	0x37f8d88a	2.9664738e-05
15	0x3802c3d7	3.1176805e-05
16	0x3802c165	3.1174528e-05
17	0x3d5b69ac	0.053567573
18	0x37c85b78	2.3884451e-05
19	0x37f2759e	2.8903418e-05
20	0x381cfaeb	3.7426984e-05
21	0x3800b413	3.0685285e-05
22	0x38007a64	3.0631563e-05
23	0x3c46fb38	0.012144856
24	0x37a18a96	1.925723e-05
25	0x37cd8f58	2.4504654e-05
26	0x37e58951	2.736287e-05
27	0x37eccc19	2.8228433e-05
28	0x37ebd3fe	2.81129e-05
29	0x3d27abd6	0.04093536
30	0x38504b68	4.9661292e-05
31	0x3870a9fa	5.7378762e-05
32	0x386c2f55	5.6310866e-05
33	0x386165f0	5.3739117e-05
34	0x3861707e	5.3748947e-05
35	0x3dd94cd3	0.10610356
36	0x3826fefe	3.9814964e-05
37	0x3858a6fc	5.165393e-05
38	0x3845d8ff	4.7170553e-05
39	0x384357b2	4.6573296e-05
40	0x38433611	4.6541976e-05
41	0x3e8daaef	0.27669474
42	0x388f89cd	6.844439e-05
43	0x388b1899	6.632618e-05
44	0x38abc154	8.1899256e-05
45	0x38a7a1d7	7.9933256e-05
46	0x38a74ede	7.977871e-05
47	0x3e306002	0.17224124
48	0x372e8f40	1.0404561e-05
49	0x37895180	1.6369624e-05
50	0x373ab801	1.1129306e-05
51	0x37a8c9df	2.0121164e-05
52	0x37a85324	2.0065876e-05
53	0x3d27e5f6	0.040990792
54	0x378d8f5a	1.6875263e-05
55	0x379e3872	1.8861352e-05
56	0x37aa8525	2.032758e-05
57	0x37aebc19	2.0830006e-05
58	0x37aeb078	2.0824591e-05
59	0x3d4fd9e5	0.05074491
60	0x38ce414e	9.8350094e-05
61	0x38d327f4	0.00010068706
62	0x38f1117c	0.00011495032
63	0x38e9dc5f	0.00011151353
64	0x38e9c232	0.000111464775
65	0x3e4ec2c3	0.20191483
66	0x38c0e956	9.198736e-05
67	0x38ceaab9	9.854645e-05
68	0x38d11509	9.969815e-05
69	0x38ad5957	8.265924e-05
70	0x38ad4e79	8.2638995e-05
71	0x3e1af383	0.15131955
72	0x3834480e	4.298245e-05
73	0x383e1f58	4.532872e-05
74	0x38453485	4.7017373e-05
75	0x384ebb8a	4.9288887e-05
76	0x384eb3bc	4.9281618e-05
77	0x3e21868a	0.15773979
78	0x37a7b3a0	1.9991596e-05
79	0x37bffd60	2.2886961e-05
80	0x37d863a6	2.5795609e-05
81	0x37f2b153	2.8931221e-05
82	0x37f29dfa	2.8922212e-05
83	0x3da88fa8	0.08230525
84	0x37ff2008	3.0413285e-05
85	0x380e3649	3.3905995e-05
86	0x381ba457	3.7107933e-05
87	0x3825e9fe	3.9556988e-05
88	0x3825e01f	3.9547795e-05
89	0x3ceb13ae	0.028695907
90	0x388335c9	6.256585e-05
91	0x3887976e	6.4655076e-05
92	0x38906b7f	6.886478e-05
93	0x3873ab28	5.8095116e-05
94	0x3873c47b	5.81187e-05
95	0x3d6cf4aa	0.057850517
96	0x3914b9b5	0.00014183561
97	0x39162fb8	0.00014322891
98	0x39137ebb	0.00014066223
99	0x391e52e0	0.00015098928
100	0x391e4aa1	0.00015095856
101	0x3e3d788a	0.18503013
102	0x384fba90	4.9526396e-05
103	0x384aeeb5	4.8382866e-05
104	0x38820397	6.199552e-05
105	0x383ffd74	4.5773995e-05
106	0x383f13fd	4.5556564e-05
107	0x3d4c6836	0.04990407
108	0x380d5b76	3.37022e-05
109	0x380eb8c1	3.4027504e-05
110	0x381b533f	3.703241e-05
111	0x3812c84a	3.4995646e-05
112	0x3812c14a	3.4989127e-05
113	0x3d38681d	0.045021165
114	0x3808917d	3.2560423e-05
115	0x3810b3fa	3.449989e-05
116	0x3825a775	3.9495022e-05
117	0x381e6ced	3.777158e-05
118	0x381dcf1f	3.7624613e-05
119	0x3d190dbe	0.03736662
120	0x38c4a09c	9.375924e-05
121	0x38f44de0	0.00011649332
122	0x38db2b95	0.000104508516
123	0x38f9d48c	0.00011912835
124	0x38f9e11b	0.000119151744
125	0x3f2a988e	0.6663903
126	0x37ac5f78	2.0548454e-05
127	0x37f088f1	2.8673998e-05
128	0x382bda1c	4.0972707e-05
129	0x3821aac2	3.8544422e-05
130	0x38203e81	3.8205184e-05
131	0x3cdf1db7	0.027235849
132	0x381629b8	3.580164e-05
133	0x382577fb	3.9450806e-05
134	0x385983c8	5.1859563e-05
135	0x3842ebf8	4.6472967e-05
136	0x384257e0	4.6335044e-05
137	0x3d8d9d4b	0.06914767
138	0x38136829	3.5144538e-05
139	0x381c60e1	3.7283524e-05
140	0x383ebc7d	4.5475073e-05
141	0x384240a4	4.6313406e-05
142	0x38423edb	4.6311743e-05
143	0x3dbc5770	0.09196365
144	0x3828cf94	4.0247643e-05
145	0x3831964d	4.2340067e-05
146	0x38461bcf	4.7232777e-05
147	0x3847fc46	4.7680245e-05
148	0x3847c391	4.7627433e-05
149	0x3dae4a2b	0.0851024
150	0x390f78a8	0.0001368249
151	0x391d9f9c	0.00015032146
152	0x392c6531	0.00016440895
153	0x39314ab5	0.00016907866
154	0x39313b95	0.00016902231
155	0x3f038dd1	0.5138827
156	0x38820c3b	6.201161e-05
157	0x388c5c4e	6.692913e-05
158	0x389f153a	7.5856646e-05
159	0x389c734d	7.460136e-05
160	0x389c665d	7.457726e-05
161	0x3dedb6d5	0.11607138
162	0x38958a06	7.1305825e-05
163	0x388fa2b7	6.849079e-05
164	0x38ab08ed	8.155578e-05
165	0x38a6a1d5	7.9456404e-05
166	0x38a6a27b	7.945761e-05
167	0x3e08bd80	0.13353539
168	0x379473ce	1.76969e-05
169	0x37c349e4	2.328022e-05
170	0x37da4def	2.6023916e-05
171	0x37f4b0cd	2.9169396e-05
172	0x37f49ebb	2.9160981e-05
173	0x3d622edd	0.055220474
174	0x3a94b190	0.0011344422
175	0x3a8b84a9	0.0010644394
176	0x3aa8445e	0.0012837758
177	0x3a9f2309	0.0012141179
178	0x3a9f1cf4	0.0012139366
179	0x3fe363b6	1.7764804

exp_avg f4 [30]
0	0x3aada49b	0.0013247909
1	0x3ae77e26	0.0017661497
2	0xb89e3201	-7.543341e-05
3	0xbb8d8ad5	-0.0043195286
4	0xbacee877	-0.0015785833
5	0xbacdad7e	-0.0015691963
6	0xbaf09a84	-0.0018356596
7	0x3afa5036	0.0019097391
8	0x3ac99271	0.0015378726
9	0xb99071e3	-0.00027550673
10	0xbb7bd932	-0.003842902
11	0x3ae7afb8	0.001767627
12	0x3ad77354	0.0016437569
13	0xb9f40670	-0.00046544103
14	0xbb1dfa80	-0.0024105608
15	0xbb4a8e18	-0.0030907448
16	0xba436d58	-0.0007454953
17	0xbb2352d9	-0.0024921207
18	0xba5024b0	-0.0007940037
19	0xbab49f70	-0.0013780426
20	0x3a4844c1	0.00076396397
21	0xbb0f39aa	-0.0021854439
22	0x3b3c1577	0.0028699317
23	0x3b3bfc59	0.0028684346
24	0xbb0ec162	-0.0021782746
25	0x3bb5926f	0.005541138
26	0x35fbfc08	1.8774308e-06
27	0xbaf8d1d5	-0.0018983433
28	0xb8a9953a	-8.0863436e-05
29	0xbc131c7e	-0.008978961

exp_avg_sq f4 [30]
0	0x390fed6e	0.00013725992
1	0x38d62152	0.000102105216
2	0x389f5893	7.598209e-05
3	0x3876ee8f	5.8873145e-05
4	0x38a1d2fd	7.716378e-05
5	0x38fc824a	0.000120405646
6	0x3945ec4f	0.00018875416
7	0x395c5856	0.00021013743
8	0x3899823a	7.319865e-05
9	0x38602435	5.3439482e-05
10	0x395539ea	0.00020334838
11	0x395277b3	0.00020071752
12	0x38cff52d	9.916197e-05
13	0x388c8774	6.70095e-05
14	0x38cee2a7	9.865063e-05
15	0x390d550b	0.00013478489
16	0x396b8da6	0.00022464115
17	0x38dacb86	0.00010432959
18	0x38915b53	6.931149e-05
19	0x38a32f84	7.781296e-05
20	0x39c3f85b	0.00037378338
21	0x38c7efba	9.533712e-05
22	0x38fb6d46	0.000119889664
23	0x38d64f22	0.00010219055
24	0x39079b5f	0.00012932484
25	0x39f56278	0.00046803406
26	0x393b6e55	0.00017874812
27	0x39066bf4	0.00012819452
28	0x38b2898e	8.513323e-05
29	0x3ad86dcd	0.0016512215

exp_avg f4 [30, 30]
0	0x389e3079	7.543056e-05
1	0xba4e3144	-0.00078656175
2	0xba998381	-0.0011712165
3	0xba13a9e8	-0.0005632923
4	0x39b7bccd	0.00035045148
5	0xbaafd3a9	-0.001341452
6	0x3aa5b803	0.0012643341
7	0x3a87413f	0.0010319127
8	0x3a823c59	0.0009936198
9	0xbad3caaa	-0.0016158421
10	0xba1f317f	-0.0006072744
11	0xb99b3f23	-0.00029610944
12	0x3b683886	0.0035434081
13	0xbb0d2b38	-0.0021540653
14	0x3a168d7e	0.000574313
15	0xb9949fc8	-0.00028347806
16	0x39b8449e	0.0003514634
17	0x39b03c6e	0.0003361436
18	0x39ce143c	0.00039306458
19	0xb931e2f7	-0.00016964586
20	0xbb18d20b	-0.0023318555
21	0x3a17127d	0.0005762948
22	0x3a623801	0.0008629561
23	0x3a96c118	0.0011501638
24	0x3a7f23a9	0.0009732792
25	0x3aa615d4	0.00126713
26	0x397bb909	0.00024006156
27	0xb9ae22e9	-0.00033213876
28	0xb974ccd5	-0.00023345959
29	0xb9793d4a	-0.00023769322
30	0x00000004	6e-45
31	0x00000004	6e-45
32	0x80000004	-6e-45
33	0x00000004	6e-45
34	0x80000004	-6e-45
35	0x00000004	6e-45
36	0x80000004	-6e-45
37	0x00000004	6e-45
38	0x80000004	-6e-45
39	0x00000004	6e-45
40	0x00000004	6e-45
41	0x80000004	-6e-45
42	0x80000004	-6e-45
43	0x00000004	6e-45
44	0x80000004	-6e-45
45	0x00000004	6e-45
46	0x00000004	6e-45
47	0x00000004	6e-45
48	0x00000004	6e-45
49	0x80000004	-6e-45
50	0x00000004	6e-45
51	0x80000004	-6e-45
52	0x80000004	-6e-45
53	0x80000004	-6e-45
54	0x00000004	6e-45
55	0x80000004	-6e-45
56	0x80000004	-6e-45
57	0x00000004	6e-45
58	0x00000004	6e-45
59	0x80000004	-6e-45
60	0x00000004	6e-45
61	0x80000004	-6e-45
62	0x00000004	6e-45
63	0x00000004	6e-45
64	0x00000004	6e-45
65	0x80000004	-6e-45
66	0x00000004	6e-45
67	0x00000004	6e-45
68	0x00000004	6e-45
69	0x00000004	6e-45
70	0x00000004	6e-45
71	0x80000004	-6e-45
72	0x80000004	-6e-45
73	0x00000004	6e-45
74	0x00000004	6e-45
75	0x80000004	-6e-45
76	0x80000004	-6e-45
77	0x00000004	6e-45
78	0x80000004	-6e-45
79	0x00000004	6e-45
80	0x00000004	6e-45
81	0x00000004	6e-45
82	0x80000004	-6e-45
83	0x00000004	6e-45
84	0x80000004	-6e-45
85	0x00000004	6e-45
86	0x80000004	-6e-45
87	0x00000004	6e-45
88	0x00000004	6e-45
89	0x00000004	6e-45
90	0xbb4dc514	-0.0031397985
91	0xbb924df0	-0.0044648573
92	0x3a09d459	0.00052577775
93	0xbb011872	-0.0019698408
94	0xba83d4b5	-0.0010057898
95	0xbb9f3035	-0.0048580416
96	0x3aa4922b	0.0012555768
97	0x3a780565	0.0009461253
98	0x3b857f0d	0.0040739835
99	0xbb8b1d46	-0.004245433
100	0x3b32c054	0.002727528
101	0xb94586fe	-0.00018837673
102	0xb839732b	-4.4214696e-05
103	0xbb5980e5	-0.00331884
104	0x3aaf2d33	0.0013364911
105	0xbb3dd7c8	-0.0028967727
106	0xbbece9c4	-0.0072300155
107	0x3b58e651	0.0033096264
108	0x3b754122	0.0037422855
109	0xba956ec5	-0.001140081
110	0xba573d42	-0.0008210727
111	0x3b3583af	0.0027696898
112	0x38d16247	9.984202e-05
113	0xba53894c	-0.000806947
114	0xbad5f1af	-0.0016322638
115	0xba88098e	-0.0010378824
116	0xbae0aefa	-0.0017141991
117	0x3b1cf329	0.0023948646
118	0x3a509182	0.00079562527
119	0x3ba7d2b0	0.0051215515
120	0x80000004	-6e-45
121	0x80000004	-6e-45
122	0x80000004	-6e-45
123	0x80000004	-6e-45
124	0x80000004	-6e-45
125	0x80000004	-6e-45
126	0x80000004	-6e-45
127	0x80000004	-6e-45
128	0x00000004	6e-45
129	0x80000004	-6e-45
130	0x00000004	6e-45
131	0x00000004	6e-45
132	0x80000004	-6e-45
133	0x80000004	-6e-45
134	0x80000004	-6e-45
135	0x00000004	6e-45
136	0x80000004	-6e-45
137	0x00000004	6e-45
138	0x00000004	6e-45
139	0x80000004	-6e-45
140	0x00000004	6e-45
141	0x80000004	-6e-45
142	0x00000004	6e-45
143	0x80000004	-6e-45
144	0x80000004	-6e-45
145	0x80000004	-6e-45
146	0x80000004	-6e-45
147	0x00000004	6e-45
148	0x00000004	6e-45
149	0x00000004	6e-45
150	0x3bea19d7	0.0071441936
151	0x3c905810	0.017620116
152	0xbcbcb0ac	-0.023033462
153	0x3b9c29b4	0.0047657136
154	0x3b2eb6a2	0.002665915
155	0x3cbc9610	0.023020774
156	0xbb4e3c0d	-0.0031468899
157	0xbb962948	-0.004582558
158	0xbc866bb7	-0.016408784
159	0x3c4d2187	0.012520201
160	0xbc6f9186	-0.014622098
161	0x3aa2a910	0.0012410004
162	0x3cdd7ebc	0.02703797
163	0x3b46ace3	0.003031545
164	0xbc0de8f7	-0.0086615
165	0x3cd1de73	0.025618767
166	0x3d130975	0.03589769
167	0xbc9b64c6	-0.018968951
168	0xbbb0cfb9	-0.005395856
169	0xbc21707f	-0.009853481
170	0xbb527ccc	-0.0032117842
171	0xbc699fb2	-0.014259266
172	0xbaabf8f7	-0.0013120462
173	0xbac26041	-0.0014829711
174	0x3cd29c20	0.025709212
175	0xba4076e3	-0.0007341934
176	0x3c029a8d	0.007971418
177	0xbc04b6e6	-0.008100247
178	0xbb8afb2d	-0.0042413683
179	0xbc84bb35	-0.016202549
180	0x3b107cd8	0.002204707
181	0x3c10f8a1	0.00884834
182	0xbc0b76a5	-0.008512174
183	0x3bba3872	0.0056829983
184	0x3b86649d	0.0041013495
185	0x3c9295c3	0.017893678
186	0xbc1c1ba5	-0.009528075
187	0xbbfd9e27	-0.0077398005
188	0xbc162eec	-0.0091664605
189	0x3c36b996	0.011152646
190	0xbc126b62	-0.008936735
191	0x39b312e7	0.00034155624
192	0x3c138cde	0.009005753
193	0x3bef8e08	0.0073106326
194	0xbb6e1aa1	-0.003633179
195	0x3c8478fa	0.016170967
196	0x3c8a53e1	0.0168857
197	0xbc8d65c8	-0.017260447
198	0xbb90b399	-0.004415941
199	0xbbef2294	-0.007297823
200	0x3be9a250	0.007129945
201	0xbc0b9bf3	-0.008521068
202	0x3ae848e8	0.0017721923
203	0xbb8cdf86	-0.004299107
204	0x3c468415	0.012116452
205	0xbae3435f	-0.0017338804
206	0x3c17e4f7	0.009270898
207	0xbbcb6c6f	-0.0062079947
208	0xbbc85cbd	-0.006114571
209	0xbc28d09b	-0.010303642
210	0xb8996c93	-7.315832e-05
211	0x397ae8d2	0.0002392859
212	0xb8f50fd3	-0.00011685458
213	0xb87fbe51	-6.0973984e-05
214	0xb9b51611	-0.0003453945
215	0x389f418d	7.5939206e-05
216	0x3937450f	0.00017477966
217	0xb921934a	-0.00015409026
218	0xb9aabd36	-0.000325659
219	0x39327d23	0.0001702202
220	0x3727c1f7	9.999137e-06
221	0x399e1e20	0.00030158553
222	0xba107ef2	-0.00055120804
223	0x38bcc201	9.0006746e-05
224	0xb9386794	-0.00017586193
225	0x38214e91	3.8458562e-05
226	0x397b6113	0.00023973388
227	0x3971d962	0.00023064532
228	0xb896b4f0	-7.1862596e-05
229	0x391399ac	0.0001407626
230	0x38d80ee1	0.00010302454
231	0xb971da5c	-0.00023064896
232	0xba044a91	-0.00050465117
233	0xb92cf939	-0.00016496041
234	0xb8adfe0f	-8.296605e-05
235	0xb9f0c4c9	-0.00045922984
236	0xb99fcfd9	-0.00030481702
237	0x38409067	4.5910852e-05
238	0x3976436d	0.00023485506
239	0x39793ccf	0.00023769143
240	0xba6ead75	-0.00091048266
241	0xb6f9275f	-7.4253617e-06
242	0x3bc35329	0.005960841
243	0x3b1f776f	0.0024332663
244	0xba90bef1	-0.0011043233
245	0x3b836fba	0.0040111216
246	0xbbced7d1	-0.0063123484
247	0xbb8af2db	-0.0042403764
248	0xbaeab1d7	-0.0017905784
249	0x3b85eae9	0.0040868414
250	0x3b9d606d	0.0048027546
251	0xbac1c16a	-0.0014782373
252	0xbc560910	-0.013063684
253	0x3bdce938	0.006741669
254	0xbafa7094	-0.0019107037
255	0x3a9ed544	0.0012118001

exp_avg_sq f4 [30, 30]
0	0x394b1708	0.00019368168
1	0x39772514	0.00023569568
2	0x39767dc5	0.00023507241
3	0x38bbc3ce	8.953326e-05
4	0x3824bdb1	3.927731e-05
5	0x39b3566f	0.0003420594
6	0x39ee92be	0.0004550423
7	0x39723bf7	0.00023101257
8	0x3948c083	0.00019145203
9	0x39c4ff1c	0.00037574104
10	0x394ae60d	0.00019349922
11	0x38292828	4.033014e-05
12	0x3ab13295	0.0013519103
13	0x3a1c79a7	0.00059690553
14	0x388efbf8	6.8180205e-05
15	0x38ee7cc9	0.000113719674
16	0x3a2fee7c	0.0006711257
17	0x3939c778	0.00017717283
18	0x3948ab97	0.00019137409
19	0x3966c329	0.00022007212
20	0x3a75c003	0.000937462
21	0x38678ef8	5.520784e-05
22	0x38bfcaf5	9.1453934e-05
23	0x399753a6	0.00028863287
24	0x38eb6c21	0.00011225814
25	0x39870628	0.00025753793
26	0x3891b7ef	6.948399e-05
27	0x38ee88d2	0.00011374209
28	0x383a2c13	4.4386903e-05
29	0x3999500a	0.00029242068
30	0x2e86db1f	6.132538e-11
31	0x2fd7d306	3.9258213e-10
32	0x2e95cc81	6.812063e-11
33	0x2e4bfa0e	4.637895e-11
34	0x2e08e118	3.1122743e-11
35	0x303353cd	6.523891e-10
36	0x2e765b48	5.6014998e-11
37	0x2f708532	2.1875193e-10
38	0x303b62f8	6.8170847e-10
39	0x304b8d4c	7.4051765e-10
40	0x2ec083ba	8.7545485e-11
41	0x2e2374c8	3.716563e-11
42	0x30b64266	1.3261114e-09
43	0x3010f8b4	5.2740323e-10
44	0x2fbb30b7	3.4049716e-10
45	0x2f86305d	2.4408822e-10
46	0x2f4b6db1	1.8501713e-10
47	0x2e476e03	4.534507e-11
48	0x2e3d8d8b	4.309934e-11
49	0x2e334042	4.075696e-11
50	0x2fe3dfed	4.1450168e-10
51	0x2f89581f	2.498277e-10
52	0x3013957b	5.3690713e-10
53	0x2f694df5	2.1218922e-10
54	0x2e53e117	4.8175765e-11
55	0x3019aeef	5.590967e-10
56	0x2edf2cff	1.0148859e-10
57	0x2eb53883	8.2409655e-11
58	0x2f36d2ad	1.662765e-10
59	0x2e34a6b1	4.1075313e-11
60	0x21c9892d	1.36566e-18
61	0x25d02ff1	3.6114735e-16
62	0x2644779c	6.816326e-16
63	0x249313da	6.378472e-17
64	0x24875711	5.8694414e-17
65	0x2508befc	1.1860828e-16
66	0x2397fafc	1.6477749e-17
67	0x229dc4fa	4.2763492e-18
68	0x2554d77a	1.8461075e-16
69	0x23686860	1.25988475e-17
70	0x252aab03	1.480309e-16
71	0x23d2ff39	2.2876337e-17
72	0x268139e6	8.966867e-16
73	0x252dc6ea	1.5072753e-16
74	0x25976fc1	2.6270052e-16
75	0x25c6838a	3.443666e-16
76	0x25c655c0	3.440563e-16
77	0x25520de1	1.8219299e-16
78	0x25cf67b8	3.5979059e-16
79	0x26094edd	4.7638303e-16
80	0x23d731d5	2.3331451e-17
81	0x253e3a7e	1.6499691e-16
82	0x240a04dc	2.9928096e-17
83	0x24c29127	8.4379986e-17
84	0x2626e58f	5.790393e-16
85	0x24442401	4.2531222e-17
86	0x24103833	3.1272625e-17
87	0x24787ec2	5.3883796e-17
88	0x24dd893c	9.6075956e-17
89	0x209894f2	2.5848365e-19
90	0x389451b2	7.072407e-05
91	0x398cd5d4	0.00026862195
92	0x3b2e3547	0.0026582049
93	0x377f01aa	1.5199572e-05
94	0x3797bdb5	1.8088942e-05
95	0x3a2beea1	0.0006558691
96	0x3888fcc3	6.532066e-05
97	0x3883dcea	6.287715e-05
98	0x397bee9c	0.00024026114
99	0x3875c684	5.8597434e-05
100	0x39e82bb9	0.00044283064
101	0x37825d18	1.5540558e-05
102	0x3ba13182	0.004919232
103	0x39c18fdb	0.0003691901
104	0x395a5525	0.00020821819
105	0x3aff08f7	0.0019457628
106	0x3aea693c	0.0017884145
107	0x3a5e7f7c	0.00084876246
108	0x39205737	0.00015291279
109	0x3a966ccb	0.0011476515
110	0x399b78bf	0.00029653867
111	0x39908464	0.0002756446
112	0x37fcf5e4	3.0155243e-05
113	0x38aff55e	8.3903535e-05
114	0x3b2c3c73	0.0026281148
115	0x38a24d11	7.739117e-05
116	0x392a06ee	0.00016215045
117	0x38b0f096	8.4371466e-05
118	0x38bbd5b2	8.956659e-05
119	0x3939b028	0.00017708598
120	0x1e89d89e	1.459503e-20
121	0x1e1fd993	8.462383e-21
122	0x1c4798bc	6.604098e-22
123	0x1dc86b5b	5.3050562e-21
124	0x1d2e154d	2.303972e-21
125	0x1dac9e40	4.5691648e-21
126	0x1de2fced	6.008322e-21
127	0x1cc709bc	1.3171232e-21
128	0x1d5e9b3e	2.9461714e-21
129	0x1cf1e642	1.6007562e-21
130	0x1c641794	7.5469346e-22
131	0x1dc97579	5.332572e-21
132	0x1d50bdf3	2.7626772e-21
133	0x1bc23dfe	3.213467e-22
134	0x1bb2044d	2.945041e-22
135	0x1b4acf82	1.6776098e-22
136	0x1f307621	3.7367164e-20
137	0x1ba8d669	2.7931828e-22
138	0x1e1a031b	8.153334e-21
139	0x1f07c53c	2.875051e-20
140	0x1e20e828	8.518338e-21
141	0x1c759c5b	8.1265785e-22
142	0x1d0a342f	1.8291126e-21
143	0x1d4f3ab6	2.7426575e-21
144	0x1a16997a	3.114325e-23
145	0x1e3640c3	9.648392e-21
146	0x1dc30e02	5.1630554e-21
147	0x1eaacd6b	1.8084409e-20
148	0x1cfd6242	1.6767535e-21
149	0x1e9ac2d4	1.6385963e-20
150	0x3a0dc6b3	0.00054083316
151	0x3abec591	0.0014554729
152	0x3bf195e1	0.0073726033
153	0x39108ab9	0.00013784588
154	0x38d381d9	0.0001008545
155	0x3afd3d91	0.0019320716
156	0x3a2d348a	0.0006607255
157	0x39a52226	0.00031496695
158	0x3a91339f	0.0011078006
159	0x3a13e4ca	0.0005641697
160	0x3ad6c923	0.0016386848
161	0x38dceb28	0.00010534219
162	0x3c7c2d0c	0.015391599
163	0x3ad65fef	0.0016355495
164	0x3a29f4b8	0.00064833043
165	0x3b997870	0.0046835467
166	0x3bf88ab5	0.0075848945
167	0x3b093066	0.0020933389
168	0x39fc6a6b	0.00048144473
169	0x3b1bef77	0.0023793855
170	0x3b0fa085	0.0021915745
171	0x3a667b50	0.00087921787
172	0x394a37d2	0.00019285016
173	0x39bf0f09	0.0003644156
174	0x3be96063	0.007122086
175	0x39a793e5	0.00031962912
176	0x3a0284c8	0.00049788924
177	0x39da8d73	0.00041685588
178	0x398f72fa	0.0002736075
179	0x3a9ce92f	0.001197135
180	0x39a580ba	0.0003156716
181	0x3a94a492	0.001134055
182	0x3c71a99e	0.014749913
183	0x39054c90	0.0001271239
184	0x38dfe448	0.00010675989
185	0x3b6e48c7	0.0036359297
186	0x39d4a34f	0.00040557465
187	0x39c0f42a	0.0003680301
188	0x3a8d4211	0.0010777136
189	0x3a019bfa	0.0004944202
190	0x3b14a7a2	0.0022682925
191	0x38c9d0cc	9.623318e-05
192	0x3cec54c7	0.028849019
193	0x3b22784f	0.0024790948
194	0x3a87e64c	0.0010368316
195	0x3c318143	0.010834041
196	0x3c0ad221	0.00847295
197	0x3ba18d03	0.00493014
198	0x3a711ff1	0.000919818
199	0x3bdc3338	0.006719973
200	0x3ae4dd14	0.0017460906
201	0x3ab27567	0.0013615311
202	0x39499ab5	0.00019226487
203	0x39f0fd4f	0.00045965097
204	0x3c71bc5e	0.014754383
205	0x39d4331a	0.00040473865
206	0x3a7e673a	0.0009704713
207	0x39cab823	0.00038665635
208	0x3a0c465c	0.00053510605
209	0x3a552b98	0.0008131801
210	0x34cd5b00	3.8250437e-07
211	0x3621196a	2.4005662e-06
212	0x370f0f6c	8.527055e-06
213	0x36133445	2.1935132e-06
214	0x34d8af0e	4.0360504e-07
215	0x3729a9eb	1.0112747e-05
216	0x3702ebf2	7.803539e-06
217	0x368461f0	3.945308e-06
218	0x3686fee8	4.023186e-06
219	0x3717ad78	9.04069e-06
220	0x35b583b3	1.352388e-06
221	0x34e4659a	4.2542234e-07
222	0x38154ee6	3.559785e-05
223	0x3779a714	1.48804575e-05
224	0x35d7a1d7	1.606585e-06
225	0x36b88e06	5.500161e-06
226	0x35ec57c4	1.7608913e-06
227	0x36981cc9	4.533304e-06
228	0x35bce51f	1.4073775e-06
229	0x3651d784	3.1268873e-06
230	0x378c54f6	1.6728864e-05
231	0x35cb9750	1.5168716e-06
232	0x35c9a7b8	1.502448e-06
233	0x36433707	2.9089294e-06
234	0x36c839e1	5.9672025e-06
235	0x3642d5d8	2.9032726e-06
236	0x353f7b99	7.1332903e-07
237	0x3480bce0	2.3979283e-07
238	0x34e5100a	4.2666244e-07
239	0x34c0ce05	3.5912686e-07
240	0x39986d23	0.00029073012
241	0x39c590e9	0.00037682735
242	0x399b9ed8	0.00029682252
243	0x38a12c0f	7.685285e-05
244	0x385dcbb2	5.2880212e-05
245	0x399c0d2a	0.00029764447
246	0x39f0b233	0.00045909136
247	0x3968ec2a	0.00022213222
248	0x39853117	0.00025404312
249	0x39a957b0	0.00032299524
250	0x39b6e09a	0.00034881086
251	0x387d64d3	6.04138e-05
252	0x3abb75c9	0.001430207
253	0x3a035c93	0.0005011048
254	0x38b68817	8.703785e-05
255	0x38ea5b80	0.00011175033

exp_avg f4 [30]
0	0xba5d6c41	-0.0008446612
1	0x00000004	6e-45
2	0x00000004	6e-45
3	0x3a30688a	0.0006729445
4	0x00000004	6e-45
5	0xbb66e549	-0.003523188
6	0xba86259c	-0.0010234597
7	0x3934af17	0.00017231364
8	0x3b5b6981	0.0033479633
9	0x3b2a733e	0.002600863
10	0x3ad9b360	0.0016609244
11	0xb99359d4	-0.00028104952
12	0x3ac2e75e	0.0014869978
13	0x3a18500e	0.0005810269
14	0x36823d51	3.88144e-06
15	0x00000000	0.0
16	0x3ad33472	0.0016113652
17	0x3a60680e	0.0008560427
18	0xb91d2324	-0.00014985778
19	0xbab4e458	-0.0013800962
20	0x3b16fc08	0.0023038406
21	0xbb1e6aec	-0.0024172617
22	0x3ac92e22	0.0015348832
23	0x3b83ab19	0.004018199
24	0x3b234907	0.0024915354
25	0x3b7bc756	0.0038418374
26	0xba94eef4	-0.0011362717
27	0xbb192b08	-0.0023371596
28	0xbae2e178	-0.0017309627
29	0x3adf153d	0.0017019879

exp_avg_sq f4 [30]
0	0x38e313be	0.00010827881
1	0x2f232eb9	1.4841363e-10
2	0x21f6da5e	1.672741e-18
3	0x3855e60b	5.09974e-05
4	0x1e17c560	8.03469e-21
5	0x39996dde	0.00029264292
6	0x399932da	0.0002922032
7	0x35c5fc45	1.4751064e-06
8	0x39062e81	0.0001279656
9	0x38139666	3.51876e-05
10	0x38cc170a	9.7317694e-05
11	0x37c263a0	2.3172994e-05
12	0x3831bec1	4.2377742e-05
13	0x380a3875	3.2954344e-05
14	0x32c0119c	2.235975e-08
15	0x00000000	0.0
16	0x386fe55c	5.7195648e-05
17	0x39562ca2	0.00020425257
18	0x371478c2	8.849604e-06
19	0x3934a73f	0.00017228442
20	0x38464173	4.7267833e-05
21	0x38e2e958	0.000108199834
22	0x38c28723	9.275812e-05
23	0x39bc8625	0.000359581
24	0x380feb88	3.4313212e-05
25	0x3988cfc1	0.0002609473
26	0x38548b77	5.0674626e-05
27	0x388a8895	6.605793e-05
28	0x38a339d6	7.7832185e-05
29	0x3934ab03	0.00017229845

exp_avg f4 [3, 30]
0	0x3c51b554	0.01279958
1	0x80000004	-6e-45
2	0x80000004	-6e-45
3	0x38a230c0	7.733842e-05
4	0x00000004	6e-45
5	0xbb95c386	-0.0045704274
6	0x3c87c420	0.016573012
7	0x39dd6062	0.00042224216
8	0x3c3a621b	0.011375929
9	0xbc9ecb5d	-0.01938408
10	0x3c55dba1	0.013052852
11	0xbc0e4059	-0.008682334
12	0x381f153d	3.7928334e-05
13	0xbc77f67b	-0.015134449
14	0x35153d78	5.5596274e-07
15	0x00000000	0.0
16	0x3cadad69	0.021200852
17	0x3bbcf60e	0.0057666367
18	0x3a170ce3	0.0005762113
19	0x3b2e482d	0.0026593313
20	0x3b0763b5	0.0020658795
21	0xbafbec3f	-0.0019220187
22	0x3a7baf81	0.0009601042
23	0xbade96ed	-0.0016982235
24	0xb9033489	-0.00012512704
25	0xbc1ef153	-0.009701091
26	0x3c998008	0.018737808
27	0xba9f352c	-0.0012146584
28	0x3bead459	0.007166427
29	0x3d24fa6f	0.040277895
30	0xba55f2a1	-0.00081614597
31	0x80000004	-6e-45
32	0x00000004	6e-45
33	0x3c6b0016	0.014343282
34	0x00000000	0.0
35	0x3bf3c1fe	0.007438897
36	0x3c75f32a	0.015011588
37	0x3969c0d7	0.0002229245
38	0x3b067914	0.0020518946
39	0x39b8f77d	0.00035279608
40	0x3c0d55f7	0.008626453
41	0xbad3f34c	-0.001617053
42	0xba494a5a	-0.0007678621
43	0x3a391cfd	0.00070615095
44	0x80000004	-6e-45
45	0x00000000	0.0
46	0x3c6b921a	0.014378095
47	0xb7ad095f	-2.062757e-05
48	0xba643000	-0.00087046623
49	0xbabff956	-0.0014646451
50	0x3bddcbc8	0.0067686774
51	0xbaf4b18d	-0.0018668637
52	0xba66f9b4	-0.00088110124
53	0x3b2b41c6	0.0026131733
54	0xb9104fa9	-0.00013762586
55	0x3ca8d0ab	0.020607313
56	0x3c4d5103	0.012531522
57	0x3ab42190	0.0013742913
58	0x39d7a553	0.00041131172
59	0x3c9617a6	0.018321823
60	0xb97bdc4c	-0.00024019292
61	0x80000004	-6e-45
62	0x00000004	6e-45
63	0xbd893400	-0.06699371
64	0x00000004	6e-45
65	0xbc8bbf19	-0.017058896
66	0xbd24c448	-0.04022625
67	0xb92dc658	-0.00016572454
68	0x3c517fe7	0.012786842
69	0xbd390235	-0.04516812
70	0xbc7e6022	-0.01552585
71	0xbc97768f	-0.01848915
72	0x3bc68433	0.00605824
73	0xbcc87ddd	-0.024474079
74	0x35c98183	1.501336e-06
75	0x00000000	0.0
76	0xbd90c1e4	-0.07068232
77	0xbb3f6198	-0.0029202458
78	0x3b8a8ef2	0.004228466
79	0x3c15a08a	0.009132514
80	0x3b4d6194	0.0031338679
81	0x3cbbefaf	0.022941438
82	0x3b49ecdf	0.0030811352
83	0x3b373a42	0.0027958308
84	0xb9600b0d	-0.00021366421
85	0xbde8b00c	-0.11361703
86	0xbc3d18e8	-0.011541583
87	0xbbef0b5e	-0.0072950562
88	0x3ca73bf0	0.020414323
89	0xbd0003e4	-0.03125371

exp_avg_sq f4 [3, 30]
0	0x3a9bcc9c	0.001188654
1	0x308050f9	9.33624e-10
2	0x2061b7a4	1.9119003e-19
3	0x3c86813b	0.016419044
4	0x20e89ee7	3.9407482e-19
5	0x3bd569f7	0.006512876
6	0x3c3a8ed4	0.011386592
7	0x352832bb	6.26587e-07
8	0x3b33987f	0.0027404127
9	0x3b7c6d56	0.0038517318
10	0x3bc22d8f	0.005925841
11	0x3b02ed70	0.001997795
12	0x371ffafd	9.535576e-06
13	0x3acab671	0.0015465749
14	0x36860328	3.9938786e-06
15	0x00000000	0.0
16	0x3cf503aa	0.029908974
17	0x3a4cf027	0.0007817768
18	0x381a511d	3.6792004e-05
19	0x3b1f3fae	0.002429943
20	0x3883420b	6.258868e-05
21	0x3ae9c8e2	0.0017836357
22	0x39a8b667	0.00032179357
23	0x38f81b05	0.00011830594
24	0x37176c89	9.025572e-06
25	0x3d182cb0	0.037151992
26	0x3bff357b	0.007788358
27	0x3abd659f	0.0014449841
28	0x3ad6c0cf	0.0016384366
29	0x3d1641e6	0.03668394
30	0x3b13bf4f	0.0022544449
31	0x2fb1e6fe	3.2360242e-10
32	0x22dbb5ec	5.9552686e-18
33	0x3c9ca7f0	0.019123048
34	0x00000000	0.0
35	0x3c0d2f73	0.00861727
36	0x3c63fd2a	0.0139153395
37	0x36274848	2.4927012e-06
38	0x3b8895c1	0.0041682427
39	0x3ba84cd9	0.005136114
40	0x3c0b28c6	0.008493608
41	0x3b3a05ea	0.0028384873
42	0x38da1444	0.00010398825
43	0x3b00f179	0.001967518
44	0x364e24d2	3.0717824e-06
45	0x00000000	0.0
46	0x3d04c1cb	0.032411378
47	0x3a31d492	0.00067836896
48	0x3a12859d	0.0005589368
49	0x3b8d0ca0	0.0043044835
50	0x3a0de829	0.00054133177
51	0x3baa1694	0.00519068
52	0x3ab3db11	0.0013721903
53	0x392470da	0.00015682299
54	0x36b56d63	5.4069546e-06
55	0x3d39b924	0.04534258
56	0x3c1ba334	0.00949936
57	0x3ad07fbc	0.0015907208
58	0x3baaf41c	0.0052170884
59	0x3d34bb22	0.044123776
60	0x3b5bde7e	0.0033549364
61	0x2ef5b1eb	1.1172915e-10
62	0x248b0523	6.029034e-17
63	0x3d195900	0.037438393
64	0x18c4b94b	5.085191e-24
65	0x3c88d3df	0.01670259
66	0x3cb2b69e	0.021815594
67	0x369612a3	4.472518e-06
68	0x3bb569e5	0.0055363053
69	0x3c3c3b7d	0.0114887925
70	0x3c127f66	0.008941507
71	0x3c30aa97	0.010782859
72	0x39ff5ac5	0.0004870502
73	0x3bb92c4b	0.005651032
74	0x36de35a9	6.6223624e-06
75	0x00000000	0.0
76	0x3d60a067	0.05484047
77	0x3a775e0a	0.0009436315
78	0x3a643c27	0.0008706473
79	0x3bb2df9a	0.0054587843
80	0x3ad20262	0.0016022439
81	0x3c05e3ef	0.008172019
82	0x3aee93cf	0.0018202009
83	0x3999d291	0.00029339318
84	0x374b8b10	1.2132121e-05
85	0x3dc067f8	0.093948305
86	0x3ca28d56	0.019842785
87	0x3b2714c8	0.0025494564
88	0x3c2f7cf7	0.010710946
89	0x3d8923d3	0.06696286

exp_avg f4 [3]
0	0x394203db	0.00018502718
1	0x3b359085	0.0027704549
2	0xbc22c616	-0.009934923

exp_avg_sq f4 [3]
0	0x39ce071f	0.00039296687
1	0x39fc29f8	0.00048096455
2	0x3a69c072	0.0008916921
