ver2/last_brain.pth (torch_old, 11561 bytes, 24 tensors)

fc1.weight f4 [15, 8]
000000 1b 00 3f be 9b 62 3e be ca 38 00 bf 90 79 84 be
       -0.18652384 -0.18592303 -0.50086653 -0.25873995
000010 01 aa a6 3e 6d c5 5c be 44 e2 cb 3d 96 1b 84 3d
       0.32551578 -0.21559687 0.09955266 0.06450574
000020 5d 9d 69 bf 7d 3e bc 3f 0c ed 8f bf ad e7 5b 3f
       -0.9125574 1.470657 -1.1244216 0.85900384
000030 fd 14 bf bf 68 de b7 3f cc 1a 2f 3e 72 f6 51 3e
       -1.492828 1.4364748 0.17100066 0.20504168
000040 5d 70 06 40 ae 4a 82 3f 41 7c 20 c0 8d e1 19 c0
       2.100608 1.017904 -2.5075839 -2.4043915
000050 b2 55 e4 be 27 4a 29 40 bb 21 ab 3d e2 e2 2d bf
       -0.4459663 2.645151 0.08356043 -0.6792432
000060 32 e2 83 3f 7c f3 48 bf 81 b1 52 be ef b3 19 bf
       1.0303404 -0.7849653 -0.20575525 -0.6004018
000070 ba c4 72 3f ab e0 5c be 27 27 92 3f 8d cf 9a bf
       0.9483143 -0.21570079 1.1418198 -1.209459
000080 bf e7 11 3e 05 1c e9 be bc 0c cc c1 81 84 38 be
       0.1424856 -0.4552919 -25.506218 -0.18019296
000090 78 2a be 3e dc 30 d0 41 be 8a 5d 3e c8 c2 3d 3e
       0.37141776 26.023857 0.21634957 0.18531334
0000a0 ef 05 d0 3f 6d 1e 32 c0 59 fc 09 3e 95 8e dc bf
       1.6251811 -2.783107 0.13475169 -1.7231013
0000b0 d5 31 33 40 2d a7 17 bf dd 1a bb bb 92 15 ed 3d
       2.7999165 -0.59239465 -0.0057099895 0.1157638
0000c0 de 6e f7 3e e9 8f a7 3c 5a d1 da 3e b9 54 1d bf
       0.48326772 0.020454364 0.42737848 -0.614574
0000d0 04 df 65 be c9 a3 6b be 5f 82 e3 3e 7e 71 5a 3e
       -0.22448355 -0.23011698 0.44435403 0.21332356
0000e0 f3 10 d6 c0 ae 36 85 3e 68 d4 bf 3f c9 20 d7 40
       -6.689569 0.2601828 1.4986696 6.722752
0000f0 e3 a9 92 be 54 84 b1 bf 05 8b a0 bd 4b 4c 8f 3c
       -0.28645238 -1.3868508 -0.07839016 0.017492434
000100 65 80 bf 3f 80 85 ff be 95 4f f7 be 07 c4 d9 bf
       1.4961058 -0.4990654 -0.48302904 -1.7012948
000110 74 7e 41 3f 16 f0 56 3f ee ee d9 3e 1b c3 2b 3d
       0.7558358 0.8396009 0.425651 0.041934114
000120 ee 72 01 bf 5d 8b 43 3c 44 54 0d bf ab 00 f6 3e
       -0.50565994 0.011935082 -0.55206704 0.48047385
000130 b2 f8 fc be 02 97 27 3f 89 10 87 3f 3b 47 9c bf
       -0.4940849 0.65464795 1.0551921 -1.2209238
000140 0b 09 0a c0 23 cb 20 bf f7 09 aa 3f 56 15 eb 3f
       -2.156802 -0.6280996 1.3284291 1.8365886
000150 2c 9c 2f 3e 81 30 b8 bf 3a 69 b6 3d 7a 16 15 be
       0.17149419 -1.4389802 0.08906789 -0.14559355
000160 62 99 51 3d 31 45 22 c0 0f ce 81 3e 25 29 cb be
       0.051171668 -2.535473 0.25352523 -0.39679828
000170 5f d6 20 40 cc 2e 08 be 56 d8 55 3f e2 4f 09 bf
       2.5130842 -0.13299102 0.8353323 -0.53637516
000180 c1 01 1c 3f 78 3f 8a 3d 55 c1 2d bf f6 f2 dd be
       0.60940176 0.06750387 -0.67873126 -0.43349427
000190 e9 dc 42 3d 31 56 2c 3f 2d 7f 19 3f 73 76 c0 be
       0.047573958 0.6731902 0.5995968 -0.3759037
0001a0 9d b4 13 3f 1f 09 80 3f 3c 70 fc be 4b 2e 63 bf
       0.5769747 1.0002784 -0.49304378 -0.8874251
0001b0 59 65 34 bf 50 b6 e2 3d 5b 79 7a bf 54 1b 08 3f
       -0.70467144 0.110699296 -0.97841424 0.531667
0001c0 a9 73 41 bf 53 b8 50 3d bc 8f 2d 3c 0b 22 ee 3e
       -0.7556711 0.050957035 0.010593351 0.46510348
0001d0 87 33 81 3b 62 0b ff 3d 7d b0 e4 3e 07 71 ab be
       0.00394291 0.12453343 0.446659 -0.3348467

fc1.bias f4 [15]
000000 ad 18 68 be a1 a3 a4 3f 00 f2 fc bd 43 68 1d c0
       -0.22665663 1.2862436 -0.12350845 -2.4594886
000010 ed ba bb 3e 39 38 80 be 9d fc b9 3d 13 9d 10 c0
       0.3666605 -0.25042894 0.09081385 -2.259587
000020 a3 aa 88 bf 65 31 fd be f7 8c 4b 3f 66 62 e6 3e
       -1.0677074 -0.49451748 0.7951197 0.44996947
000030 7f f1 03 c0 49 c2 8c be fd 7c 56 bf
       -2.0616148 -0.27491978 -0.83784467

fc2.weight f4 [20, 15]
000000 63 bd b6 3d 20 86 9b 3c 47 0a 45 be 32 cd 9a be
       0.089228414 0.018984854 -0.19242202 -0.30234677
000010 85 c9 89 bf 9a f5 42 bf f0 8f 16 3f 04 65 32 3f
       -1.0764624 -0.7615601 0.5881338 0.6968539
000020 b3 37 15 c0 d4 96 ea 3f a0 67 46 3f 8a 8d aa bf
       -2.3315246 1.8327279 0.7750187 -1.3324444
000030 fe 00 d4 3f 4a c2 43 3f 59 29 5e bd a7 19 13 be
       1.6562803 0.76468337 -0.05423865 -0.14365254
000040 15 05 cd bf a3 b7 39 c0 31 33 16 bf 05 59 e1 bf
       -1.6017176 -2.9018333 -0.5867186 -1.7605292
000050 24 6b 45 bf 9f 83 86 3c 47 2e 22 c1 4e ba 27 40
       -0.7711661 0.016420184 -10.136298 2.6207461
000060 58 be 15 3f 29 9d f4 3d a2 2b 59 3f 8c 5e 0c c0
       0.58493567 0.119440384 0.84832203 -2.1932707
000070 ef 06 7e 3f a8 9e 94 3f e3 a2 95 3e 1d 86 9d 3f
       0.9922933 1.1610918 0.29225835 1.2306553
000080 12 1c 6b 3f 12 2c b8 bf 5f 08 1e 40 7d 1a f3 3e
       0.91839707 -1.4388449 2.469261 0.47481146
000090 d7 1c 27 bf 68 82 d3 bf 96 82 ea bf 15 50 06 3f
       -0.6527838 -1.6524172 -1.8321102 0.52465945
0000a0 69 4e fd bf 05 b9 06 bf 22 f1 fa 3f 44 0c f6 be
       -1.9789554 -0.5262607 1.9604838 -0.48056233
0000b0 03 eb 25 be 18 e0 42 3e 48 b0 97 3d 7a 3e c3 c0
       -0.16202931 0.19030797 0.0740667 -6.1013765
0000c0 da a8 39 40 96 21 20 c0 12 50 86 3e 13 50 a1 3e
       2.900931 -2.50205 0.26232964 0.31506404
0000d0 8e 75 2e 3f 77 b0 17 40 dc 4e 9a c0 5c 98 99 3f
       0.68148124 2.3701456 -4.8221264 1.1999621
0000e0 22 9c b9 bb 62 b7 d4 bf dd 41 64 3f aa a2 e0 3f
       -0.0056643644 -1.6618464 0.89163 1.7549641
0000f0 d6 16 0b 3d ad 3d 0f 3f 1b f5 68 bf 0b a3 03 c0
       0.033957325 0.55953485 -0.90999 -2.0568264
000100 3a d2 f1 be 9c 6f 5e 3f c5 ff 16 3f 94 6e 59 40
       -0.47230703 0.8688905 0.58984023 3.3973742
000110 a1 82 af bf dc de ab bf eb 91 80 be 12 8c f3 3f
       -1.371174 -1.3427386 -0.25111327 1.9027121
000120 76 7a 1a 40 37 bf 68 bf d2 a2 74 3f 31 49 8b 3e
       2.4137244 -0.9091677 0.95560944 0.27204278
000130 e3 2f c9 3f 75 35 11 bf d9 c5 e6 3f 60 49 f3 3f
       1.5717739 -0.56722194 1.8029128 1.9006767
000140 e5 3a db 3f 12 ed 5e bf 0f b6 3b c0 69 da 1b 3f
       1.7127348 -0.8708049 -2.932987 0.6088014
000150 ac 99 11 3e d4 78 c8 3d 58 72 59 3f e6 4a cc bf
       0.14218777 0.09788671 0.849401 -1.5960357
000160 13 c3 28 3f 0e 5a 8b be d7 eb fe 3c 17 81 ba be
       0.6592266 -0.27217144 0.031118317 -0.36426613
000170 26 5e 4d bf 14 56 a7 be 60 d2 0c be d4 df 07 be
       -0.80221784 -0.3268286 -0.13752127 -0.13268977
000180 e2 97 c6 3f 2c 97 3d 40 3d fe e9 be 02 c2 8e 3e
       1.5515101 2.9623518 -0.4570178 0.2788239
000190 c2 4a d4 3d 2b f6 36 bf 7b d8 20 40 71 c3 1f 3e
       0.103658214 -0.7146937 2.513213 0.15601899
0001a0 ed f7 3b 3e 8c 1f ad 3c cb ad 90 3f 52 ab 79 3f
       0.18356295 0.021133207 1.1303037 0.9752704
0001b0 79 2b be bf db fd 72 3f 74 32 ae bf 88 8c 97 3c
       -1.4857017 0.949186 -1.3609147 0.018499628
0001c0 57 92 65 3f 89 80 89 bf 47 39 38 3e 8a c5 ba be
       0.8967642 -1.0742351 0.179906 -0.36478835
0001d0 9d 5f 84 bf 9d 0d c3 bf dc 78 13 c0 71 48 69 bd
       -1.0341679 -1.523853 -2.3042517 -0.05695385
0001e0 f3 fb 30 bd 5f 88 94 bf 39 23 86 bf fc 43 dd be
       -0.043209027 -1.1604117 -1.0479499 -0.4321593
0001f0 e5 ee 8b 40 65 0b c3 bf 43 fd 5b be 4b d9 27 c0
       4.372912 -1.5237852 -0.2148333 -2.6226375
000200 2d e4 2f c0 9a 5b 1c c0 e7 d1 b5 bf 77 04 81 bf
       -2.7483017 -2.443091 -1.4204682 -1.0079488
000210 86 c5 a6 3f 65 1c 17 bf b5 0f da 3f c7 2c 8a be
       1.3029029 -0.590277 1.7036043 -0.26987287
000220 8f af a5 bf ae f5 91 3f 69 06 0e 40 f3 93 39 40
       -1.2944201 1.14031 2.2191412 2.899655
000230 55 fa 0b bf 03 a5 be be 7b f8 31 bf 24 cf 2e 40
       -0.5467885 -0.3723527 -0.69519776 2.7313929
000240 75 64 fb bf 21 75 ee bf fe 4b 1d 40 be 43 08 40
       -1.9640032 -1.8629495 2.4577632 2.1291347
000250 27 d3 05 3f 04 0a b2 3f 33 a7 65 3d 78 a7 ea c0
       0.5227532 1.3909307 0.056067657 -7.332943
000260 28 09 5f ba e3 42 36 40 b9 a0 ba be 75 68 94 bf
       -0.0008508139 2.8478324 -0.36450747 -1.1594378
000270 43 06 ba 3e e4 de f7 be 6c 3c 0d bf 26 20 c6 3f
       0.36332902 -0.4841224 -0.5517032 1.5478561
000280 17 00 f7 bf 1a 8d 7f 3f 48 4a de be 72 55 99 3e
       -1.9296902 0.9982468 -0.43416047 0.29948002
000290 9c e9 4b bf 62 9f ff bd c9 e7 12 3f 9e 2d 71 bf
       -0.79653335 -0.12481572 0.57384926 -0.9421023
0002a0 f8 de c1 bf 64 31 c0 bf 17 4d 34 c0 01 f6 90 c0
       -1.514617 -1.5015073 -2.8172052 -4.53003
0002b0 dc 60 17 bf c8 c7 de be d6 de 9f 3e e9 77 90 3f
       -0.5913217 -0.43511796 0.31224698 1.1286594
0002c0 07 98 63 3e b2 6d 22 c0 c4 af 80 bf a7 e4 d4 bd
       0.22225963 -2.5379453 -1.005364 -0.103951745
0002d0 62 b1 44 3e 0e e3 a9 bf fd 1b 9a 3e 4b a0 ec 3d
       0.19208291 -1.3272417 0.30099478 0.11554011
0002e0 56 02 d7 3e 62 dc 80 3e 90 fb 42 bd f2 92 17 c0
       0.4199397 0.2516814 -0.04760319 -2.3683438
0002f0 3f fb 7c c0 a3 5e 47 bd ae 23 ff bf e4 30 ce 3f
       -3.9528348 -0.048674237 -1.9932764 1.610867
000300 64 15 2e be 06 a7 2f c1 ff ba c1 bf 8d 45 98 3e
       -0.17000347 -10.978277 -1.5135192 0.29740563
000310 06 fb e4 bf e9 a1 f4 3f 43 2a 81 bf 47 db 74 c0
       -1.7889106 1.9111911 -1.0091022 -3.8258836
000320 1f f2 2c c0 a3 99 3c be 18 d0 e0 bf 06 30 00 3e
       -2.702278 -0.18417983 -1.7563505 0.1251832
000330 b3 3b 18 c0 13 ee 2d c0 c9 59 f9 3f 6b 43 b9 bf
       -2.3786438 -2.717656 1.9480525 -1.4473699
000340 3d 3f 27 be 41 68 8c 3e 66 e5 7d 3d 34 99 b4 3f
       -0.16332717 0.2742329 0.06198635 1.4109254
000350 6c 92 83 3f 78 06 b8 bf dd de 9d 3f 77 f5 aa bf
       1.027906 -1.4376974 1.2333637 -1.335616
000360 2c e0 e7 bc b7 9b 55 40 a6 46 a5 bf e0 29 91 bf
       -0.028305136 3.337629 -1.2912185 -1.1340904
000370 6a 50 25 3d d3 c5 94 be 06 7c a2 c0 bc 37 e1 bf
       0.040359892 -0.29057178 -5.0776396 -1.7595134
000380 76 73 a2 bf f1 c0 b7 bd 97 4d e0 3c 6f da a2 3e
       -1.2691486 -0.089723475 0.027380748 0.31807277
000390 22 dd 14 40 53 26 8e bf 3f fe b7 3d 71 be a4 bf
       2.3259969 -1.1105446 0.089840405 -1.2870618
0003a0 6f 95 55 40 ed 8a 78 3f bb c9 3b 3d 76 74 ee 3f
       3.3372457 0.97086984 0.045846682 1.8629291
0003b0 68 e8 98 be f1 1f ba bf 20 d6 75 3e 02 3f b2 be
       -0.29864812 -1.4540998 0.24007463 -0.34813696
0003c0 0f 5b 55 be 1c a2 30 c0 69 cd ff bf 2e 2c 12 3f
       -0.20835517 -2.7598944 -1.9984561 0.5709866
0003d0 05 1b a4 bf 20 24 ed 3f be 4a e5 3e fd 63 81 40
       -1.2820746 1.852665 0.44783586 4.0434556
0003e0 76 ec 28 3f a8 3c a9 3f e3 e1 09 c0 63 3d 1c 3f
       0.6598581 1.3221636 -2.154412 0.6103117
0003f0 e2 8f 8d be 95 4c 07 3e 99 40 88 3f e1 68 5e be
       -0.27648836 0.13212807 1.0644714 -0.21719696

fc2.bias f4 [20]
000000 a9 b5 3a be ae 54 07 3f 61 e1 a9 3f 55 5a 36 c0
       -0.1823336 0.52863586 1.3271905 -2.8492634
000010 b6 8a 7a be 93 57 b9 3f f2 60 5d 3e 2c c8 fe 3d
       -0.24466977 1.447985 0.21619013 0.124405235
000020 dc 86 80 be 9d 08 2a c0 e0 16 45 bf 8d 66 1c be
       -0.2510289 -2.6567757 -0.7698803 -0.15273495
000030 49 d3 26 3f f4 e4 aa 3f 6c 82 83 3f 55 4d 71 3f
       0.65166146 1.3351121 1.0274177 0.94258624
000040 d3 88 91 bf 73 7b c6 3f bf cd 03 3f ae d9 cd bf
       -1.136988 1.5506424 0.5148582 -1.6082056

fc3.weight f4 [10, 20]
000000 1f ea bd bf 6e 60 f4 c0 98 55 8f bf 38 c0 97 40
       -1.4837073 -7.636771 -1.1197996 4.742214
000010 84 65 93 be aa 7f 17 3f 2e f4 ba bf bc 70 06 c1
       -0.28788388 0.59179175 -1.4605768 -8.402523
000020 ef 68 bd 40 67 04 cd 40 fd 16 2c 40 7d 21 56 c1
       5.9190593 6.4067874 2.688903 -13.383176
000030 35 74 91 be ea 92 44 c0 29 29 1f c1 6c 3b 0c 40
       -0.2840897 -3.071467 -9.947549 2.1911268
000040 21 0d 0a 40 9c 45 d7 bf a9 35 84 bf 00 17 0d 40
       2.1570513 -1.6818118 -1.0328876 2.2045288
000050 90 8f 19 c0 39 1d 05 c1 7e 59 69 c0 07 de 7f bf
       -2.3993874 -8.319634 -3.6460872 -0.9994816
000060 b8 45 10 40 45 24 6e c0 1b 57 83 3e e3 4b 56 3f
       2.2542553 -3.7209637 0.25652394 0.83709544
000070 71 fa 6e 3f f4 26 07 c0 ca 40 26 40 99 9c 68 40
       0.93350893 -2.1117525 2.5977044 3.634558
000080 89 0c b5 3f 78 a4 92 3e 78 21 20 40 8a 5e 44 c1
       1.414445 0.28641105 2.5020428 -12.273081
000090 5f 70 68 c0 52 0c 8a 3e f3 b9 ba c0 f1 64 cf 3e
       -3.6318586 0.26962525 -5.835199 0.405067
0000a0 3b 1d 95 be 7c a7 2d bf fd 11 cd 3f 37 8c 01 3e
       -0.29123864 -0.67833686 1.6021115 0.12651144
0000b0 ab b7 84 bc c9 d0 5e 40 ee a6 d3 bf 65 f9 1e bb
       -0.016200861 3.4814932 -1.6535318 -0.0024257537
0000c0 03 37 8c c0 79 b0 ce 3f a1 77 a0 40 b3 b5 96 41
       -4.3817153 1.6147605 5.014603 18.83872
0000d0 43 cc 07 bf f8 a1 2f 40 ba e7 be bf 40 5f 06 be
       -0.53046054 2.7442608 -1.4914467 -0.13122272
0000e0 b6 89 46 40 65 89 f6 3e 51 c6 08 40 21 b0 6e c0
       3.1021552 0.481517 2.1371043 -3.7295
0000f0 05 f1 36 3e 1d 9e 3c 40 6c 55 ab bb 4f fb 85 40
       0.17865379 2.9471505 -0.005228689 4.1869273
000100 e1 16 84 3f ea e3 a1 be 39 25 18 be 68 87 2c be
       1.0319482 -0.31619197 -0.1485795 -0.16848528
000110 d6 a7 61 40 c3 b5 74 bf 7d cb 03 be 01 9b f6 bf
       3.525869 -0.95589846 -0.12870593 -1.9266053
000120 39 5b 75 bf 0e 22 ba 3f 53 f0 93 bd 56 94 0a be
       -0.9584232 1.4541643 -0.072235726 -0.13533148
000130 02 8a fc c0 9e 3d 91 bf 1a 74 49 c0 5a eb 51 c0
       -7.8918467 -1.1346929 -3.1477113 -3.2799897
000140 64 6b 31 3f 6c 9c bd 3f 5c 29 ac bf 1b 68 09 40
       0.6930449 1.4813361 -1.3450122 2.146979
000150 d4 f3 12 c0 8c ee cf bf 4e ea 05 be 2f 36 06 bf
       -2.296132 -1.6244674 -0.13077661 -0.5242643
000160 6a 93 9e bf 65 09 70 3f f8 e1 58 3e 3a 09 83 3f
       -1.2388737 0.93764335 0.2117995 1.0237191
000170 60 97 24 c0 57 bc 74 3d 50 bc 61 3f 27 be f8 bf
       -2.5717392 0.059749927 0.8817797 -1.943303
000180 ed 78 4d c0 03 0d cb bd 02 c9 3f 3f 14 81 b9 3f
       -3.2105057 -0.09914591 0.7491609 1.4492517
000190 d7 04 cd bf a9 3a 36 c0 0e 2e 1a c1 fd 1e 35 c0
       -1.6017102 -2.8473303 -9.636244 -2.8300164
0001a0 99 49 44 3f df 43 cc 3e 54 2e 85 c0 10 72 10 c1
       0.766748 0.39895532 -4.1619053 -9.027847
0001b0 ba 53 6c 3e a6 39 b4 3f d4 d8 ab c0 59 60 0f 40
       0.23078814 1.4080093 -5.3702183 2.2402556
0001c0 7b c3 00 c1 a7 2a f1 bf 4c 23 83 c0 1f a0 c1 c0
       -8.047725 -1.8841141 -4.0980587 -6.050796
0001d0 48 4b 7f 3f e1 c1 e7 be 5f c3 9e c0 56 48 39 bf
       0.99724245 -0.45265105 -4.961349 -0.72376
0001e0 be f0 be be 5f 9c 46 3f b6 d6 b3 c0 28 2f d3 be
       -0.37293047 0.77582353 -5.61996 -0.41246915
0001f0 19 2b c7 3e 0d 42 89 be ab 8e 79 be e8 8e 9e bf
       0.38900068 -0.26808205 -0.2437083 -1.2387362
000200 c2 de 3b c1 7b a4 a2 be 95 02 47 c1 41 57 32 bf
       -11.741884 -0.31766114 -12.43813 -0.6966439
000210 b6 38 e6 bf b9 00 2e bf 5a 3c 01 bf 00 48 27 3f
       -1.7986057 -0.6796985 -0.50482714 0.6534424
000220 7a 62 6c 3f 56 21 94 3f 30 41 c9 bf 72 32 33 3f
       0.92337763 1.1572673 -1.5723019 0.6999885
000230 6f ac 00 3f 31 db 33 3f ec 98 c5 3d d5 41 be 3f
       0.5026311 0.70256335 0.09648308 1.486384
000240 02 b4 79 3c 7c 14 1f 3e 35 f8 fa 3f dc a8 20 be
       0.015240671 0.15535158 1.9606997 -0.15689415
000250 19 06 aa be c1 d2 1d 40 7f 0b 02 40 22 cd 88 bf
       -0.33207777 2.4659884 2.0319517 -1.0687602
000260 83 3a 4f bc 4c b5 b9 bf 0f 96 42 3e 3b 1d 91 bf
       -0.012648228 -1.4508452 0.19002555 -1.1337045
000270 82 95 79 be 84 f2 82 3f bc f0 f0 be 31 e2 54 bf
       -0.24373439 1.023026 -0.47058666 -0.8315764
000280 b8 52 03 bf 54 20 49 40 b6 ff 52 3e f0 66 7f 3f
       -0.51298094 3.1425982 0.20605358 0.99766445
000290 b2 1f e8 3f 4d 54 4e be 83 35 2a be f7 1a 47 40
       1.8134673 -0.20149346 -0.16621976 3.1110208
0002a0 78 87 1a c0 ad c4 a1 3e ae 60 24 3f 38 bb 59 3f
       -2.4145184 0.31595364 0.6421002 0.850513
0002b0 38 82 2c 40 1e 3b f7 3e 8e b3 ca be b1 69 c9 3f
       2.695448 0.4828729 -0.39590114 1.573538
0002c0 d7 33 2a 40 55 fe d4 bd 69 74 59 3e 2b 0c 7c c0
       2.659414 -0.104000725 0.21235813 -3.9382427
0002d0 c8 f5 c0 3d 49 61 38 bf c2 d3 cb bf dc ee 8d 3d
       0.09421879 -0.72023445 -1.5923998 0.069303244
0002e0 5c d0 13 3f 41 ed 8d be 73 84 6e 3f 33 2b d3 be
       0.57739806 -0.27720073 0.9317085 -0.41243896
0002f0 49 a7 bd bf 3e 15 7d c0 c1 66 7d be 4f 9b 47 be
       -1.4816676 -3.9544215 -0.24746229 -0.1949284
000300 1a ce 2f 3f cd cb 3d 3f ea 85 16 bf 55 17 06 3e
       0.6867386 0.741391 -0.58798087 0.13094838
000310 95 f1 68 be 09 21 20 be 28 43 8d be dc f6 7f 3f
       -0.22748406 -0.15637602 -0.275903 0.9998605

fc3.bias f4 [10]
000000 a9 2f 8c c0 1f 91 9b bf 5e 31 6b 3f 4c f6 ae 3f
       -4.380818 -1.2153662 0.91872203 1.3668914
000010 dc 90 97 bf 51 b9 58 c0 d9 de 05 c0 2a 5f 48 3c
       -1.1841083 -3.3863108 -2.0917265 0.01222972
000020 05 4f 02 3f fa 7a 77 bf
       0.50901824 -0.9667202

fc4.weight f4 [3, 10]
000000 8a c0 44 c1 3e d6 2b c1 ca 56 a3 40 c4 e2 3b c1
       -12.297007 -10.739805 5.1043444 -11.742863
000010 d0 fd 63 c1 51 fc 86 c1 a4 72 15 c1 79 2f 25 c1
       -14.249466 -16.873201 -9.340488 -10.32409
000020 74 d6 d9 40 79 0b de c0 17 dc d9 bf 32 56 bb c0
       6.8074284 -6.9389005 -1.7020291 -5.854272
000030 26 c9 4a 40 11 4f 51 c1 73 2e 5e c1 80 48 17 c1
       3.1685271 -13.081803 -13.88634 -9.4552
000040 3b 58 e1 c1 d3 42 25 c1 fb f2 00 41 7e 96 af c0
       -28.168081 -10.3288145 8.059321 -5.4871206
000050 47 a4 9c c1 a4 38 1b c1 4a fc cf 40 4e ff 20 c1
       -19.580214 -9.701328 6.499547 -10.06233
000060 05 30 66 c1 8a 2c f9 c0 49 a8 ff be b0 77 23 c1
       -14.3867235 -7.786687 -0.4993308 -10.216721
000070 3d e2 c3 40 6c b6 0b c1
       6.121367 -8.732037

fc4.bias f4 [3]
000000 e3 10 9b c0 8a 52 85 c0 ce 17 b6 c0
       -4.8458114 -4.1663256 -5.690406

exp_avg f4 [15, 8]
000000 04 00 00 00 00 00 00 00 04 00 00 00 04 00 00 80
       6e-45 0.0 6e-45 -6e-45
000010 00 00 00 00 04 00 00 80 04 00 00 00 04 00 00 80
       0.0 -6e-45 6e-45 -6e-45
000020 52 ed 59 3b 05 17 c8 3a a5 f9 a2 3a 52 ed 59 bb
       0.0033253026 0.0015265649 0.0012434019 -0.0033253026
000030 05 17 c8 ba a5 f9 a2 ba 24 72 24 bc 24 72 24 3c
       -0.0015265649 -0.0012434019 -0.010036979 0.010036979
000040 79 05 9e 3d 55 98 a3 3d c6 05 9d 3d 79 05 9e bd
       0.077158876 0.079880394 0.07667117 -0.077158876
000050 55 98 a3 bd c6 05 9d bd 65 87 b2 bc 65 87 b2 3c
       -0.079880394 -0.07667117 -0.021793077 0.021793077
000060 eb 40 c7 3a 21 ed 90 33 bd 2f 01 3b eb 40 c7 ba
       0.0015201842 6.748656e-08 0.0019712292 -0.0015201842
000070 21 ed 90 b3 bd 2f 01 bb 9e 73 20 3b 9e 73 20 bb
       -6.748656e-08 -0.0019712292 0.0024482976 -0.0024482976
000080 63 f4 99 37 93 a2 a2 b9 20 b6 0c af 63 f4 99 b7
       1.8352823e-05 -0.00031020175 -1.279763e-10 -1.8352823e-05
000090 93 a2 a2 39 20 b6 0c 2f f6 d7 8d bb f6 d7 8d 3b
       0.00031020175 1.279763e-10 -0.004328723 0.004328723
0000a0 29 48 e9 3a 13 9e fd 39 d8 ed b1 b9 29 48 e9 ba
       0.0017797995 0.00048373695 -0.00033937278 -0.0017797995
0000b0 13 9e fd b9 d8 ed b1 39 42 9d a0 3a 42 9d a0 ba
       -0.00048373695 0.00033937278 0.0012253898 -0.0012253898
0000c0 11 e7 32 3c 01 b8 cc 3b ad 2c 66 3c 11 e7 32 bc
       0.010919348 0.006247521 0.0140487375 -0.010919348
0000d0 01 b8 cc bb ad 2c 66 bc f4 47 9e bc f4 47 9e 3c
       -0.006247521 -0.0140487375 -0.01932142 0.01932142
0000e0 36 96 f1 2b 96 b8 12 ab 09 71 78 39 36 96 f1 ab
       1.7165772e-12 -5.2125784e-13 0.00023693232 -1.7165772e-12
0000f0 96 b8 12 2b 09 71 78 b9 21 69 5d b7 21 69 5d 37
       5.2125784e-13 -0.00023693232 -1.3197104e-05 1.3197104e-05
000100 c7 c7 13 3b 07 57 6c 3b ee 5a 57 ba c7 c7 13 bb
       0.0022549496 0.0036062615 -0.00082151487 -0.0022549496
000110 07 57 6c bb ee 5a 57 3a 0e 81 fc 3a 0e 81 fc ba
       -0.0036062615 0.00082151487 0.0019264536 -0.0019264536
000120 c7 fa 2e bb ce c1 71 bb 2a 0a 58 ba c7 fa 2e 3b
       -0.0026699768 -0.0036889198 -0.00082412607 0.0026699768
000130 ce c1 71 3b 2a 0a 58 3a 2f 72 53 bb 2f 72 53 3b
       0.0036889198 0.00082412607 -0.0032264104 0.0032264104
000140 ea 74 1b b9 d8 05 be 3a c8 95 90 3a ea 74 1b 39
       -0.00014825506 0.0014497591 0.0011030966 0.00014825506
000150 d8 05 be ba c8 95 90 ba eb 6a e8 3b eb 6a e8 bb
       -0.0014497591 -0.0011030966 0.0070928237 -0.0070928237
000160 4f 88 a9 ba e5 45 f0 38 38 1f 80 bb 4f 88 a9 3a
       -0.00129343 0.00011457111 -0.0039099716 0.00129343
000170 e5 45 f0 b8 38 1f 80 3b 50 28 ef b8 50 28 ef 38
       -0.00011457111 0.0039099716 -0.00011403917 0.00011403917
000180 04 00 00 00 04 00 00 00 04 00 00 80 04 00 00 80
       6e-45 6e-45 -6e-45 -6e-45
000190 04 00 00 80 04 00 00 00 04 00 00 00 04 00 00 80
       -6e-45 6e-45 6e-45 -6e-45
0001a0 9e 9d 9c bc db e1 8a bc 80 5f 8e bc 9e 9d 9c 3c
       -0.019118126 -0.0169534 -0.017379522 0.019118126
0001b0 db e1 8a 3c 80 5f 8e 3c 35 bc 56 bc 35 bc 56 3c
       0.0169534 0.017379522 -0.0131063955 0.0131063955
0001c0 04 00 00 80 04 00 00 00 04 00 00 80 04 00 00 00
       -6e-45 6e-45 -6e-45 6e-45
0001d0 04 00 00 80 04 00 00 80 04 00 00 00 04 00 00 80
       -6e-45 -6e-45 6e-45 -6e-45

exp_avg_sq f4 [15, 8]
000000 f4 01 00 00 00 00 00 00 f4 01 00 00 f4 01 00 00
       7e-43 0.0 7e-43 7e-43
000010 00 00 00 00 f4 01 00 00 f4 01 00 00 f4 01 00 00
       0.0 7e-43 7e-43 7e-43
000020 5d b1 9f 3b f0 c7 c1 3b e1 78 b6 3b 5d b1 9f 3b
       0.0048734383 0.005913727 0.005568609 0.0048734383
000030 f0 c7 c1 3b e1 78 b6 3b 83 eb 80 3a 83 eb 80 3a
       0.005913727 0.005568609 0.0009835813 0.0009835813
000040 0a 03 f2 3c a5 18 e5 3c b0 b1 ea 3c 0a 03 f2 3c
       0.029542465 0.027965853 0.028649181 0.029542465
000050 a5 18 e5 3c b0 b1 ea 3c 2e fd 20 3c 2e fd 20 3c
       0.027965853 0.028649181 0.009825988 0.009825988
000060 c3 cf 16 3a fe 51 3e 37 dd ad 7d 39 c3 cf 16 3a
       0.0005753005 1.1343973e-05 0.0002419273 0.0005753005
000070 fe 51 3e 37 dd ad 7d 39 84 c8 af 39 84 c8 af 39
       1.1343973e-05 0.0002419273 0.00033527997 0.00033527997
000080 0b fe 6b 35 0d ab f5 37 6c a9 86 30 0b fe 6b 35
       8.7914003e-07 2.9285928e-05 9.797936e-10 8.7914003e-07
000090 0d ab f5 37 6c a9 86 30 f8 64 bc 39 f8 64 bc 39
       2.9285928e-05 9.797936e-10 0.00035933382 0.00035933382
0000a0 e3 e2 6c 3a 0b 9e 7d 39 04 f5 bb 3a e3 e2 6c 3a
       0.00090364943 0.00024186836 0.0014339988 0.00090364943
0000b0 0b 9e 7d 39 04 f5 bb 3a 3c b3 8c 3a 3c b3 8c 3a
       0.00024186836 0.0014339988 0.0010734568 0.0010734568
0000c0 0c 32 0a 3d 9f e0 10 3d 7a b5 2f 3d 0c 32 0a 3d
       0.033739135 0.035370465 0.04289768 0.033739135
0000d0 9f e0 10 3d 7a b5 2f 3d e1 f3 87 3c e1 f3 87 3c
       0.035370465 0.04289768 0.016595783 0.016595783
0000e0 35 1f 13 33 46 05 b8 32 3d 5b 86 39 35 1f 13 33
       3.4254487e-08 2.1422817e-08 0.0002562645 3.4254487e-08
0000f0 46 05 b8 32 3d 5b 86 39 06 c3 bf 38 06 c3 bf 38
       2.1422817e-08 0.0002562645 9.143916e-05 9.143916e-05
000100 ca c7 8a 3a a2 cb 54 3a a7 5b e3 39 ca c7 8a 3a
       0.0010588106 0.0008117502 0.000433651 0.0010588106
000110 a2 cb 54 3a a7 5b e3 39 58 ec 9f 39 58 ec 9f 39
       0.0008117502 0.000433651 0.00030502933 0.00030502933
000120 1f 2c 42 38 bc 60 c5 38 fe ad 4c 38 1f 2c 42 38
       4.6294295e-05 9.41171e-05 4.8799433e-05 4.6294295e-05
000130 bc 60 c5 38 fe ad 4c 38 7c 61 e4 38 7c 61 e4 38
       9.41171e-05 4.8799433e-05 0.00010890045 0.00010890045
000140 dd 43 75 39 87 06 da 39 6c bc 69 3a dd 43 75 39
       0.00023390302 0.00041585063 0.00089163217 0.00023390302
000150 87 06 da 39 6c bc 69 3a d7 36 b3 3a d7 36 b3 3a
       0.00041585063 0.00089163217 0.001367296 0.001367296
000160 8c 88 c2 38 d8 eb 24 36 06 eb 21 3a 8c 88 c2 38
       9.276075e-05 2.4575183e-06 0.0006176684 9.276075e-05
000170 d8 eb 24 36 06 eb 21 3a 74 62 ae 39 74 62 ae 39
       2.4575183e-06 0.0006176684 0.0003326122 0.0003326122
000180 f4 01 00 00 f4 01 00 00 f4 01 00 00 f4 01 00 00
       7e-43 7e-43 7e-43 7e-43
000190 f4 01 00 00 f4 01 00 00 f4 01 00 00 f4 01 00 00
       7e-43 7e-43 7e-43 7e-43
0001a0 ad b1 9a 3b 4b 10 a1 3b 08 af a3 3b ad b1 9a 3b
       0.0047208876 0.0049152724 0.0049952306 0.0047208876
0001b0 4b 10 a1 3b 08 af a3 3b 2e 6d e2 3a 2e 6d e2 3a
       0.0049152724 0.0049952306 0.001727497 0.001727497
0001c0 f4 01 00 00 f4 01 00 00 f4 01 00 00 f4 01 00 00
       7e-43 7e-43 7e-43 7e-43
0001d0 f4 01 00 00 f4 01 00 00 f4 01 00 00 f4 01 00 00
       7e-43 7e-43 7e-43 7e-43

exp_avg f4 [15]
000000 04 00 00 80 45 bf 06 3b 5e f2 99 3d e8 34 2c 3b
       -6e-45 0.0020560783 0.07516931 0.0026276652
000010 38 df 0c ba f3 20 77 3a e3 c2 28 3c a2 9f 79 39
       -0.00053738384 0.0009427212 0.010300371 0.00023805958
000020 2e f8 28 3b 2a a7 9b bb 9b 74 07 bc 2f e7 a1 bb
       0.0025782692 -0.004750152 -0.008267547 -0.0049408893
000030 04 00 00 00 c4 3d 80 bc 04 00 00 00
       6e-45 -0.015654452 6e-45

exp_avg_sq f4 [15]
000000 f4 01 00 00 5d a4 e2 3b b8 c8 fc 3c 67 f3 22 3a
       7e-43 0.0069165663 0.030857429 0.00062160793
000010 92 3f d3 3a 74 c7 38 3b df 1f 98 3d ff 24 91 39
       0.0016116968 0.0028195055 0.07427954 0.0002768412
000020 57 64 91 3a 21 64 63 39 2c 09 a3 3b 3c f7 ff 3a
       0.0011092526 0.00021685708 0.0049754586 0.0019528638
000030 f4 01 00 00 3a 94 bc 3b f4 01 00 00
       7e-43 0.0057549747 7e-43

exp_avg f4 [20, 15]
000000 04 00 00 00 6f 0e 03 bc 7c 4d 76 bc 22 c6 27 33
       6e-45 -0.007999047 -0.015033122 3.906292e-08
000010 fa d6 8f 38 9c 20 70 3a 71 a9 37 bc 45 aa cf 36
       6.858814e-05 0.00091601326 -0.011209832 6.1889027e-06
000020 34 5b c3 37 7f e2 a9 ba e0 31 50 3a 01 f6 28 ba
       2.3288281e-05 -0.0012961178 0.0007942002 -0.0006445349
000030 04 00 00 00 fe 72 1a bc 04 00 00 00 04 00 00 00
       6e-45 -0.00942683 6e-45 6e-45
000040 b3 f5 8c 3b 91 a2 57 ba 7e 0a e5 b9 04 00 00 00
       0.0043017506 -0.00082258234 -0.000436861 6e-45
000050 eb be 17 bb 3e 63 3f 3c 73 bc 83 b2 58 b2 c3 b8
       -0.0023154567 0.011681376 -1.5336104e-08 -9.331544e-05
000060 7b 08 65 39 e1 f8 8c 3b cc da b3 3a 04 00 00 80
       0.00021842301 0.0043021296 0.0013721823 -6e-45
000070 5f bd 97 3c 04 00 00 80 04 00 00 80 5d 69 55 ba
       0.018522916 -6e-45 -6e-45 -0.00081410055
000080 ac 19 73 3c c0 35 26 88 ac e7 54 b8 e1 a1 5a b8
       0.014837664 -5.001699e-34 -5.07605e-05 -5.212601e-05
000090 56 e7 cf 3c 04 00 00 80 45 f9 03 38 af 7d 6e b9
       0.025378864 -6e-45 3.1464984e-05 -0.0002274427
0000a0 3d a8 4d b9 03 99 ce b8 04 00 00 80 ec ec a0 3c
       -0.00019612997 -9.851346e-05 -6e-45 0.019644223
0000b0 04 00 00 80 04 00 00 80 cf 1a 49 3b 8a 65 ad 38
       -6e-45 -6e-45 0.0030686145 8.268196e-05
0000c0 de 35 78 39 04 00 00 00 b8 4d 25 3b 60 ef cb 3a
       0.0002367119 6e-45 0.0025223326 0.001555901
0000d0 ad 0c 0d 38 20 e0 a4 b9 d6 69 9e 38 e7 24 8b 3b
       3.3628825e-05 -0.00031447504 7.5537406e-05 0.0042463425
0000e0 63 da b8 3a 04 00 00 00 3f 4d d6 b9 04 00 00 00
       0.001410317 6e-45 -0.00040874814 6e-45
0000f0 04 00 00 00 33 bb b0 3a ab 7c b0 b7 9e 90 9f 38
       6e-45 0.0013483524 -2.1038888e-05 7.608648e-05
000100 03 d0 49 b8 cf 56 40 3a c0 77 1f ba b2 73 14 37
       -4.811586e-05 0.0007337154 -0.0006083213 8.848425e-06
000110 3a 77 b5 b6 99 a3 20 ba 06 c2 5e bb 78 47 11 bb
       -5.4081e-06 -0.00061278936 -0.0033990159 -0.0022167843
000120 04 00 00 00 9c a3 5c 39 04 00 00 00 04 00 00 80
       6e-45 0.00021041784 6e-45 -6e-45
000130 ef e9 36 39 df 4e c0 bb f0 94 da b8 ec 4e 38 38
       0.0001744402 -0.005868777 -0.00010422792 4.394252e-05
000140 4a 24 24 39 03 ed f8 bc 67 d9 3f b6 bb 4c 05 b9
       0.00015653778 -0.030386453 -2.8587763e-06 -0.00012712453
000150 c2 9e 83 39 79 49 8a 3a 1c 7f a7 3a 04 00 00 00
       0.0002510455 0.0010550461 0.001277897 6e-45
000160 49 d1 eb bc 04 00 00 00 04 00 00 00 d3 6e 22 3a
       -0.028786318 6e-45 6e-45 0.00061963237
000170 c3 fa 59 ba b9 78 b5 38 04 00 00 00 c7 b3 37 3b
       -0.00083152595 8.653239e-05 6e-45 0.002803074
000180 89 2c 24 3c e9 af 4f 38 e7 63 ce b9 c2 b6 db b9
       0.010020384 4.9516475e-05 -0.00039365815 -0.000419071
000190 fa 83 39 ba 02 90 49 bb 04 00 00 00 88 7c 2a 3c
       -0.0007076856 -0.0030756001 6e-45 0.010405667
0001a0 04 00 00 80 04 00 00 80 c6 d3 61 ba 98 20 1a 3b
       -6e-45 -6e-45 -0.00086146255 0.0023517963
0001b0 04 00 00 80 1b d6 2c b7 e7 ef cf 33 0c f2 d3 39
       -6e-45 -1.0301849e-05 9.6828266e-08 0.00040425395
0001c0 04 00 00 80 8a 84 93 b8 f6 d3 14 3a f6 6b 8d ba
       -6e-45 -7.0341935e-05 0.00056773366 -0.0010789621
0001d0 ac 54 02 ba 04 00 00 80 55 ba 43 b9 04 00 00 80
       -0.00049717235 -6e-45 -0.00018666063 -6e-45
0001e0 04 00 00 00 04 00 00 00 04 00 00 00 04 00 00 00
       6e-45 6e-45 6e-45 6e-45
0001f0 04 00 00 00 04 00 00 00 04 00 00 00 04 00 00 00
       6e-45 6e-45 6e-45 6e-45
000200 04 00 00 00 04 00 00 00 04 00 00 00 04 00 00 00
       6e-45 6e-45 6e-45 6e-45
000210 04 00 00 00 04 00 00 00 04 00 00 00 04 00 00 00
       6e-45 6e-45 6e-45 6e-45
000220 fd 9d 47 3b 35 26 e5 3b 59 29 da b8 13 44 d0 95
       0.0030459159 0.00699308 -0.00010402752 -8.4117933e-26
000230 9c 2d b8 b9 30 8d e2 3a 04 00 00 80 ba ad 70 3a
       -0.00035129196 0.0017284509 -6e-45 0.0009181161
000240 5e 0a 18 39 6d 01 f2 31 8b ca 6a b9 04 00 00 00
       0.00014499712 7.043289e-09 -0.00022391432 6e-45
000250 e6 66 60 3b 04 00 00 80 04 00 00 00 11 36 df b7
       0.003424102 -6e-45 6e-45 -2.6608848e-05
000260 54 6e b2 ba 71 3d 89 33 04 00 00 00 5b 97 26 34
       -0.0013613203 6.390736e-08 6e-45 1.5515018e-07
000270 9d 1e 78 bb 04 00 00 00 0d 35 8e 36 f5 ff 4e 37
       -0.0037860044 6e-45 4.2381057e-06 1.23381515e-05
000280 b0 1e 35 2c 5b 5e ce 33 04 00 00 80 ae c0 9c bb
       2.5738682e-12 9.609786e-08 -6e-45 -0.0047837114
000290 04 00 00 80 04 00 00 80 07 71 a3 bb 11 bd f1 39
       -6e-45 -6e-45 -0.004987839 0.00046107968
0002a0 04 00 00 80 92 be 48 36 87 3a ff 39 a1 e7 81 3a
       -6e-45 2.991325e-06 0.00048680996 0.000991095
0002b0 04 00 00 80 04 00 00 80 66 36 a4 3a 0e 9b 10 3b
       -6e-45 -6e-45 0.0012528419 0.0022065076
0002c0 ed bf 72 3a 04 00 00 80 33 db c1 ba 04 00 00 80
       0.00092601666 -6e-45 -0.0014790058 -6e-45
0002d0 04 00 00 80 73 8b 6e b8 5c d8 35 b8 27 af af 38
       -6e-45 -5.6873494e-05 -4.3355263e-05 8.377275e-05
0002e0 05 13 13 b7 19 c7 ec 39 6a 50 9b 39 04 00 00 80
       -8.766311e-06 0.00045161767 0.00029623817 -6e-45
0002f0 1b 66 4e b5 47 e9 7f b7 79 f5 a0 39 85 69 c3 39
       -7.6889563e-07 -1.52534985e-05 0.0003070047 0.00037271917
000300 04 00 00 80 83 9b 9c 1c 04 00 00 80 04 00 00 80
       -6e-45 1.0363413e-21 -6e-45 -6e-45
000310 dd 4e 83 38 8a 27 f1 39 d9 11 80 b9 1f 80 b4 af
       6.261256e-05 0.0004599656 -0.0002442736 -3.2832845e-10
000320 57 75 56 ba 19 13 56 3c 04 00 00 00 02 41 98 ba
       -0.0008180937 0.013066077 6e-45 -0.0011616054
000330 65 58 ba 39 a2 41 d4 b6 d7 68 0f ba 04 00 00 00
       0.00035542544 -6.325733e-06 -0.00054706394 6e-45
000340 0d f0 8f 3c 04 00 00 80 04 00 00 80 7a 46 dc ba
       0.01757052 -6e-45 -6e-45 -0.0016805672
000350 07 69 79 39 04 00 00 80 e2 fe 9b 38 4b 61 71 38
       0.00023785616 -6e-45 7.4384516e-05 5.754949e-05
000360 6d f1 19 3b 4b 8f 25 b7 66 5d be 38 0e 8c 6e 39
       0.0023489848 -9.868129e-06 9.077303e-05 0.00022749623
000370 98 6a 7d 3b ca 4d 2d 3b 04 00 00 80 f1 fc 2f ba
       0.003866827 0.002644407 -6e-45 -0.00067134114
000380 04 00 00 80 04 00 00 80 67 c9 5a 3c 8c 77 80 3c
       -6e-45 -6e-45 0.013353682 0.015682004
000390 e2 b8 9b 39 e1 8b 84 b9 27 26 23 ba 38 82 5b 3b
       0.00029701652 -0.0002528122 -0.00062236417 0.0033494364
0003a0 62 66 89 b7 86 0b a2 b7 96 32 3c 3b 0b e2 d9 bb
       -1.6379348e-05 -1.9317271e-05 0.0028716675 -0.006649261
0003b0 1d 46 63 ba 04 00 00 80 dd 58 45 3c 04 00 00 80
       -0.00086698105 -6e-45 0.012045112 -6e-45
0003c0 04 00 00 00 4a 01 2b b1 8f a0 8f 3a e5 8d d2 39
       6e-45 -2.4884508e-09 0.0010957884 0.0004016004
0003d0 04 00 00 80 14 9f 6a 3a fc aa 1d 3d 04 00 00 00
       -6e-45 0.0008950096 0.03849314 6e-45
0003e0 fa e8 3e 3a 86 75 a1 37 dc 2b 10 ba c7 4e 3b 3a
       0.0007282641 1.9247422e-05 -0.00054996996 0.00071452226
0003f0 04 00 00 80 8c e9 93 3d 04 00 00 00 04 00 00 00
       -6e-45 0.0722228 6e-45 6e-45

exp_avg_sq f4 [20, 15]
000000 f4 01 00 00 32 4f 56 3a 90 14 af 3b 8c 10 10 31
       7e-43 0.0008175253 0.0053430274 2.0964164e-09
000010 7d d8 f6 35 49 31 15 38 af e6 b9 3c a2 b9 50 35
       1.8391435e-06 3.557027e-05 0.022693006 7.775617e-07
000020 27 4c a1 35 e1 9a dc 37 0e fe a3 39 b2 ec 9c 37
       1.2017598e-06 2.6298165e-05 0.00031279068 1.8706869e-05
000030 f4 01 00 00 45 a6 87 3c f4 01 00 00 f4 01 00 00
       7e-43 0.016558776 7e-43 7e-43
000040 82 55 b4 38 06 b1 40 39 ba f8 c0 34 70 0b f2 22
       8.598996e-05 0.00018376493 3.594376e-07 6.560634e-18
000050 ae 3c b2 38 89 13 8e 3b 75 4c 4d 30 50 3d 9a 35
       8.499004e-05 0.004335825 7.468722e-10 1.1491738e-06
000060 77 35 c3 37 cd b4 0e 3a 9b e4 d5 38 f4 01 00 00
       2.3270708e-05 0.00054438115 0.000101992126 7e-43
000070 d3 d4 0c 3c f4 01 00 00 f4 01 00 00 ba c6 5a 39
       0.008595663 7e-43 7e-43 0.00020864132
000080 43 85 1f 3c ea 11 e7 32 92 a7 19 33 62 ce 44 38
       0.009736362 2.6900086e-08 3.5775493e-08 4.692225e-05
000090 f0 03 05 3d f4 01 00 00 51 f3 ad 36 bb 3a 0d 37
       0.03247446 7e-43 5.1841275e-06 8.417929e-06
0000a0 4c fa c3 37 d2 02 78 37 f4 01 00 00 e5 b9 58 3c
       2.3362365e-05 1.4782609e-05 7e-43 0.013227914
0000b0 f4 01 00 00 f4 01 00 00 f3 8e 53 38 bf cf 62 36
       7e-43 7e-43 5.0439452e-05 3.3797548e-06
0000c0 69 f4 f6 34 f4 01 00 00 d8 b6 7d 3a ba 7f 82 3b
       4.5998902e-07 7e-43 0.000967843 0.0039825113
0000d0 71 7e 0c 37 45 64 b8 36 d5 f5 5b 32 0c ab 05 3b
       8.37409e-06 5.4953002e-06 1.28033735e-08 0.0020396141
0000e0 74 b4 24 38 f4 01 00 00 3c 8e 53 3c f4 01 00 00
       3.9268707e-05 7e-43 0.012912329 7e-43
0000f0 f4 01 00 00 e5 21 4d 38 12 1e d9 37 7d e6 8a 36
       7e-43 4.8907375e-05 2.5882418e-05 4.139553e-06
000100 f1 73 92 34 2a 53 bf 38 14 25 76 38 26 ab 1f 35
       2.7278978e-07 9.12308e-05 5.8685502e-05 5.948117e-07
000110 f2 16 92 37 ee 83 e8 37 97 eb ac 39 2e cc 32 39
       1.7415241e-05 2.771799e-05 0.00032981925 0.00017051466
000120 f4 01 00 00 d6 38 47 37 f4 01 00 00 f4 01 00 00
       7e-43 1.18745575e-05 7e-43 7e-43
000130 ab 47 16 39 f4 9c 1b 3c bd 97 49 35 03 c6 28 34
       0.00014331813 0.00949787 7.5099143e-07 1.5718255e-07
000140 ed 79 27 38 a6 4c 62 3d 86 b9 bd 34 9e 70 c7 36
       3.9929455e-05 0.05524888 3.533898e-07 5.9437725e-06
000150 75 45 eb 36 bd 67 08 39 fd ca 10 38 f4 01 00 00
       7.0116316e-06 0.00013008616 3.4521323e-05 7e-43
000160 6e 72 42 3d f4 01 00 00 f4 01 00 00 c8 43 ea 39
       0.04747241 7e-43 7e-43 0.0004468246
000170 ed ec be 3a 41 d0 bb 35 01 f6 39 2a 54 06 eb 3a
       0.0014566459 1.3993196e-06 1.651665e-13 0.0017930963
000180 3d 49 80 3b 42 10 74 37 c6 93 3f 37 94 fd 3b 38
       0.0039149807 1.4547319e-05 1.1418893e-05 4.4820437e-05
000190 0b 60 f2 3b b3 0b 00 3a f4 01 00 00 a1 1c b6 3b
       0.007396703 0.0004884556 7e-43 0.005557612
0001a0 f4 01 00 00 f4 01 00 00 81 3b b7 39 3e f5 38 39
       7e-43 7e-43 0.00034948814 0.00017638967
0001b0 11 49 52 2e 10 88 d4 35 99 2b fb 32 d0 e8 ea 37
       4.7813368e-11 1.583483e-06 2.9240072e-08 2.8003386e-05
0001c0 f4 01 00 00 30 e9 38 35 f3 42 00 37 99 65 81 37
       7e-43 6.8884674e-07 7.644982e-06 1.5425308e-05
0001d0 49 34 ab 36 f4 01 00 00 21 37 ed 38 f4 01 00 00
       5.102284e-06 7e-43 0.00011311309 7e-43
0001e0 f4 01 00 00 47 03 00 00 f4 01 00 00 f4 01 00 00
       7e-43 1.176e-42 7e-43 7e-43
0001f0 f4 01 00 00 f4 01 00 00 f4 01 00 00 f4 01 00 00
       7e-43 7e-43 7e-43 7e-43
000200 f4 01 00 00 f4 01 00 00 f4 01 00 00 f4 01 00 00
       7e-43 7e-43 7e-43 7e-43
000210 f4 01 00 00 f7 02 00 00 f4 01 00 00 f4 01 00 00
       7e-43 1.064e-42 7e-43 7e-43
000220 9d f3 4c 3a 4e fe 99 3b e3 94 5d 36 e2 ea 4f 2d
       0.00078182836 0.004699505 3.301823e-06 1.1818742e-11
000230 90 33 1a 39 7b c1 ee 39 f4 01 00 00 6c a8 11 39
       0.00014705793 0.00045539052 7e-43 0.0001389102
000240 d0 cb 0c 37 a0 2e 4b 36 1c 19 1c 38 f4 01 00 00
       8.392104e-06 3.0276497e-06 3.7216683e-05 7e-43
000250 05 4e 94 3a f4 01 00 00 f4 01 00 00 4e 4f 4d 34
       0.0011314756 7e-43 7e-43 1.9120964e-07
000260 69 95 fa 39 04 e3 0b 37 f4 01 00 00 a3 d0 f0 38
       0.00047795035 8.337902e-06 7e-43 0.000114829534
000270 b7 97 d9 3a f4 01 00 00 a3 cd e0 37 4e 09 33 36
       0.0016601001 7e-43 2.6798638e-05 2.6678495e-06
000280 a6 f3 31 36 55 c2 80 38 f4 01 00 00 11 0e 51 3a
       2.6516877e-06 6.139713e-05 7e-43 0.00079748133
000290 f4 01 00 00 f4 01 00 00 26 ec fe 39 09 0b 0e 37
       7e-43 7e-43 0.000486226 8.466429e-06
0002a0 0a c0 72 29 33 9b 29 37 d8 e8 2f 36 c8 ff 02 38
       5.3901362e-14 1.010932e-05 2.6212565e-06 3.123263e-05
0002b0 f4 01 00 00 92 d4 8a 05 3e 69 91 38 3d 5e 83 3a
       7e-43 1.3055544e-35 6.933742e-05 0.0010022592
0002c0 f3 16 5b 39 f4 01 00 00 3c 21 ff 38 f4 01 00 00
       0.00020894017 7e-43 0.00012165538 7e-43
0002d0 f4 01 00 00 ba 10 b4 36 f0 91 62 37 f5 4b 0e 36
       7e-43 5.3663653e-06 1.3504628e-05 2.1203862e-06
0002e0 2f bf 06 34 21 9d ff 37 3b 0f 30 37 f4 01 00 00
       1.2549275e-07 3.0471538e-05 1.0493964e-05 7e-43
0002f0 13 1c b3 36 f9 9a 16 37 f2 d7 7c 36 cd a3 e3 37
       5.337884e-06 8.976779e-06 3.7676623e-06 2.7136784e-05
000300 f4 01 00 00 a8 40 26 30 f4 01 00 00 f4 01 00 00
       7e-43 6.048233e-10 7e-43 7e-43
000310 0f f5 ac 39 6c 00 05 3b 05 93 aa 34 15 8d a4 32
       0.0003298898 0.002029444 3.1771938e-07 1.915627e-08
000320 25 3b ab 36 66 33 60 3b f4 01 00 00 ab 2e 37 38
       5.1030825e-06 0.0034210323 7e-43 4.3674063e-05
000330 5f 4d a1 36 68 4c c3 34 64 1c ae 36 f4 01 00 00
       4.807181e-06 3.6377173e-07 5.188909e-06 7e-43
000340 76 27 02 3c f4 01 00 00 f4 01 00 00 3e 7d 9d 38
       0.0079439785 7e-43 7e-43 7.5096716e-05
000350 51 a7 ea 3a f4 56 ef 31 54 97 f5 34 09 89 35 36
       0.0017902647 6.965701e-09 4.5744912e-07 2.7050867e-06
000360 08 19 a8 3b b9 f1 ce 35 85 44 2d 36 df bf 00 37
       0.005129937 1.5418547e-06 2.5818892e-06 7.674068e-06
000370 ed 97 8b 39 67 db 8b 38 f4 01 00 00 2a f0 9f 3a
       0.0002662534 6.6689034e-05 7e-43 0.0012202312
000380 f4 01 00 00 f4 01 00 00 ef 15 78 3b 32 0e 53 3b
       7e-43 7e-43 0.003785487 0.0032204506
000390 f0 3b e2 37 06 55 7d 37 a1 c0 41 3a bf 82 3d 3a
       2.696921e-05 1.5099771e-05 0.00073910697 0.00072292605
0003a0 29 d1 86 36 85 29 11 39 b0 1a d6 38 51 71 af 3a
       4.0178606e-06 0.00013843745 0.00010209286 0.0013385211
0003b0 47 22 96 39 f4 01 00 00 69 7a 14 3b f4 01 00 00
       0.00028635768 7e-43 0.002265597 7e-43
0003c0 f4 01 00 00 77 ca 6e 32 bc c3 d2 38 bf f5 90 37
       7e-43 1.38994585e-08 0.00010050039 1.7280572e-05
0003d0 f4 01 00 00 c9 c4 e6 39 b0 46 08 3b f4 01 00 00
       7e-43 0.00044015635 0.0020794086 7e-43
0003e0 7e 8c 9c 38 68 93 fe 33 4d f6 a2 36 20 5b fe 38
       7.4648284e-05 1.185461e-07 4.8566494e-06 0.00012128637
0003f0 f4 01 00 00 d4 cf d9 3b f4 01 00 00 f4 01 00 00
       7e-43 0.0066470895 7e-43 7e-43

exp_avg f4 [20]
000000 bd 23 bd bb a3 21 1a 3c 25 60 32 3c 4d 58 18 3b
       -0.0057720826 0.009407434 0.01088718 0.002324599
000010 7f ba 0d ba 70 0c 72 bc b5 a6 b2 3b 64 74 82 ba
       -0.0005406513 -0.014773473 0.005452002 -0.00099529
000020 04 00 00 00 47 eb 98 3a f2 e8 ed ba 1d d9 e3 ba
       6e-45 0.0011666798 -0.0018151088 -0.001738343
000030 31 76 60 39 df d5 d1 3b dd fb 04 3b 61 c5 22 3a
       0.00021406334 0.0064036692 0.0020291724 0.00062092213
000040 fb be a6 3c 50 d4 8c bb a2 4f 5d bc 96 af 55 bb
       0.020354738 -0.0042977706 -0.0135077555 -0.0032605878

exp_avg_sq f4 [20]
000000 45 b2 a1 3b d9 3f b0 3a 6a 31 d7 3b ba 9e cd 3a
       0.0049345815 0.0013446762 0.00656717 0.0015687563
000010 ac b5 cb 38 e4 1d 46 3c 34 00 3e 3b b6 ef 66 38
       9.713633e-05 0.012092087 0.002899182 5.505952e-05
000020 1c 03 00 00 e5 60 35 39 2a ca b2 39 7b 2b 06 3a
       1.115e-42 0.00017297601 0.0003410143 0.00051181734
000030 aa bf 0d 37 c4 fe 6a 3a 37 93 87 3a 69 ac 87 3a
       8.44888e-06 0.00089643546 0.0010343556 0.0010351065
000040 32 79 1f 3a 76 5f 34 3a 5b a4 16 3b 97 14 91 3a
       0.0006083428 0.000688068 0.0022986147 0.0011068758

exp_avg f4 [10, 20]
000000 41 fa 6f 39 2d 41 db 38 8c 8a cf b5 0c a0 5a 39
       0.00022886043 0.00010454874 -1.5463024e-06 0.00020849722
000010 b8 2e cf 39 01 48 8c 3a e0 54 a1 39 a4 5b 3e a8
       0.00039516925 0.0010702611 0.0003077155 -1.056699e-14
000020 04 00 00 00 73 18 1c 31 0e bf ae 2f ef a4 99 32
       6e-45 2.2714886e-09 3.1786168e-10 1.7886547e-08
000030 49 49 1e 39 c6 02 a1 31 c3 3d d1 35 7e a4 64 3a
       0.00015095355 4.686032e-09 1.5589688e-06 0.0008722021
000040 f7 4d 0c 39 53 b3 31 38 40 83 be 3a 35 4d 62 39
       0.00013380485 4.2367097e-05 0.0014534965 0.00021581801
000050 44 1d d4 b9 d6 b6 25 b5 81 ce ac b7 2f 7b 64 96
       -0.00040457596 -6.173335e-07 -2.0600159e-05 -1.8456563e-25
000060 1a 70 87 2a 20 98 06 38 31 a1 21 ba 3f 4d 91 30
       2.4058603e-13 3.2089767e-05 -0.0006165682 1.0572093e-09
000070 04 00 00 00 67 10 93 30 ce 53 bb b8 11 53 09 25
       6e-45 1.070032e-09 -8.932465e-05 1.1911e-16
000080 e8 d8 82 29 01 c8 14 ba 13 7e 4f 38 38 d9 12 2f
       5.810787e-14 -0.0005675555 4.947006e-05 1.3355794e-10
000090 3e 2a 47 9e 94 c4 55 b7 0c bf 0d ac 11 27 36 28
       -1.0543708e-20 -1.2741559e-05 -2.0143357e-12 1.0111501e-14
0000a0 e8 d4 04 ba 28 b6 f8 b9 74 f3 3f 37 5a c8 b9 b6
       -0.0005067126 -0.00047437963 1.14411705e-05 -5.5367536e-06
0000b0 d3 28 1f b6 27 df b2 b9 dd 6f 46 ba e0 76 1b b0
       -2.371661e-06 -0.00034117067 -0.00075697695 -5.6557603e-10
0000c0 04 00 00 80 bc 41 f4 a1 5e d6 41 38 96 83 1a 31
       -6e-45 -1.6551483e-18 4.621443e-05 2.2484747e-09
0000d0 09 40 f7 ac 33 9d fd 38 78 e5 20 36 0a fd 51 b8
       -7.0272716e-12 0.00012093261 2.3975426e-06 -5.0065144e-05
0000e0 e6 c9 72 33 54 52 09 ba c6 ee d8 b9 a5 be 1c b9
       5.652864e-08 -0.0005238403 -0.0004137663 -0.0001494834
0000f0 e1 19 a0 3b d4 8d ee 3b 81 e0 8f bc 28 ca 32 ba
       0.0048858975 0.007280091 -0.017563106 -0.0006820285
000100 a5 00 bd 3a 4d 0b df ba f0 55 26 3c 2e 6e 03 bc
       0.0014419748 -0.0017016918 0.010152325 -0.008021874
000110 04 00 00 00 91 0f 28 38 0e 29 37 b9 99 0f 8c 3a
       6e-45 4.006882e-05 -0.00017467534 0.0010685801
000120 3b 13 83 36 ce 0b 1b bb fc 41 33 bc 1e cb 31 ba
       3.906343e-06 -0.002365816 -0.010941025 -0.0006782281
000130 c6 26 ef b9 59 3e 84 3b 14 45 ad 3b e8 03 19 b9
       -0.0004561452 0.0040357527 0.005287776 -0.00014592672
000140 21 e0 05 bc 61 f3 e1 3b f0 68 ac ba 21 8c 6e 38
       -0.008171112 0.006895468 -0.0013153832 5.6874127e-05
000150 78 71 02 b8 de a6 2e 3b 43 64 4f bc 57 d3 55 36
       -3.110009e-05 0.0026649754 -0.012658182 3.186249e-06
000160 04 00 00 00 d7 b6 8f 36 8d bc 8b ba 3e 48 69 35
       6e-45 4.2830175e-06 -0.0010661051 8.690439e-07
000170 a4 b0 10 31 35 d5 a3 bc 08 27 cf 3a 35 b8 0d 3a
       2.1055166e-09 -0.019999126 0.0015804479 0.0005406172
000180 f0 03 ad b8 2c 57 73 3b 51 09 e4 3b bc 9e 47 3a
       -8.250016e-05 0.0037130816 0.0069591184 0.0007614901
000190 9a a4 c3 aa 60 97 97 a9 97 f0 2d 28 9c bb bb 9c
       -3.4753174e-13 -6.7320064e-14 9.655599e-15 -1.2423118e-21
0001a0 43 9d 8d 36 4a 3b 89 38 45 24 1f aa 66 01 66 27
       4.220435e-06 6.5437125e-05 -1.413462e-13 3.191967e-15
0001b0 04 00 00 00 08 01 a6 38 5a 62 7e 28 d3 f6 b3 28
       6e-45 7.915689e-05 1.4121159e-14 1.9980035e-14
0001c0 41 f8 bc 1d 28 4b 1e 37 c1 83 7d 29 5f a4 d7 37
       5.0019874e-21 9.435033e-06 5.6291563e-14 2.5706539e-05
0001d0 04 fe c5 37 98 83 32 2a d5 90 4d 36 be bc 81 28
       2.3602515e-05 1.5855232e-13 3.0631684e-06 1.4403731e-14
0001e0 30 c8 14 3b 2f 90 c0 39 0e dc 81 37 40 69 78 39
       0.002270233 0.0003672852 1.548047e-05 0.00023690332
0001f0 71 7e 2b ba 25 35 89 3b 8c 75 4b 3b 57 e3 5c 37
       -0.00065419736 0.0041872435 0.0031045405 1.31659535e-05
000200 04 00 00 80 e3 ac 86 3b 12 63 90 b4 b1 da 84 39
       -6e-45 0.004109965 -2.6894173e-07 0.0002533994
000210 fe 11 07 35 80 42 22 3a 3a 7d c0 39 3c 30 c2 b9
       5.03176e-07 0.0006189719 0.00036714395 -0.000370385
000220 e5 0c 7b 3a a7 03 0d 3b 0f 38 8b ba dd 2a f1 b8
       0.00095768116 0.002151707 -0.0010621565 -0.000114997594
000230 4d ea db bb e6 e1 c5 ba b2 51 a9 bc 4a c6 cf 39
       -0.0067112804 -0.001509723 -0.020668838 0.00039629854
000240 64 f9 72 3b 15 49 bd bb 31 2f 53 39 c3 f5 44 bc
       0.0037074918 -0.0057765343 0.00020140108 -0.012021485
000250 04 00 00 00 e3 b8 05 3b b5 7f 56 b9 b8 fb fc 3a
       6e-45 0.002040439 -0.00020456205 0.0019301092
000260 48 53 2a 39 b5 70 74 ba 72 1b 3e bc 6f d9 9f 3b
       0.00016243488 -0.0009324656 -0.011603223 0.004878215
000270 fd ac c6 ba 45 b1 f4 3a b6 b0 a6 3b 78 b8 a9 b9
       -0.0015157756 0.0018668553 0.0050869836 -0.00032371632
000280 07 aa 2b 3c e4 45 1b 3a ed ef 2d 3b bf 14 b0 b6
       0.010477549 0.0005923195 0.0026540712 -5.247624e-06
000290 1d b2 2f 37 d0 39 a9 3b d2 e4 2d 3c a3 5a 13 b9
       1.0472283e-05 0.0051643625 0.010613637 -0.00014052777
0002a0 04 00 00 80 57 6e 13 36 2b fc b1 3a 48 ab c9 b6
       -6e-45 2.1968933e-06 0.001357918 -6.0102066e-06
0002b0 1c 2b 1b 34 3b 50 24 3c 33 61 70 b9 d9 7c 64 b8
       1.4451183e-07 0.010028894 -0.00022924393 -5.447571e-05
0002c0 e5 36 5c b4 72 9d 15 bb c3 ff 56 ba 1f 74 5e b9
       -2.0509067e-07 -0.002282944 -0.00082015636 -0.00021214828
0002d0 e5 e0 a2 3c 3d 1c 5a 3c aa 82 0e ba 5e b1 ba ba
       0.019882629 0.013312397 -0.00054363406 -0.0014243533
0002e0 97 a6 a5 bb 07 1e 8b 3b 59 7c c1 3c 77 0e 25 39
       -0.0050552594 0.004245523 0.023618864 0.00015741015
0002f0 04 00 00 00 08 b7 0a 36 41 fd c0 3b b0 07 14 b8
       6e-45 2.067014e-06 0.005889565 -3.529311e-05
000300 7a 80 06 3a 8d 6c 8d 3b aa f5 33 b9 b0 2f 42 bc
       0.0005130839 0.004315919 -0.00017162287 -0.01185219
000310 b8 d4 7d ba 77 c3 a2 3b 77 f7 0d 3b 1e c1 a2 bb
       -0.00096828816 0.004967149 0.0021662393 -0.004966869
