ver2/last_brain.pth (torch_old, 11545 bytes, 24 tensors)

fc1.weight f4 [15, 8]
00000000: f361 023f 4e6c 01bf 36c0 0d40 e088 f3be
00000010: c726 713e f847 d8bf 395c ed3e 41d4 07be
00000020: 0ee3 bc3e 23fe 803e b2b1 88be 2657 9239
00000030: a5a5 313e b14c 923d be47 ae3b 652b 9b3e
00000040: 8c84 7a3f 3167 04be 5d90 b43f cbee 1cbf
00000050: 9eb2 d4be 06ca 7fbf 591e c6be efe8 8e3e
00000060: 2cc5 823e 5359 6fbe 8af3 64be 597e 283e
00000070: 635b 6abe ba4b 153e 94a5 acbe 88f2 48be
00000080: 19a8 873f 5926 203e ddb7 d23d d724 a0bf
00000090: 85ff 2bbf 4959 a93e 502a 883d 51f9 5c3d
000000a0: 93b1 663d ba5a 72bf ef4d 473f 0528 533e
000000b0: 3a7c 5e3f 3cb3 81bf f49a 11bf ea7b 263f
000000c0: a2ff 99be fc9c 953d b106 60be 69b2 993e
000000d0: 12ad 163e 58e3 20bd 8dee 8e3e 7047 983d
000000e0: 4ba6 cc3d a02f f9be c2c6 763f 3847 70be
000000f0: df90 cd3d 33a7 00bf b8fa 6b3e 2954 73be
00000100: afd4 22be fc28 8a3e 6d28 23bf f302 e7bc
00000110: fe3d e6be f7af 683f bee6 163f 4274 febe
00000120: 1edf 253f 9f10 653e ace7 87bf b7cd cdbd
00000130: 63cc b6bd 5fcd 913f ff9a a3bf 6fa4 823f
00000140: 4e02 493f 0fab 883d c6c2 853f b0f7 a4bf
00000150: 250e fd3e 6261 7cbf 9fdf 20bf 8929 053f
00000160: e00f ad3c 6c5b a6bd 752e 40be 6bde af3e
00000170: e1fb a1be 9c02 28be 30a4 cc3c d4c6 a93d
00000180: d3da 0f3f e5bc c1be 3274 113f f728 32bf
00000190: ddb9 e23e caf8 d4be e2e1 bc3e 8a2b 4bbe
000001a0: 5e01 e33d ec6a 203f 74ad 653e bb91 b7be
000001b0: 0b05 4fbe fc3c 703e 9170 bb3e 0605 febe
000001c0: 596f e33f d118 3f3f cdbf 5fbd abd8 a2bf
000001d0: 07c1 17bf a47e 153f 06ce 053d 5282 d43d
0.5093071 -0.50555885 2.2148566 -0.47565365 0.23549949 -1.6896963 0.46359423 -0.13264562
0.3689198 0.2519389 -0.2669807 0.0002791222 0.17348345 0.07143534 0.005318611 0.30306545
0.978585 -0.1292999 1.4106556 -0.6130187 -0.41542524 -0.9991764 -0.38695028 0.2791209
0.25541055 -0.23373918 -0.22358528 0.16454448 -0.22886424 0.14579669 -0.33720076 -0.19623768
1.0598174 0.15639628 0.102889754 -1.2511243 -0.67186767 0.33075932 0.066486955 0.053948704
0.05632169 -0.9466969 0.7785329 0.20620735 0.86908305 -1.0132823 -0.56877065 0.6503283
-0.30077845 0.07305333 -0.21877553 0.3001893 0.14714459 -0.039279312 0.27916375 0.074355006
0.09992655 -0.48669147 0.9639703 -0.23464668 0.100373976 -0.50255126 0.2304486 -0.23762573
-0.15901445 0.26984394 -0.6373356 -0.028199648 -0.4496917 0.908935 0.58945835 -0.49698073
0.64793575 0.22369622 -1.0617576 -0.100490026 -0.089257024 1.1390799 -1.2781676 1.0206431
0.7851914 0.06673252 1.0450065 -1.2888088 0.49424854 -0.98586094 -0.6284122 0.520165
0.021125734 -0.08122906 -0.18767722 0.3434938 -0.3163748 -0.16407245 0.024980634 0.082898766
0.56193274 -0.37839428 0.56817925 -0.6959376 0.44282427 -0.4159606 0.36891085 -0.19840828
0.11084245 0.6266315 0.22429448 -0.3585337 -0.20216767 0.23460764 0.3660932 -0.49613208
1.7768356 0.7464724 -0.054626275 -1.2722372 -0.5927891 0.58396363 0.032667182 0.10376419

fc1.bias f4 [15]
00000000: 75a4 b53d c309 57be 8fa7 a3be c90f 69be
00000010: 190c 2a3d b23a ad3e 9898 b1be a8ce 22be
00000020: aa65 2e3f 3c5c 5c3e 5848 b63e e6f6 85be
00000030: 4ab8 5d3e 42fe 323f 81aa 963e
0.08869258 -0.20999818 -0.31963775 -0.22759928 0.041515443 0.33833843 -0.34686732 -0.15899146
0.6812388 0.2151956 0.3560207 -0.2616493 0.21652332 0.69919217 0.2942696

fc2.weight f4 [20, 15]
00000000: f8c6 e5bf b321 a23e a0c5 8abf 7436 5dbe
00000010: 2557 b13e e087 39bf d4a7 a03d 3652 93bf
00000020: 755c cfbe 13c3 033f 59a0 be3d 7e17 0f3e
00000030: cb73 4fbf 2e01 87be 78ab c13e d7ac 2ac0
00000040: 51c5 913d c6ef d5bb 4082 b73b 63db ea3e
00000050: c3d3 903d 7a3e 413e a1bc 89bf 8922 8e3f
00000060: 121d e93e f334 63bf 3ede 55be e7ab 8fbf
00000070: 62db 483f 2e4f 273f 2eb5 2c3f ec05 a4bd
00000080: 298c f93e 214f 40be c74d 8fbe 5eae 143f
00000090: 5e88 223e 7ec2 023f f734 213f 17bd 73bf
000000a0: c95e 713e 48eb 293d 52dc ce3e 1c33 1d3f
000000b0: 76cf 64be 3b20 bb3e 633f e43d f529 4a3f
000000c0: 4822 003e a708 0d3f 19d1 2bbf 6470 563e
000000d0: ce9d 97be cc87 583e 1ebd f53d 033e 9b3e
000000e0: ff25 7cbe 3864 cabe 5831 52bd 88fa 313f
000000f0: 462a 1b3f 218e 0c3e 3e68 2f3f 9b81 72bd
00000100: e9b8 113f 39de 32bf 3056 6a3e d90a 053f
00000110: 4c00 aa3e e132 8f3e 037b 5e3e 6e32 233e
00000120: 4347 843c 0f1d 4a3e f011 383f 4b9c 21bf
00000130: e368 993d 8508 0dbe 48dd 4e3d 197c cb3e
00000140: f974 21bd b647 8abd 23ee 49be 8649 5e3f
00000150: 70bd e83f 8e60 dabc 3400 323e b817 c7be
00000160: e1f3 bdbd e662 d03e 6895 5ebf 406e d93c
00000170: bb3e a4bd 2fdb 083e 05dd c73e 73b0 5d3e
00000180: 0e8f 123e dfae 81bd 722f 4d3f b28d 04c0
00000190: a6fe 1b3e dc39 1bbe 69ca 953d 6b2f 173f
000001a0: f39a dc3e 1b01 5f3e 4d08 4abe 771e 16be
000001b0: 003c 613d 9dd0 113d 8219 9e3f ceac 9ebd
000001c0: b5a3 0a3f 9359 0bbe 8509 13bf 39ba 173f
000001d0: dc76 1ebd a5f4 1b3f ee46 033e 5dcf 093f
000001e0: 76c6 433f 9daf 383e b340 a93e cc4c 76be
000001f0: 26a7 02bf 2967 893f 3024 1c3e d22a 763e
00000200: f5f8 ccbe effd 06c0 9dc3 9d3e 5b56 19be
00000210: ba0a 323e c0ac f5be 6cad 3cbf 5b3a 9d3d
00000220: 5e33 873e 0e79 083f 525c b53d f83e 843e
00000230: a2e6 a5bf e329 37be 63d2 7fbe daf6 90bf
00000240: 0ab5 113f 06dc 9abd 4cb8 b93d 2c10 bcbe
00000250: 5241 76be 4e69 283f 741d 8bbd 54c7 093e
00000260: dab3 333f 215f 09be 46cc 01bf f12b 783f
00000270: 20de 3b3e 72c9 6fbe 3840 543f b9e6 36bf
00000280: 79f7 fc3e 207b b3bc ec0d 03be 73ae 2c3f
00000290: 4892 25bc 59eb 99be c669 4b3c 44b1 c3be
000002a0: 014e 473e c2ef b43e 5972 bc3e c001 2f3d
000002b0: ced2 35be 8931 773e 0a55 8bbe 245e 003f
000002c0: 8064 f13b 2791 f03e 3390 193f ff7d 353f
000002d0: 949f b9bf 6546 8f3e 2878 f13d 13e3 2e3e
000002e0: adf9 8c3f 130b bdbf 0093 663e 0c3b aabe
000002f0: a438 a33e f7a6 473f 2e76 a0bd b4f0 46be
00000300: 9e69 4dbf 92f1 1a3f 32af 7b3f 7a40 adbf
00000310: d59f d6bc 5ee6 aebe 4bb9 62be 9da9 0b3f
00000320: 9c48 43bf 7428 a33d 04b0 00bc 0a38 573f
00000330: c33c 833e ba97 d33e d288 0ebe f5a6 12be
00000340: 8b94 063f dafc 463f fcb7 c4bf bc91 0abe
00000350: aa12 01be 4ce7 4cbe a38e 5f3f 68be 66bf
00000360: 4e97 553e 4fd1 633d 21ec 373f 7f22 0c3f
00000370: 4905 643e ad78 16be c578 ff3d f80c 303e
00000380: 8cd1 383f f37f 183f e3d8 35bd 6073 e73d
00000390: 0289 6dbe ba55 0c3d 1a5d ba3f b6d5 3e3e
000003a0: ff5a 183f 7e62 15bf 3d29 573d f8d8 933e
000003b0: 887b 523d 896e 833e bcd1 113d 7037 2d3e
000003c0: 0d98 723f 521c b03e 0cde 3c3f 08b7 563e
000003d0: 2589 3d3f d03f 42bf 180e c33d c33f a03e
000003e0: 6b08 703f a644 303f 58a9 af3e 9495 52be
000003f0: 110c 143e 1dc8 8f3e 1e0e 3c3f cc49 0fbe
-1.7951345 0.31666335 -1.084156 -0.21602803 0.34636799 -0.72472954 0.07844511 -1.1509464
-0.40500227 0.51469535 0.09307928 0.13973805 -0.8103606 -0.26368088 0.37826133 -2.6667993
0.07117713 -0.0065288274 0.005600244 0.45870504 0.0707164 0.18871489 -1.076069 1.1104289
0.4552999 -0.8875267 -0.2088556 -1.1224335 0.7845975 0.65355194 0.6746396 -0.08008942
0.48739746 -0.18780185 -0.27989027 0.58078563 0.15872332 0.5107802 0.6297144 -0.95210403
0.23571314 0.041484147 0.40402466 0.6140611 -0.22344765 0.36548027 0.111449026 0.7897027
0.12513077 0.5509133 -0.6711593 0.20941311 -0.29612583 0.21145552 0.11998962 0.3032075
-0.2462387 -0.39529586 -0.05131659 0.69522905 0.6061138 0.13726093 0.68518436 -0.059205633
0.56922776 -0.69870335 0.2288444 0.5196968 0.33203351 0.27968505 0.21726613 0.15937206
0.016147261 0.19737647 0.7190237 -0.6312911 0.07490709 -0.13772781 0.050504 0.39743116
-0.039418194 -0.06751959 -0.19719748 0.8683094 1.8182812 -0.026657369 0.1738289 -0.38885283
-0.09275032 0.40700454 -0.86946726 0.02654183 -0.080197774 0.13364862 0.39035812 0.21649341
0.14312384 -0.06332182 0.8015052 -2.0711484 0.1523386 -0.1515879 0.07313997 0.5905673
0.43086967 0.21777765 -0.19729729 -0.14660059 0.05498886 0.03559934 1.2351534 -0.07747804
0.5415605 -0.13608389 -0.574364 0.5926853 -0.038687572 0.6092017 0.12820026 0.53832036
0.764747 0.18035741 0.33057174 -0.24052733 -0.510363 1.0734607 0.1524818 0.24039772
-0.4003369 -2.1092489 0.30813304 -0.14974348 0.17386904 -0.4798336 -0.7370212 0.07677146
0.26406378 0.53309715 0.08855499 0.2582929 -1.2961009 -0.17887072 -0.249826 -1.1325333
0.5691687 -0.075614974 0.09068355 -0.36731088 -0.24048355 0.6578568 -0.06792727 0.13454944
0.70196307 -0.13415195 -0.5070232 0.9694205 0.18346453 -0.23416689 0.8291049 -0.71445805
0.49407557 -0.021909297 -0.1279828 0.6745369 -0.010105677 -0.3006237 0.012415355 -0.3822118
0.1946335 0.3533917 0.3680599 0.04272628 -0.17756197 0.2413999 -0.27213317 0.5014365
0.007366717 0.46985742 0.59985656 0.7089538 -1.4501824 0.27983394 0.11790496 0.1707881
1.1013695 -1.4769005 0.22517014 -0.33248174 0.3187915 0.77989143 -0.07835041 -0.19427758
-0.80239284 0.6052486 0.983142 -1.3535302 -0.02619926 -0.3416013 -0.22140996 0.54555684
-0.7628267 0.079667 -0.007854465 0.84069884 0.25632295 0.41326696 -0.1391938 -0.14321502
0.5257041 0.7772957 -1.5368648 -0.13532156 -0.12604776 -0.20010108 0.8732702 -0.90134287
0.208585 0.055619534 0.7184468 0.54740137 0.22267641 -0.14694472 0.12474207 0.17192447
0.72194743 0.59570235 -0.044396292 0.11301303 -0.23196796 0.034261443 1.4559662 0.18636212
0.5951385 -0.5835341 0.052529562 0.28876472 0.05138734 0.2567027 0.03560041 0.16915679
0.9476326 0.34396607 0.73776317 0.20968258 0.7403739 -0.7587862 0.095241725 0.31298646
0.93762845 0.6885475 0.34308887 -0.20564872 0.14457728 0.28082362 0.7345904 -0.13992995

fc2.bias f4 [20]
00000000: e53b d53d 14bc 0d3e a2a7 783f 2ddc 8dbe
00000010: ecbe 68bf 8ea2 4abe b350 9e3e 73ac 823d
00000020: 9681 9bbe 2197 eabe 18ed 683f e35c 573f
00000030: c821 04bf 9ad4 4fbe 7487 b5be 8308 573e
00000040: 04b1 15bf 5a67 71bd 9e1d 8c3f dd02 543f
0.104118146 0.13841277 0.9713079 -0.27707043 -0.90916324 -0.19788572 0.30920944 0.06380548
-0.30372304 -0.45818427 0.90986776 0.8412611 -0.51614046 -0.20295945 -0.35454905 0.2099934
-0.5847323 -0.058936454 1.0946538 0.8281687

fc3.weight f4 [10, 20]
00000000: 8dd0 0041 65bd 7340 8de1 0dbf febd cd40
00000010: 5f03 a63f 5faf f43e e412 1f3e 9a20 d43d
00000020: 490f 803f 4ecd 643f d029 3ebf d86e 613b
00000030: ba3c 873f faa9 2340 7a6a 9840 4e6f b1be
00000040: e96a 073e cf4f b4bc aa78 2fbe a5cb fdbe
00000050: f4f5 ba3f 2d38 d63f 5446 31bf 9071 af3f
00000060: 2b79 353f ae92 6bbf 9428 53bf f248 d7be
00000070: f1aa 7f3e e7f3 5d3f 4f3a 18bf badf 2abf
00000080: bceb 00c0 fbc0 a3bf 129e cdbf 45cd 9fbe
00000090: 68c6 1f3f 6d08 d0bd aa63 e4bf 8f46 f2be
000000a0: 9389 283f 7deb 8fbf d462 2abf e85a e13f
000000b0: d0d9 873e 2c1d c6bf 037d 91be e466 28be
000000c0: 8fa0 5dbf 8a57 40bd 322c 993e 34bf ce3e
000000d0: e7c8 0fc0 4e63 71bf 8c64 afbf 84ef bfbb
000000e0: ae47 ba3e 2e76 d43c 9ba1 16c0 09c6 97be
000000f0: 87d2 0240 6d5f 743f ebaa 72bf e2ef 763f
00000100: 87b9 193f d71a 17bf bc1c c83e b2af 5bbf
00000110: b42e 75bf 705f 893f abbc 69bf eafd babe
00000120: daff 3bbf a3d1 283d 7139 27be 27d4 14bf
00000130: 08aa 373f 43ba 48be ef43 2cbf 7ce8 b0be
00000140: 9dad 0b40 a7d8 fc3e 5ea1 85bf 7791 7b3f
00000150: b74c 98bd ecef 6abd 06d6 c03d 042a f43e
00000160: 367f 10be 512a e13e 8385 41bf 103f 5d3f
00000170: 11f1 c3bf 9680 423f 7219 fa3f d677 58be
00000180: 5e62 98be 96b1 003e a5da 8d3e a246 7f3f
00000190: bc70 7d3f 5133 c7bf f62b 1abf c002 753f
000001a0: feaf 113f 50f4 11c0 4ba3 1cbf d585 0dbf
000001b0: 91c2 99bf aee2 8c3f 1775 55bf d381 f3be
000001c0: 6f1e debf c56d b9bf 3416 cebf c150 23bf
000001d0: 5afe 013f 3370 003e b7e9 03c0 75f4 06bf
000001e0: 80ee ca3f 2fd9 e13e 9588 8cbf 4117 a03f
000001f0: d934 ae3e 74c0 f6bf 043a 86bf f51b dcbd
00000200: 44ba 86bf ed7d 363f 0ec9 a1bf a966 b43d
00000210: 8e8b e0be 5566 cfbf 9e77 ddbf aa64 83bb
00000220: 5a72 69bd 7b54 80bb 2084 98bf 8384 2e3e
00000230: 5a12 f0bf 5080 1d40 cb4d 6f3f b449 16c0
00000240: c64a 76bf d04d b73b f870 4fbf ff62 893e
00000250: eb77 7d3f ab86 05c0 9b2d 923d 9a8a 12be
00000260: 954f 993f 0ab6 0bbf 66f2 65be 9d5f 193f
00000270: 22d1 44bf 9e5a 513e e7f3 a5be 175e 623e
00000280: 065b 72c0 d198 34c0 c53f ed3e 88af f6be
00000290: 4d1d f4be a40e 6e3f 414d b83f e907 88be
000002a0: 363b fabe ffc3 be3e f629 3b3f 4ead c23e
000002b0: 2a30 9f3f 1aab e83f 8cbf 4740 126f ffbd
000002c0: cc14 7bbe 5f65 ea3b a693 9fbf 01c7 263f
000002d0: ac54 dc3e 7500 f5bf 64e7 f5be 1597 6f3f
000002e0: 2d35 1d3f b798 73c0 2c4b efbe 81af 7fbf
000002f0: 903d 0cc0 e783 d83e 036d 31bf e8ee 0cbf
00000300: 407b ffbf e72e 52bf 838a debf 2fa9 35bf
00000310: a0a1 643f d951 313e 6ade 11c0 c677 a4be
8.050916 3.8084347 -0.5542229 6.4294424 1.2969779 0.47790048 0.1553455 0.10357781
1.0004665 0.8937577 -0.7428255 0.0034398343 1.0565407 2.5572495 4.7629976 -0.3465523
0.13224377 -0.022010712 -0.17135873 -0.4956943 1.4606309 1.6735893 -0.6924794 1.3706532
0.7088801 -0.9202069 -0.8248379 -0.4204784 0.24967553 0.8670029 -0.5946397 -0.6674763
-2.014388 -1.2793268 -1.6063864 -0.31211296 0.6241212 -0.10157857 -1.7842915 -0.47319457
0.6583492 -1.124374 -0.6655705 1.7605867 0.26533365 -1.5477653 -0.2841569 -0.164455
-0.8657312 -0.046958484 0.2991653 0.4038025 -2.246637 -0.9429215 -1.370256 -0.00585741
0.36382812 0.025935259 -2.3536136 -0.29643276 2.0440996 0.9545811 -0.9479205 0.9645978
0.6004872 -0.5902533 0.39084423 -0.85814965 -0.9577439 1.073225 -0.9130351 -0.36521846
-0.73437274 0.04121555 -0.16330506 -0.5813622 0.7174382 -0.19602303 -0.6729116 -0.34552372
2.1824715 0.49384043 -1.043987 0.98268837 -0.07436507 -0.057357714 0.09415822 0.47688305
-0.14111027 0.43977597 -0.7559435 0.8642435 -1.5307943 0.75977457 1.9539015 -0.21139464
-0.29762548 0.12567744 0.27705875 0.9971715 0.99000144 -1.5562536 -0.6022333 0.9570732
0.5690917 -2.2805367 -0.61186665 -0.55282336 -1.2012502 1.1006677 -0.8338179 -0.47559986
-1.7353038 -1.4486624 -1.6100526 -0.63795096 0.50778735 0.125428 -2.0611398 -0.5271676
1.5854034 0.4411101 -1.0979182 1.2507097 0.34024695 -1.9277482 -1.0486455 -0.1074752
-1.0525594 0.712859 -1.2639482 0.08808643 -0.43856472 -1.6203104 -1.7302129 -0.004009803
-0.05699382 -0.003916321 -1.1915321 0.17042737 -1.87556 2.4609566 0.9347808 -2.3482485
-0.96207845 0.005593993 -0.8103175 0.2683334 0.99011105 -2.0863445 0.07137605 -0.14310685
1.1977412 -0.54574645 -0.22455749 0.5991152 -0.7688161 0.20444724 -0.32412645 0.22106205
-3.7868056 -2.8218272 0.46337715 -0.48180795 -0.47678605 0.9299109 1.4398576 -0.26568535
-0.488733 0.37258908 0.731109 0.38022846 1.2436574 1.8177216 3.121066 -0.12472357
-0.24519652 0.0071531977 -1.2466934 0.65147406 0.4303335 -1.9140764 -0.480281 0.9358991
0.61409265 -3.806196 -0.4673704 -0.9987717 -2.1912575 0.42288134 -0.69306964 -0.5505204
-1.9959488 -0.8210282 -1.738602 -0.7096128 0.8930912 0.17316379 -2.2792 -0.3212263

fc3.bias f4 [10]
00000000: 337b 89bf b10f 58bf 812c 2e3f 0102 18bf
00000010: 2850 653e af9a 50bf fbf8 85bf 0916 33be
00000020: d506 ad3f 0630 f7be
-1.0740722 -0.84398943 0.6803666 -0.5937806 0.22393858 -0.8148603 -1.0466608 -0.17488874
1.351771 -0.48278826

fc4.weight f4 [3, 10]
00000000: d627 a5bf 8aa9 20c0 bbbf 28c0 9842 17c0
00000010: 8bf0 b4c0 e0c7 86c0 9a73 a9c0 451c 3440
00000020: ddc7 5340 6b9d 80c0 9f7e 9d3e 11c0 45c0
00000030: 51f3 cabf 8517 b3c0 e8dd bac0 b6ad 75c0
00000040: 2c88 98c0 827e 3140 f5d3 943f bb9a 35c0
00000050: ee73 6fc0 beb0 74c0 4f31 eebf 14d4 bcbf
00000060: bf20 3ec0 bdf8 7ec0 8161 68c0 8e20 b23f
00000070: 258e b040 2000 8fc0
-1.2902782 -2.5103478 -2.6367023 -2.3634396 -5.654363 -4.211899 -5.2953615 2.8142254
3.3090737 -4.019216 0.30760667 -3.0898478 -1.5855504 -5.596621 -5.839588 -3.8387275
-4.7666225 2.7733464 1.1627184 -2.837569 -3.7414508 -3.8232875 -1.8608798 -1.4752221
-2.9707487 -3.9839318 -3.6309512 1.3916185 5.5173516 -4.4687653

fc4.bias f4 [3]
00000000: 6089 15bf 9bb6 ce3d 8129 cdbf
-0.5841274 0.10093423 -1.6028291

exp_avg f4 [15, 8]
00000000: 1812 1f3d 4575 193d 6631 0b3d 1812 1fbd
00000010: 4575 19bd 6631 0bbd 0c4f 58bd 0c4f 583d
00000020: 515e d2ba 1f85 97ba 7ac9 1fbb 515e d23a
00000030: 1f85 973a 7ac9 1f3b 9ec3 513a 9ec3 51ba
00000040: 94da 5f3c 6a15 153c bec2 fe3b 94da 5fbc
00000050: 6a15 15bc bec2 febb 0afa acbc 0afa ac3c
00000060: 0400 0000 0400 0000 0000 0000 0400 0080
00000070: 0400 0080 0000 0000 0400 0080 0400 0000
00000080: 557a 16bc 4d92 82bc 5ad8 8abc 557a 163c
00000090: 4d92 823c 5ad8 8a3c e34d aabb e34d aa3b
000000a0: f0bc 97bc c9cc 0ebc 617d 5abc f0bc 973c
000000b0: c9cc 0e3c 617d 5a3c a290 033c a290 03bc
000000c0: 0000 0000 0000 0000 0000 0000 0000 0000
000000d0: 0000 0000 0000 0000 0000 0000 0000 0000
000000e0: c8c7 803b 17b3 fe3b d2f8 b13b c8c7 80bb
000000f0: 17b3 febb d2f8 b1bb 4147 16ba 4147 163a
00000100: c0bc 90bb c440 8cbb f4e5 29bb c0bc 903b
00000110: c440 8c3b f4e5 293b d11f 073b d11f 07bb
00000120: 9614 aebd 32cc a9bd 9717 b0bd 9614 ae3d
00000130: 32cc a93d 9717 b03d 917a 623d 917a 62bd
00000140: 6983 d7bb b319 bbbb 1255 8fbb 6983 d73b
00000150: b319 bb3b 1255 8f3b 1deb ecb9 1deb ec39
00000160: 0000 0000 0000 0000 0000 0000 0000 0000
00000170: 0000 0000 0000 0000 0000 0000 0000 0000
00000180: 90b2 f63b 0465 423c 2d66 453c 90b2 f6bb
00000190: 0465 42bc 2d66 45bc 2cbb 58bb 2cbb 583b
000001a0: 274b 3ebc 8691 47bc 9551 e0bb 274b 3e3c
000001b0: 8691 473c 9551 e03b b37f 073d b37f 07bd
000001c0: ab52 68bc 1de7 afbc 274a a4bc ab52 683c
000001d0: 1de7 af3c 274a a43c 7b0a b1ba 7b0a b13a
0.038835615 0.037465353 0.033982657 -0.038835615 -0.037465353 -0.033982657 -0.05280976 0.05280976
-0.0016049837 -0.0011560059 -0.0024381564 0.0016049837 0.0011560059 0.0024381564 0.00080018665 -0.00080018665
0.013662953 0.009099344 0.00777468 -0.013662953 -0.009099344 -0.00777468 -0.021115322 0.021115322
6e-45 6e-45 0.0 -6e-45 -6e-45 0.0 -6e-45 6e-45
-0.00918444 -0.015938902 -0.016948868 0.00918444 0.015938902 0.016948868 -0.005197273 0.005197273
-0.01852271 -0.008715817 -0.013335557 0.01852271 0.008715817 0.013335557 0.008030089 -0.008030089
0.0 0.0 0.0 0.0 0.0 0.0 0.0 0.0
0.003930066 0.007772814 0.005431273 -0.003930066 -0.007772814 -0.005431273 -0.00057326636 0.00057326636
-0.004417032 -0.0042801816 -0.0025924416 0.004417032 0.0042801816 0.0025924416 0.002061833 -0.002061833
-0.0850002 -0.082909 -0.085982494 0.0850002 0.082909 0.085982494 0.05529267 -0.05529267
-0.0065769446 -0.0057098507 -0.004374155 0.0065769446 0.0057098507 0.004374155 -0.000451886 0.000451886
0.0 0.0 0.0 0.0 0.0 0.0 0.0 0.0
0.0075286105 0.011864904 0.012048286 -0.0075286105 -0.011864904 -0.012048286 -0.0033070548 0.0033070548
-0.011614597 -0.012180692 -0.006845663 0.011614597 0.012180692 0.006845663 0.033080768 -0.033080768
-0.014179866 -0.021472508 -0.02005489 0.014179866 0.021472508 0.02005489 -0.0013507152 0.0013507152

exp_avg_sq f4 [15, 8]
00000000: 15d3 ac3c d7da b03c 58bf a83c 15d3 ac3c
00000010: d7da b03c 84bf a83c f1f8 713c f1f8 713c
00000020: 6641 4139 222d 4639 c5ed 3b39 6641 4139
00000030: 222d 4639 c5ed 3b39 e774 2839 e774 2839
00000040: a95d 223b 755f 193b 4add 3c3b a95d 223b
00000050: 755f 193b f2dc 3c3b fee9 853b fee9 853b
00000060: fc79 030d fc79 030d 0000 0000 fc79 030d
00000070: fc79 030d 0000 0000 ca11 360c ca11 360c
00000080: 323e 373c 9ec2 2a3c 8fae 3f3c 323e 373c
00000090: 9ec2 2a3c 89ac 3f3c 4345 1e3c 4345 1e3c
000000a0: 192b 4c3d 6296 3e3d 5475 523d 192b 4c3d
000000b0: 6296 3e3d 7974 523d 8481 943c 8481 943c
000000c0: 0000 0000 0000 0000 0000 0000 0000 0000
000000d0: 0000 0000 0000 0000 0000 0000 0000 0000
000000e0: de4b 273b 7b19 1e3b ad88 2e3b de4b 273b
000000f0: 7b19 1e3b 2287 2e3b 1031 a73a 1031 a73a
00000100: b320 c53b 7236 c83b d9b5 c03b b320 c53b
00000110: 7236 c83b d9b5 c03b 7c87 8c3b 7c87 8c3b
00000120: 1bdd a93c 03fd a73c 047a aa3c 1bdd a93c
00000130: 03fd a73c 047a aa3c 273c 1c3c 273c 1c3c
00000140: cbf6 853b d85f 853b 142d 843b cbf6 853b
00000150: d85f 853b 912c 843b 55bb eb3a 55bb eb3a
00000160: 0000 0000 0000 0000 0000 0000 0000 0000
00000170: 0000 0000 0000 0000 0000 0000 0000 0000
00000180: 2738 aa3b fb69 a13b 83ce b23b 2738 aa3b
00000190: fb69 a13b 3acd b23b f716 143b f716 143b
000001a0: 4990 4d3c 1934 4d3c 1a2d 4d3c 4990 4d3c
000001b0: 1934 4d3c 9f2c 4d3c ea63 be3b ea63 be3b
000001c0: 168d 1e3c abc6 123c 3a4c 253c 168d 1e3c
000001d0: abc6 123c 3a4c 253c 397c 283c 397c 283c
0.021096746 0.021588726 0.020599052 0.021096746 0.021588726 0.020599134 0.014768825 0.014768825
0.00018430277 0.00018899565 0.00017922286 0.00018430277 0.00018899565 0.00017922286 0.00016065278 0.00016065278
0.0024775064 0.0023402844 0.0028818422 0.0024775064 0.0023402844 0.0028818217 0.004086732 0.004086732
4.0514325e-31 4.0514325e-31 0.0 4.0514325e-31 4.0514325e-31 0.0 1.4026123e-31 1.4026123e-31
0.011184262 0.010422377 0.011699333 0.011184262 0.010422377 0.01169885 0.009660068 0.009660068
0.04984579 0.046530135 0.051381424 0.04984579 0.046530135 0.05138061 0.018128164 0.018128164
0.0 0.0 0.0 0.0 0.0 0.0 0.0 0.0
0.0025527398 0.0024124074 0.0026631758 0.0025527398 0.0024124074 0.0026630838 0.0012755711 0.0012755711
0.006015861 0.006110006 0.005881053 0.006015861 0.006110006 0.005881053 0.004288612 0.004288612
0.020735314 0.020506388 0.020810135 0.020735314 0.020506388 0.020810135 0.009535826 0.009535826
0.004088258 0.0040702634 0.004033694 0.004088258 0.0040702634 0.004033633 0.0017984906 0.0017984906
0.0 0.0 0.0 0.0 0.0 0.0 0.0 0.0
0.005194682 0.004925964 0.005456747 0.005194682 0.004925964 0.005456594 0.0022596696 0.0022596696
0.012546607 0.012524628 0.01252296 0.012546607 0.012524628 0.0125228455 0.0058102505 0.0058102505
0.009677192 0.008958499 0.010088975 0.009677192 0.008958499 0.010088975 0.010283523 0.010283523

exp_avg f4 [15]
00000000: 21d5 003d 73cb 51ba d53a bb3b 0400 0000
00000010: 2286 debc 012f e4bc 0000 0000 173f 343c
00000020: 0e88 57bc 6a1d acbd bf7e eeba 0000 0000
00000030: 0434 8b3c 4b66 6ebc b500 f3bc
0.031453256 -0.00080030336 0.0057138004 6e-45 -0.027163569 -0.027854444 0.0 0.01100137
-0.013154997 -0.08404048 -0.0018195732 0.0 0.016992576 -0.014550756 -0.029663423

exp_avg_sq f4 [15]
00000000: 6a6b 1c3d 3b8a ad39 1d66 fe3b fc79 030d
00000010: 60bc bf3c 3db1 743d 0000 0000 71aa 593b
00000020: 0ac5 253c 25aa c53c 4bbe 9a3b 0000 0000
00000030: 17ef de3b 802b 603c 3299 cf3c
0.038188376 0.0003310012 0.0077636377 4.0514325e-31 0.023405254 0.05973934 0.0 0.0033213163
0.010117779 0.024128983 0.0047223917 0.0 0.006803404 0.013682246 0.025341604

exp_avg f4 [20, 15]
00000000: 2382 09b9 06cb b2b8 d291 aa3a 0400 0000
00000010: cbf3 5c3a dddd 11bb 0000 0000 0400 0000
00000020: 5043 8f36 3be1 f0ba 64ca e4ba 0000 0000
00000030: 1926 2eb9 41bd 32ba 6c70 f839 9a68 1c39
00000040: 938e 2138 f299 a13a 0000 0000 e493 303b
00000050: 8b6e afbb 0000 0000 ce14 d0b9 0e37 0938
00000060: 75c1 08bc fd5e 6bbb 0000 0000 b42d d834
00000070: b23f 4f3a b17a 273b 0c1c 62bb 9866 d5ba
00000080: d6c3 93bc 0400 0080 400a 26bc ea19 3ebc
00000090: 0000 0000 464e 043b 889d fe3b 01fb a1bc
000000a0: 1835 e9bc 0000 0000 9fc8 753a bfc8 c13b
000000b0: 83ea 7dbc b4f2 93bb 486c 0c3b 828d e83c
000000c0: 0400 0000 1a87 833c 5cd3 823c 0000 0000
000000d0: 4c5d aabb 0cad a4bc bd38 fe3c b719 243d
000000e0: 0000 0000 e996 ebbb 0b1d a7bc 01ca b83c
000000f0: 68a9 163c 0666 a13a eefb a93c 0400 0000
00000100: 50fc 653c 62de d53b 0000 0000 6ee4 06b9
00000110: 3267 a6bb 7b39 243c 2316 d53c 0000 0000
00000120: 017d f53a c6cc dfba 642c a03c 32a0 bcbd
00000130: 6820 b0bb 52f0 f4bd 0000 0000 4430 9dbd
00000140: af57 11bd 0000 0000 8579 6ebc 1525 89ba
00000150: 1b53 1abd 62e3 08be 0000 0000 54ae dcbc
00000160: f99f ecbc 6573 dcbd 99b4 353c 4e18 8f39
00000170: b235 0f3c 0400 0000 bda4 0b3c b848 9e3a
00000180: 0000 0000 1fc0 623b faf3 993a d70d e53a
00000190: 0d80 013c 0000 0000 1636 9c3b 7962 c53b
000001a0: 1aba 3a3c 8156 a8bc 9a4b 87ba 0c41 c5bc
000001b0: 0000 0000 a934 8ebc 048e b1bb 0000 0000
000001c0: 6b88 85bb b500 54ba 5973 e6bb d34e debc
000001d0: 0000 0000 f70b f6bb b7b3 09bc da65 c7bc
000001e0: cc44 c2bc 7ca5 de39 bd63 b0bb 0000 0000
000001f0: 2268 98bb 004a 9d3a 0000 0000 857a 2abc
00000200: 5055 16bb b1ff 333b 39d7 8cbb 0000 0000
00000210: 279d 62bc d98c 3bbc e9c3 a3bb 20f9 473b
00000220: 4417 9c3a 7fcd 3a3c 0400 0000 3a5b 0c3c
00000230: 100f 5b3b 0000 0000 7397 a0ba 158d e3ba
00000240: 5ff6 1f3c 53fd 853c 0000 0000 a8de 0a3a
00000250: be18 f039 292a 543c 554e f0bb f297 03bb
00000260: f585 d5bc 0400 0080 31af 8bbc 7c2e 18bc
00000270: 0000 0000 aa71 363b 1898 b53b d0dc 8fbc
00000280: 4296 0fbd 0000 0000 0e4b 8538 acbe fc3a
00000290: 42c9 cdbc 6933 3dbc 8122 5cba a18f 95bc
000002a0: 0400 0000 3111 68bc a7af f0ba 0000 0000
000002b0: 1fb6 55ba 9989 03bb 3ac2 0cbb d33f 9ebc
000002c0: 0000 0000 9cad 81bb bf69 bebb 8c97 a1bc
000002d0: 9e66 40bd 7ffe 65bb c51c 89bd 0400 0080
000002e0: 1f35 2cbd ddcb c1bc 0000 0000 1a72 cabb
000002f0: 070f 50b9 6ea3 d6bc f754 9ebd 0000 0000
00000300: b5b3 50bc c69c 49bc 7350 73bd 9c17 553b
00000310: 5547 0339 4911 d93b 0400 0000 2284 933b
00000320: f4f4 a63a 0000 0000 62e1 9f39 bf3e 99bb
00000330: c0c9 053b 4574 ed3b 0000 0000 00a0 19b9
00000340: 885f dbba 631c c43b a02d 51bb eed5 3139
00000350: e533 ecb9 0400 0080 56cc 20bb 9da5 b63b
00000360: 0000 0000 7c88 86ba d8b6 67bb f5a0 fb3b
00000370: f81c 3b3b 0000 0000 dfa8 11bb 18d5 84bb
00000380: 5fa7 28bb e418 25bc db69 70ba 6954 85bc
00000390: 0400 0000 a194 2dbc dc5f c9bb 0000 0000
000003a0: 5139 93ba 8e50 513b 70ee 1cbc 6d9f aebc
000003b0: 0000 0000 e286 39bb f2d0 97ba 1e03 7bbc
000003c0: a886 8b3c 3aed 963a bd78 c93c 0400 0000
000003d0: 561d 883c 7ef5 023c 0000 0000 3ad4 253b
000003e0: 3860 02bb 5c20 243c f2fe f53c 0000 0000
000003f0: 8b8c ba3b 0e65 7f3b 24a9 bf3c 0400 0000
-0.00013113818 -8.5255175e-05 0.0013013429 6e-45 0.0008428662 -0.0022257485 0.0 6e-45
4.2695683e-06 -0.0018377671 -0.0017455337 0.0 -0.00016608126 -0.0006818362 0.00047386007 0.00014916286
3.8518174e-05 0.0012329204 0.0 0.0026943618 -0.005353754 0.0 -0.00039688352 3.271462e-05
-0.008346905 -0.0035914772 0.0 4.026639e-07 0.00079059147 0.0025555308 -0.003450158 -0.0016281186
-0.018037718 -6e-45 -0.01013428 -0.011602858 0.0 0.0020188256 0.007770244 -0.019773008
-0.0284677 0.0 0.0009375903 0.0059138234 -0.0154978065 -0.0045150165 0.0021426845 0.028387789
6e-45 0.016055632 0.015969925 0.0 -0.00519911 -0.020102046 0.031032914 0.040063586
0.0 -0.0071896208 -0.020399591 0.02255726 0.009195663 0.001231373 0.020750012 6e-45
0.014037207 0.0065267542 0.0 -0.00012864333 -0.00507822 0.01002347 0.026011532 0.0
0.0018729271 -0.0017074577 0.019552417 -0.09210242 -0.005374957 -0.119599 0.0 -0.076752216
-0.035484012 0.0 -0.01455534 -0.0010463322 -0.03767691 -0.1336799 0.0 -0.026938595
-0.028884875 -0.10764197 0.011090421 0.00027293194 0.008740829 6e-45 0.008523163 0.0012076115
0.0 0.0034599376 0.0011745684 0.0017475438 0.007904065 0.0 0.0047671897 0.0060237017
0.011396909 -0.02054906 -0.0010322214 -0.024078868 0.0 -0.017359095 -0.005418541 0.0
-0.0040751 -0.00080872636 -0.0070327935 -0.027137196 0.0 -0.0075087505 -0.008404664 -0.024340559
-0.023714446 0.00042466435 -0.0053829835 0.0 -0.0046510855 0.0012000203 0.0 -0.0104051875
-0.0022939034 0.0027465636 -0.0042981175 0.0 -0.013831413 -0.011447155 -0.0049977195 0.003051348
0.0011908789 0.011401533 6e-45 0.008566672 0.0033425726 0.0 -0.0012252167 -0.0017360771
0.009763329 0.016356146 0.0 0.00052974606 0.00045794802 0.012949505 -0.0073335567 -0.002007958
-0.026064852 -6e-45 -0.017051311 -0.0092884265 0.0 0.0027838745 0.0055418126 -0.017561346
-0.035055406 0.0 6.355914e-05 0.0019282899 -0.025120381 -0.011547902 -0.00083974755 -0.018256964
6e-45 -0.014164255 -0.0018362895 0.0 -0.00081524433 -0.0020071028 -0.0021478073 -0.019317543
0.0 -0.0039574634 -0.0058109458 -0.019725583 -0.046972863 -0.0035094318 -0.066949405 -6e-45
-0.042042848 -0.02365678 0.0 -0.0061781527 -0.00019842024 -0.026200976 -0.077310495 0.0
-0.012738158 -0.012305444 -0.059402894 0.0032515293 0.00012519707 0.006624375 6e-45 0.0045018354
0.0012737797 0.0 0.00030494767 -0.0046766694 0.0020414442 0.0072465264 0.0 -0.00014650822
-0.0016736845 0.0059848293 -0.0031918064 0.0001695973 -0.00045052092 -6e-45 -0.0024535856 0.005573942
0.0 -0.0010264064 -0.0035356786 0.0076790997 0.0028551202 0.0 -0.00222259 -0.004053723
-0.0025734527 -0.010076735 -0.0009171047 -0.016275601 6e-45 -0.010594518 -0.0061454605 0.0
-0.0011232292 0.0031938883 -0.009578332 -0.021316255 0.0 -0.0028309156 -0.0011582656 -0.015320567
0.017031983 0.0011514791 0.024593705 6e-45 0.016615551 0.0079931 0.0 0.00253035
-0.0019893777 0.010017481 0.030028794 0.0 0.0056930236 0.0038970145 0.023396082 6e-45

exp_avg_sq f4 [20, 15]
00000000: 055f 3a34 8f05 a936 4eb8 1839 31b5 cc07
00000010: 9ab0 1239 ba96 723b 0000 0000 23d8 a929
00000020: 0a44 5838 e680 093c 7e39 693b 0000 0000
00000030: c380 6d35 c8c5 ff38 91f0 173a ef4b 7638
00000040: d153 3f35 ab6a f637 0000 0000 8fca b738
00000050: bf25 053a 0000 0000 bb5f ce36 995c df39
00000060: 6371 933a 4d45 063a 0000 0000 90b9 8a38
00000070: f3d4 e039 6dc7 8b39 3079 3c3d 7859 5d37
00000080: 09a3 133d 1a57 e407 6165 a03c c4ff 173b
00000090: 0000 0000 f1f8 773b 000c a03a 84ed b33a
000000a0: fcc7 233d 0000 0000 8eaf 033c 25b3 433c
000000b0: 5efd 143d 62ca 9a3d 265c ad37 9b8c 643d
000000c0: daf3 3509 a49b eb3c 94c6 9e3b 0000 0000
000000d0: 7876 d03b 8eee 923b 061d bc3a cbd9 813d
000000e0: 0000 0000 67ef 5b3c 4935 a73c e461 5b3d
000000f0: a6bb 723c 142b a736 ee01 433c acfd e207
00000100: 3606 cc3b 516b 353a 0000 0000 c5b3 9b3a
00000110: 77b2 9039 ed51 5939 718d 5a3c 0000 0000
00000120: de7c 233b 50de 653b 7c57 3e3c 2bb0 d93c
00000130: e494 7d38 0c12 233d 0000 0000 f01d 883c
00000140: 03a0 703b 0000 0000 d345 6c3a 7c3e 4f37
00000150: ce77 253b afdf 4e3d 0000 0000 850c 373b
00000160: 1dfa 423b e44d 033d 30a0 ac3c e60b 3836
00000170: 9e82 873c 9c1b 7204 8f1e 1d3c 5a6d 9839
00000180: 0000 0000 75d6 d93a 5b81 5b39 e0f6 e437
00000190: 5168 8e3c 0000 0000 d927 6b3b 08a3 b43b
000001a0: da2b 923c 8cb6 023c 9271 5536 041b e13b
000001b0: 0000 0000 8e13 763b 1f49 aa39 0000 0000
000001c0: 6e34 1d3a 5558 d138 92b4 3d39 9389 fb3b
000001d0: 0000 0000 8c1a ae3a e375 013b 8d2b e73b
000001e0: 6026 1f3d f036 3c37 da53 0c3d 0000 0000
000001f0: 3fd2 943c 3f05 993a 0000 0000 1bb9 393b
00000200: 0ac7 3e39 f413 9e39 e326 1b3d 0000 0000
00000210: 7953 cd3b 1327 103c 4134 0b3d 4cd8 c83c
00000220: e8de 0537 6c80 a43c 98a7 4408 88b6 373c
00000230: dec7 3a3a 0000 0000 8d64 ff3a 8972 7539
00000240: 33ee a639 f919 b33c 0000 0000 3012 893b
00000250: da70 cb3b 2454 ab3c ec13 5f3d a150 9c37
00000260: ea05 393d 2eff cc07 3222 c93c 0c19 0d3b
00000270: 0000 0000 6c13 8c3b 8abb 2f3a cff4 943a
00000280: 370a 4c3d 0000 0000 0729 163c 579b 5c3c
00000290: 354b 3b3d 55b3 693b bb2a cf35 d7a0 443b
000002a0: cd28 7406 128a c93a 0cc4 ef39 0000 0000
000002b0: 8e1b 8b39 74c9 8b39 893e c539 9ea8 743b
000002c0: 0000 0000 24b9 293a d83e 873a 9f6f 3f3b
000002d0: edf9 b03c f973 4537 c5ee 9d3c 30ac 2204
000002e0: 4018 323c 243e 303a 0000 0000 2015 c73a
000002f0: f16a 7139 643f 0b3a b017 ac3c 0000 0000
00000300: 4d1f 613b 4b61 ba3b 4571 a73c 2023 473c
00000310: 552b a536 99af 2a3c a6fc cf04 3d41 c33b
00000320: 6c5f 1a3a 0000 0000 8f89 713a 975b 583a
00000330: 785b 313a c329 3f3c 0000 0000 8b30 0c3b
00000340: 4b01 803b d34b 383c bbb2 043b d7be a035
00000350: c5f6 033b 9075 cb05 0503 8e3a 64d5 4d3a
00000360: 0000 0000 6b0a 0939 c559 103b 817c c53a
00000370: 66c6 4a3b 0000 0000 3ad3 283a 0dc8 153b
00000380: 5a63 0b3b 6880 173c 70af 2e36 b7a8 ea3b
00000390: c73f 0905 a127 853b 40d9 9c39 0000 0000
000003a0: 2b24 493a 6151 4d39 5f17 4939 2ffd fc3b
000003b0: 0000 0000 25a4 d53a b027 233b a9c0 f73b
000003c0: f46d 1f3c c725 5936 037f 003c 7cc3 f906
000003d0: 7194 8a3b 1a4b c839 0000 0000 997c 4c3a
000003e0: 4d76 d338 cdce 2039 1792 0e3c 0000 0000
000003f0: 14cd d73a a0cf 183b 1284 013c d627 8510
1.7357168e-07 5.0372396e-06 0.00014564508 3.0801003e-34 0.00013989434 0.003701611 0.0 7.5426014e-14
5.156178e-05 0.008392548 0.0035587247 0.0 8.8476753e-07 0.00012196187 0.000579604 5.872169e-05
7.1275014e-07 2.9375156e-05 0.0 8.7638495e-05 0.0005079172 0.0 6.150423e-06 0.00042602865
0.0011249002 0.0005122021 0.0 6.6149165e-05 0.0004288327 0.0002666073 0.04601401 1.3193458e-05
0.036044154 3.435682e-34 0.019579591 0.002319322 0.0 0.003783759 0.0012210608 0.0013727401
0.03998564 0.0 0.008037461 0.011944567 0.036374442 0.07558133 2.0666117e-05 0.055798154
2.1901741e-33 0.028760739 0.0048454497 0.0 0.006361779 0.0044840043 0.0014351911 0.06340369
0.0 0.013423777 0.02041115 0.053560153 0.014815247 4.982003e-06 0.011902316 3.4153796e-34
0.0062263263 0.00069205934 0.0 0.0011879137 0.00027598787 0.00020725252 0.013339386 0.0
0.0024946253 0.0035075136 0.011617538 0.026573261 6.0458566e-05 0.039812133 0.0 0.016615838
0.0036716468 0.0 0.000901309 1.235271e-05 0.002524841 0.05050629 0.0 0.0027931046
0.002975113 0.032056704 0.021072477 2.7425062e-06 0.016541775 2.845964e-36 0.009589805 0.00029073172
0.0 0.0016619699 0.00020933656 2.7294678e-05 0.017383726 0.0 0.0035881905 0.005512599
0.017843176 0.007978093 3.180558e-06 0.0068696756 0.0 0.0037548277 0.00032479406 0.0
0.00059968873 9.98235e-05 0.00018091712 0.0076763122 0.0 0.0013283058 0.0019754104 0.007054752
0.038854957 1.1218464e-05 0.034259655 0.0 0.01816666 0.0011674537 0.0 0.0028339091
0.0001819396 0.00030150975 0.037878882 0.0 0.006266054 0.0087983785 0.03398538 0.0245172
7.979317e-06 0.020080768 5.917861e-34 0.011212952 0.00071251194 0.0 0.0019484923 0.00023407688
0.0003183946 0.02186297 0.0 0.0041830763 0.0062085213 0.020914145 0.05446236 1.8634195e-05
0.045171656 3.084449e-34 0.024552438 0.0021529822 0.0 0.004274776 0.0006703666 0.0011364463
0.04981443 0.0 0.009165055 0.01346477 0.04572602 0.0035659869 1.5435138e-06 0.0030003095
4.5921275e-35 0.0015376231 0.000457317 0.0 0.00026532676 0.0002666224 0.0003762136 0.003733195
0.0 0.00064744265 0.0010318412 0.0029210818 0.021603549 1.1769117e-05 0.019278893 1.9122073e-36
0.010870039 0.0006723127 0.0 0.0015188791 0.0002302339 0.0005311875 0.021007389 0.0
0.0034350932 0.0056878678 0.020439753 0.012154371 4.9224277e-06 0.010417842 4.8897487e-36 0.0059587047
0.0005888853 0.0 0.0009213918 0.0008253394 0.0006765644 0.011667672 0.0 0.0021391239
0.003906404 0.011248547 0.0020248133 1.1976471e-06 0.00201361 1.9133214e-35 0.001083464 0.0007851927
0.0 0.00013069219 0.0022026163 0.0015067012 0.0030941009 0.0 0.00064401666 0.0022854835
0.0021268935 0.009246923 2.6030139e-06 0.0071612257 6.453423e-36 0.004063562 0.00029916503 0.0
0.0007672931 0.0001958064 0.0001917756 0.0077206115 0.0 0.0016299529 0.0024895482 0.0075608087
0.009730805 3.235751e-06 0.007842782 9.395063e-35 0.0042291214 0.00038202928 0.0 0.0007800549
0.00010083299 0.00015335828 0.008701823 0.0 0.0016464316 0.0023317114 0.007905023 5.252063e-29

exp_avg f4 [20]
00000000: 3583 62bb ba04 7dbb b0fa a6bb 790e 66bb
00000010: ada9 063b adfb d2bc 4af5 be3a f64b ccbb
00000020: dba4 96bb 9e3b 823b 12ba c0bb 1b4c 4bbb
00000030: b3b7 68bc 340d 7fba 8b4b ca3a 1720 8fbb
00000040: b593 b73b 0400 0000 deb0 f3ba 4f5c c3ba
-0.0034563069 -0.0038607554 -0.0050958022 -0.0035103841 0.0020547912 -0.025754774 0.0014568951 -0.006234641
-0.004597289 0.003974392 -0.0058815563 -0.0031020704 -0.014203954 -0.00097294454 0.001543389 -0.004367839
0.005602325 6e-45 -0.0018592139 -0.001490483

exp_avg_sq f4 [20]
00000000: 66e8 133b faba 1e3a 30f5 623b 28e1 e83b
00000010: 014c 783a 53d1 003b 9f56 9e3a a61e 0a3a
00000020: 28ea 0f3b 11d7 b13a 5204 5a3b dce5 173a
00000030: d306 af3a 55bb ac3a 9d15 ec3a 20ff 1c3a
00000040: ffc7 153a 2216 ae15 0c5b 7c3a f0bb 193a
0.002256894 0.00060550834 0.0034631006 0.007106919 0.00094717747 0.0019656017 0.0012080258 0.0005268849
0.0021959636 0.0013568123 0.0033266735 0.00057944446 0.0013353474 0.0013178388 0.0018011812 0.00059889443
0.00057137007 7.031296e-26 0.0009626604 0.00058644917

exp_avg f4 [10, 20]
00000000: 00f1 70b9 00f3 d1b9 9c5c ccbb 8dd8 30ba
00000010: 2941 eeba c38c 95b7 f7b8 f8b9 ed23 71bb
00000020: 6fda 38bb 6653 900f d61e 84bb 1e17 36bb
00000030: 6850 0835 90d3 e7b9 5e15 94b9 79e2 74bb
00000040: 3854 6fbb 0400 0000 1937 2eba 67fd 0cbb
00000050: 2853 0d31 4d00 3e34 6e96 1dbc d7ff 97bb
00000060: d703 ddbb 14d7 92b7 a191 893a 3b85 0cbc
00000070: 1cca e7bb 08f9 743a 0f6d d1bb 5053 48bb
00000080: b02d b439 3c38 6939 fbb0 3c39 5fb3 20bc
00000090: e00d 1abc 0400 0000 ed0c 5f3a 817f 89ba
000000a0: 2e60 8333 7cd7 47b5 e9db 9b3a 64d6 26bb
000000b0: 5bad 06bb 61b9 b139 30e8 d4ba ec0c e13a
000000c0: e4d4 953b ac1a c4ba 18a1 123a 23b6 50bb
000000d0: 758e b9ba 500c c8ba 57b7 83ba 5ae2 723b
000000e0: 63fa 26bb 0400 0000 c3ee c1ba b076 01bb
000000f0: 0d6c 7139 fe15 7a3b 8117 7cbb 766d 603b
00000100: 58fd e53a b983 f93b 8c75 d539 544b 22ba
00000110: 920d 9d39 6d48 5f3b 0d43 f6b7 77e8 963b
00000120: ed1a 4e3c 4bd7 183c 2acb 193c 43af afba
00000130: 1dbe 5a3b 0400 0000 dbee 2d3c 59bc 333b
00000140: f471 1739 d859 8a3a 8bf3 86bc 9342 46bc
00000150: ec4b 89bc 24b9 f23b b3e6 a8bb 4f57 28bc
00000160: d058 9dbb 2c5a 7eba a9f1 17bc 9d48 0bbc
00000170: 56d3 6ab9 ebb7 c0ba bf0d 5b38 8000 babb
00000180: df2b b7bc 0400 0000 8ac0 eeb8 2b1a 6cbb
00000190: ef55 2bad 12a4 b32f 2db4 44bb 0a97 f13b
000001a0: fa50 4f3b 95c8 893b 6878 93bb 4c88 ad3b
000001b0: 1bb8 8e3a 2d93 c13b df61 8e3b 616e ae3a
000001c0: 2a79 393a ec68 82b8 c4fb c938 1a57 0b3c
000001d0: 848f 913b 0400 0000 9742 bab8 7632 2dbb
000001e0: 6f76 4432 0f3e 5232 dc55 f73b e8da 423c
000001f0: 7318 5c3c 4938 643b 79c6 bf39 8ab2 1a3c
00000200: b2a1 65ba 51dc 953b 6233 e43b 5db9 ed3b
00000210: 8b39 193a 5fed deb7 4bb3 5638 ff00 293c
00000220: 119d 973c 0400 0000 c3fc 66b6 7104 133b
00000230: fb4e 23ba 4ba7 49b9 355f 0dbb 11e6 16bb
00000240: 919b 6ebb 71d9 abbb c97c 613b b578 f4bb
00000250: 329d 8abb 2067 83b8 47e0 fcba cbc9 09bb
00000260: f7e0 7639 2ba4 553a daba b737 3edd 32bc
00000270: 7163 9abb 0400 0080 d587 723a 1a5c 8dba
00000280: 017e 4338 2780 1337 2fc0 3f3a 18ca 85bc
00000290: da2e 41bc b580 43bb ddf8 0b3b 9c14 24bc
000002a0: 9b1b 4e3b 65ad 17bc 0e9a 01bc 2623 ffbb
000002b0: 384a 4eba 0fff ea37 0fde 00b9 c5ba 2fbc
000002c0: d2ca 7ebc 0400 0080 ea0d 9039 7658 033a
000002d0: 3a72 3fac 0fe6 872f 643c 0a3d 69fc 363d
000002e0: b923 543d b1ce 9b3b ff10 c93a 12a3 163d
000002f0: 0746 873a a118 893c 636c da3c f91c ea3c
00000300: f1d5 eb3a d5e3 0c3a 3351 e339 14c6 173d
00000310: 31b2 8e3d 0400 0000 bf72 2f3a c96f 2d3c
-0.00022977963 -0.00040044636 -0.006236626 -0.0006746136 -0.0018177378 -1.7827731e-05 -0.00047440056 -0.0036795095
-0.0028206368 1.423162e-29 -0.0040319962 -0.0027784775 5.0780955e-07 -0.0004421738 -0.0002824468 -0.0037366434
-0.0036518704 6e-45 -0.00066457834 -0.0021513344 2.056547e-09 1.7695238e-07 -0.009618385 -0.004638653
-0.0067448425 -1.750471e-05 0.0010495671 -0.0085766865 -0.007073654 0.000934497 -0.0063911746 -0.0030567236
0.00034366315 0.0002224156 0.00017995008 -0.00980839 -0.009402722 6e-45 0.0008508701 -0.001049027
6.117658e-08 -7.444685e-07 0.00118911 -0.0025457377 -0.0020550105 0.0003389819 -0.0016243514 0.0017169989
0.0045724977 -0.0014961562 0.0005593463 -0.0031846843 -0.0014156835 -0.0015262458 -0.0010049146 0.0037061186
-0.0025478832 6e-45 -0.0014795888 -0.001975458 0.00023023803 0.003816008 -0.0038466158 0.0034244931
0.0017546816 0.0076145795 0.00040714105 -0.00061910343 0.00029955484 0.0034070269 -2.9356708e-05 0.0046053487
0.012579662 0.009328674 0.009386817 -0.0013403672 0.0033377477 6e-45 0.01061603 0.0027425496
0.00014442933 0.001055534 -0.016473552 -0.0121008335 -0.016759835 0.0074073244 -0.0051544546 -0.010274722
-0.004801847 -0.0009702768 -0.009273925 -0.008501199 -0.00022394708 -0.0014703249 5.222647e-05 -0.005676329
-0.022359787 6e-45 -0.000113845876 -0.003602634 -9.739306e-12 3.267649e-10 -0.003001462 0.0073727416
0.003163396 0.0042048194 -0.0045004375 0.005295789 0.0010888608 0.0059074373 0.0043451632 0.0013308042
0.0007075245 -6.218426e-05 9.631322e-05 0.008504653 0.004442157 6e-45 -8.8815745e-05 -0.0026427782
1.143563e-08 1.2237719e-08 0.007548077 0.011893012 0.0134335635 0.0034823588 0.00036578233 0.009441981
-0.0008759751 0.004573383 0.006964133 0.007254763 0.00058450614 -2.6574997e-05 5.1188556e-05 0.010315179
0.018507512 6e-45 -3.4419797e-06 0.0022433067 -0.00062297255 -0.00019231175 -0.002157164 -0.0023025314
-0.0036408643 -0.005244427 0.0034406653 -0.0074606785 -0.004230165 -6.265775e-05 -0.0019292914 -0.002102482
0.00023544194 0.0008149768 2.190231e-05 -0.010917006 -0.0047115614 -6e-45 0.0009251808 -0.0010784895
4.6608973e-05 8.791721e-06 0.00073147094 -0.016331717 -0.011790955 -0.0029831354 0.002135805 -0.010014679
0.003144956 -0.009257649 -0.007910265 -0.0077861724 -0.0007869336 2.8013745e-05 -0.00012289755 -0.010725682
-0.015551286 -6e-45 0.00027476187 0.0005010435 -2.720614e-12 2.4719823e-10 0.033749 0.04467431
0.05179188 0.004754864 0.0015340148 0.03677661 0.0010320552 0.016735377 0.026663011 0.028578268
0.0017992837 0.0005374526 0.00043357312 0.037054136 0.06967581 6e-45 0.0006692819 0.010585734

exp_avg_sq f4 [10, 20]
00000000: c852 0735 cc0f 1637 e05e 073a a3e6 4236
00000010: 4354 d237 dcc4 5739 fde8 8f38 f053 6c39
00000020: 33d5 f438 9122 4922 b7e8 c239 5f40 5039
00000030: 69e6 672f a0f3 a437 d077 bc35 c3cb bf39
00000040: ed8e 2b39 5dad a60e 3113 2039 22ca ef38
00000050: 8081 b42a ee13 a92b f9a6 cc3a a781 623a
00000060: acbc cd3a 7c8b bd34 25ce 5a37 9ce1 bf3a
00000070: 2692 8c39 bc4c 3738 2e7d 283a 477c 173a
00000080: 7e9d 3b37 a9bb bb36 f92e 0336 d8b6 bd3a
00000090: f600 3c3b 8390 8c10 5d7a 0137 0607 0b39
000000a0: be04 b82c dd46 062f 4399 cc3a a275 6c39
000000b0: 3ef9 0d3a ed98 5b36 d08c 6837 004f 8b3a
000000c0: 6b6b 123a 9f83 5b37 f6af 363a 1753 9439
000000d0: 9eee 6037 94f1 1037 5f5c 9f36 a4f0 ad3a
000000e0: c2f4 9c3a df93 b60d dcd6 7637 c743 c138
000000f0: a760 0d37 e373 2739 efe6 213c d9c1 353c
00000100: abbe 8f3c dc07 9139 90ed 8a39 5133 123c
00000110: bacb bf38 5b4b a13a 8c51 8b3b 4578 c53b
00000120: 6c62 203a ff2d bd39 e2ec b439 59e5 f43b
00000130: 234f fb3c 8c46 9c0f 485a ee39 fb7c a53a
00000140: 2205 d834 62c5 4d38 89ab 743c d8d7 323c
00000150: 4672 9b3c 4ba9 8f3a 5688 443a 05a4 393c
00000160: bb19 c539 eefb 743a 3a94 ed3b 058c fd3b
00000170: 0d1f 1c37 7941 0139 e0ad 2237 dee9 2b3c
00000180: d752 0b3d 476a 610e 804e 8e3a 63b3 173b
00000190: 4983 e225 8938 3826 11c2 153c 8dbd 2f3c
000001a0: 907f 863c 1323 b137 9a2e 4139 846c 0e3c
000001b0: 03aa df38 88f3 9f3a 4b37 8a3b c282 b23b
000001c0: c54d f136 9d7c 6636 23cc 7534 f7d6 f63b
000001d0: 092f ea3c 0bb5 9c10 deb7 a136 489c 873a
000001e0: 0480 142a 2f9f 162b dc59 103c 307a 493c
000001f0: a1bd 923c 2da8 c837 e9ef db38 0cf7 173c
00000200: 4311 3838 91c6 df3a 98c2 943b 8f70 ba3b
00000210: dd03 8936 d3de 8b35 39b8 6834 753b 093c
00000220: 35a1 ff3c 7fca a90e c7d0 e335 2122 6e3a
00000230: 1626 5236 cbab 0839 4f8f dd3a 0028 4239
00000240: efea fa39 6d70 9839 2efb 6939 1cb2 5b3a
00000250: fcc8 9739 fb76 1e34 8d21 703a 97b5 253a
00000260: d642 e238 85de 1039 ac16 a238 ffd8 823a
00000270: 8320 a43a 83f9 990b 9310 f239 ff1a af39
00000280: 701c ce34 d727 f335 2261 9f3c cc22 8a3c
00000290: bc21 da3c 3c79 be38 e395 7e39 66aa 903c
000002a0: fc4c 2d3b 4afa f83a bb5f 123c 31fa 113c
000002b0: 4946 d436 9d02 6936 4873 0a35 c4c3 8c3c
000002c0: fe7c 413d 671d b20d a85e a637 038a dd3a
000002d0: 229b 1026 2b73 bd26 210c f93b e6b0 183c
000002e0: 7ad4 673c 34b7 5137 b35a 0e39 d576 f03b
000002f0: d4d7 8038 f32c 973a ae8c 683b 0df0 963b
00000300: e991 be36 9aac 5c36 1827 1234 03e5 d03b
00000310: ceb7 c93c bd86 8f0e 203c 9236 c497 5d3a
5.041188e-07 8.944375e-06 0.0005163979 2.90425e-06 2.5073188e-05 0.00020577334 6.862169e-05 0.00022537983
0.00011674538 2.7258879e-18 0.0003717595 0.00019860406 2.1091186e-10 1.966377e-05 1.4041962e-06 0.00036582173
0.00016361075 4.1089102e-30 0.00015265938 0.00011434058 3.2064282e-13 1.2013704e-12 0.0015613727 0.00086405355
0.0015696487 3.5305482e-07 1.3041809e-05 0.001463938 0.0002681177 4.3702064e-05 0.00064273446 0.00057787116
1.1182738e-05 5.594881e-06 1.9547863e-06 0.0014474047 0.0028687096 5.544292e-29 7.717489e-06 0.0001325869
5.230121e-12 1.2212405e-10 0.001560964 0.00022550536 0.0005415863 3.2722558e-06 1.3861063e-05 0.0010628402
0.00055854645 1.3084063e-05 0.0006968969 0.00028290667 1.3406998e-05 8.639316e-06 4.7493227e-06 0.0013270569
0.0011974799 1.1252215e-30 1.47127685e-05 9.215582e-05 8.4267585e-06 0.00015969532 0.009881719 0.01109358
0.017546972 0.0002766241 0.0002649841 0.008923368 9.145537e-05 0.0012305783 0.0042516645 0.0060263
0.00061181816 0.0003608316 0.00034508767 0.0074736294 0.030677384 1.5409961e-29 0.00045462162 0.0012625748
4.023687e-07 4.9059636e-05 0.014933475 0.010915719 0.018975388 0.0010960487 0.0007497122 0.011330609
0.0003759394 0.0009345402 0.007250336 0.007737639 9.305554e-06 0.00012326789 9.696436e-06 0.01049277
0.03401455 2.7784562e-30 0.0010857135 0.0023147694 3.9293713e-16 6.3914443e-16 0.009140507 0.010726345
0.016418248 2.1116377e-05 0.00018423275 0.008692864 0.00010665136 0.0012203315 0.004218017 0.0054477165
7.1914133e-06 3.4345205e-06 2.2891668e-07 0.00753295 0.028586881 6.181009e-29 4.819579e-06 0.0010346258
1.3189455e-13 5.3511617e-13 0.008810487 0.012297198 0.017912688 2.392017e-05 0.000104874205 0.009275209
4.3885095e-05 0.0017072727 0.004539799 0.0056896876 4.083368e-06 1.0421157e-06 2.1673704e-07 0.008375992
0.0312048 4.1856713e-30 1.697358e-06 0.0009084065 3.1314607e-06 0.00013033969 0.0016903671 0.00018516183
0.00047858755 0.00029075463 0.00022314183 0.00083807274 0.0002895071 1.4758182e-07 0.0009160273 0.00063213095
0.00010788969 0.00013815805 7.728985e-05 0.0009982883 0.0012521896 5.930888e-32 0.00046170186 0.00033398715
3.839118e-07 1.8116506e-06 0.019455496 0.016862296 0.026627414 9.082488e-05 0.00024279165 0.017659377
0.0026443591 0.001899549 0.008933957 0.008909748 6.3262746e-06 3.4721227e-06 5.157676e-07 0.017183192
0.047238342 1.0977175e-30 1.983282e-05 0.0016902093 5.017028e-16 1.3145726e-15 0.007600323 0.00931952
0.014149779 1.2500026e-05 0.00013575963 0.0073383846 6.143717e-05 0.0011533782 0.0035484242 0.004606253
5.6794274e-06 3.2883022e-06 1.3611532e-07 0.0063749566 0.024623778 3.538197e-30 4.3581385e-06 0.0008453096

exp_avg f4 [10]
00000000: 0bd6 abba cbc0 71ba 8d5b 19ba 5a92 9e3a
00000010: 5ad8 4db7 8055 fc39 6e06 a93a 559e 7cba
00000020: 0731 3fba bd7d a73b
-0.0013110054 -0.0009222149 -0.0005850129 0.001209806 -1.2269325e-05 0.00048128888 0.0012895593 -0.00096366304
-0.00072933774 0.0051114247

exp_avg_sq f4 [10]
00000000: 092d 5b38 2509 be37 ad79 1d38 f1aa 2f39
00000010: 197f 1c3a f9cc 1c39 c5b9 2939 fde4 e538
00000020: 9c38 a539 ae90 0639
5.225561e-05 2.2654023e-05 3.7545036e-05 0.00016752981 0.0005969867 0.00014953678 0.000161863 0.00010962223
0.0003151343 0.00012833133

exp_avg f4 [3, 10]
00000000: b27f c63b f90e 043a 8191 e13a bcde d8b9
00000010: 8987 9a3b 7cee 8939 ef0f 743a c0e8 393a
00000020: 07af 113b 99cb 1339 a66d 2dbc 0957 5f3b
00000030: 184e cb3a c021 b63a e06e 93bb 2178 ac3a
00000040: 7169 1839 e525 2bbc f5f3 16bc cb9c d43a
00000050: bf8d 833a 82f0 39bb ab23 31bb 61a9 25bb
00000060: 5164 14bb 40e7 abba 5eae c3ba 45df 1f39
00000070: 0d9a 5339 64bc 7837
0.006057703 0.00050376315 0.0017209501 -0.0004136468 0.004715864 0.0002630836 0.00093102356 0.00070918724
0.0022229569 0.00014094858 -0.010585224 0.0034078977 0.0015510945 0.0013895556 -0.0044993013 0.001315836
0.0001453513 -0.0104460465 -0.009213437 0.0016221044 0.001003675 -0.0028372114 -0.0027029316 -0.002527796
-0.00226428 -0.0013115183 -0.0014929285 0.00015246596 0.00020179916 1.4825815e-05

exp_avg_sq f4 [3, 10]
00000000: 140c dd39 f1af f638 0f6b 2439 d48b 8138
00000010: 5792 8339 7526 7838 bde0 d636 95ac df39
00000020: 4a2e 0f3a f776 3438 5c6b 0b3a 5890 5039
00000030: 409e 9e39 156d be38 f863 6c39 05e7 b938
00000040: a905 1337 5c7f a239 f890 c839 c3ed 9c38
00000050: 8f54 1b3a f668 2239 eef9 4739 2779 fb38
00000060: 4ff8 0b3a f03f 9038 5ccf 0d37 4b32 5c39
00000070: 6436 163a 99d3 4638
0.00042161404 0.00011762966 0.00015680141 6.177244e-05 0.000250953 5.9163624e-05 6.40386e-06 0.00042662458
0.00054619147 4.302614e-05 0.0005318427 0.00019890198 0.00030254014 9.080224e-05 0.00022543955 8.864518e-05
8.763201e-06 0.00030993938 0.00038254983 7.482946e-05 0.0005925381 0.00015488625 0.00019071225 0.00011991179
0.000533943 6.8783644e-05 8.4525345e-06 0.0002099957 0.0005730151 4.7403944e-05

exp_avg f4 [3]
00000000: e9b9 6c3b ae44 00bc a6bd 22bb
0.0036121553 -0.0078288745 -0.0024832278

exp_avg_sq f4 [3]
00000000: f515 453a 9100 313a d662 3f3a
0.00075182255 0.00067520986 0.00073007995
