ver2/last_brain.pth (torch_old, 11545 bytes, 24 tensors)

fc1.weight f4 [15, 8]
0	0x3efcf10f	0.49402663
1	0xbde77cec	-0.11303124
2	0x4009ce28	2.1532078
3	0xbe353f90	-0.17700028
4	0x3d32fd5f	0.043698665
5	0xc00a7989	-2.163668
6	0xbd3dbb1c	-0.04632102
7	0x3ed62440	0.41824532
8	0xbfffcfbe	-1.9985273
9	0xbde71bb4	-0.11284581
10	0xbf510bb5	-0.8165849
11	0xbe265d53	-0.16246538
12	0x3f0cb83e	0.5496863
13	0x3f711ff8	0.94189405
14	0xbe8348f2	-0.2564159
15	0x3d9dd2b8	0.07706207
16	0x3f948c13	1.1605247
17	0xbe578437	-0.2104653
18	0x3e677f64	0.2260719
19	0xbf38cf02	-0.7219087
20	0x3ee35bf3	0.4440609
21	0xbf3ff279	-0.7497936
22	0x3e9d2478	0.30691886
23	0xbeea6ffa	-0.45788556
24	0x402e8eff	2.7274778
25	0x3cb20857	0.021732492
26	0x3f0db167	0.5534882
27	0xbf93b49f	-1.1539496
28	0xbe8699de	-0.26289266
29	0xbf20b302	-0.62773144
30	0x3f4312eb	0.7620074
31	0xbf545b81	-0.82952124
32	0x3fa77493	1.3082451
33	0x3d0400c1	0.03222728
34	0x403e6c3e	2.9753566
35	0xbda4bd36	-0.080439016
36	0xbda6ba4d	-0.08141003
37	0xc033c103	-2.8086555
38	0xbdcec307	-0.10095792
39	0xbe92f5b0	-0.2870307
40	0x3e76c89a	0.24099961
41	0x3f34649c	0.7046602
42	0x3e52254b	0.20522039
43	0x3ea9d01b	0.33166584
44	0xbe1b8f94	-0.1519149
45	0x3cf2a1a1	0.029618086
46	0xbec948b2	-0.39313275
47	0x3e934585	0.28763977
48	0xbe59b20e	-0.21259329
49	0x3ded3f20	0.11584306
50	0xbeb2bfa7	-0.34911844
51	0xbe0ef687	-0.1396123
52	0x3e9731b5	0.2953011
53	0xbea47d20	-0.32126713
54	0x3d4721d0	0.04861623
55	0xbe27a0f1	-0.16369988
56	0xbf3c59d3	-0.7357456
57	0xbe24b492	-0.16084507
58	0xbe92ab52	-0.28646332
59	0x3f19bc62	0.60053074
60	0x3f07e2ed	0.53080636
61	0x3e04ae11	0.12957026
62	0x3f3d93b8	0.74053526
63	0xbf2a0084	-0.66407037
64	0x3f35771d	0.7088488
65	0xbc97f90c	-0.018551372
66	0x3ff3e652	1.9054663
67	0xbdf242e6	-0.11829166
68	0x3eae3224	0.3402263
69	0xc0002acd	-2.0026124
70	0x3e83043f	0.25589177
71	0xbef0bad1	-0.4701753
72	0x3f620d78	0.883018
73	0x3f0fe17c	0.56203437
74	0xbf81b9ab	-1.0134786
75	0xbf59aa3d	-0.8502539
76	0xbe7fde5e	-0.2498717
77	0x3faf2ef5	1.3686205
78	0xbf2a27e6	-0.6646713
79	0x3eccfaf4	0.40035212
80	0x3cc2e3e2	0.023790304
81	0x3e13a038	0.14416587
82	0x3fe54e8d	1.7914597
83	0x3f0d01e3	0.55081004
84	0x3e931191	0.2872434
85	0xbfc1ffaf	-1.5156153
86	0x3e6d8cc6	0.23198232
87	0xbcc06e1f	-0.02349001
88	0xbf0031ed	-0.5007618
89	0x3e9ffbb6	0.31246728
90	0xc042eb3b	-3.0456073
91	0x3e2fb372	0.17158297
92	0xbf3d8129	-0.7402521
93	0x4039b8ed	2.901912
94	0xbd011b32	-0.031520076
95	0xbdee760b	-0.11643609
96	0x3fa6d8dd	1.3034931
97	0x3f63b2b1	0.88944536
98	0xbb2b735f	-0.0026161296
99	0xbf920c0f	-1.140993
100	0xbf9081e4	-1.128964
101	0xbeb9b927	-0.36274073
102	0xbe82dfed	-0.25561467
103	0x3eb6e0bc	0.35718334
104	0xbea46796	-0.3211028
105	0xbcddb100	-0.02706194
106	0xbe9e7091	-0.30945256
107	0x3eacca93	0.33748302
108	0x3e4bf4d6	0.19917616
109	0x3eaaa789	0.33330944
110	0xbe453180	-0.19257164
111	0x3de74f52	0.11294426
112	0xbf4bcc12	-0.7960826
113	0x3edbda83	0.4294015
114	0xc07aea4a	-3.9205499
115	0x3f70b61a	0.94027865
116	0xbf38e47e	-0.7222365
117	0x405a403c	3.4101706
118	0xbe372d62	-0.17888406
119	0x3de4b2b9	0.11166901

fc1.bias f4 [15]
0	0xbe5d49a7	-0.21610127
1	0x3ea7679e	0.3269624
2	0x3f8b095f	1.0862235
3	0x3ef05d61	0.46946242
4	0x3e9d3b56	0.30709332
5	0x3f29e08c	0.66358256
6	0xbe9be24e	-0.30446094
7	0x3f867da1	1.0507089
8	0xbe9ff4a5	-0.31241336
9	0x3f938af1	1.1526777
10	0x3f010482	0.50397503
11	0xbdaba841	-0.08381701
12	0xbef1d81d	-0.47235194
13	0xbe9fa581	-0.31180957
14	0x3e78ff71	0.24316193

fc2.weight f4 [20, 15]
0	0x3f887cf1	1.0663129
1	0xbf18f058	-0.59741735
2	0xbd9f51b4	-0.077792555
3	0x3e1e9b3f	0.15488909
4	0x3f135733	0.5755493
5	0xbed89e40	-0.42308235
6	0x3e5333d7	0.20625244
7	0xbef2e74f	-0.474421
8	0x3f02e798	0.51134634
9	0xbeb26ecd	-0.3485016
10	0x3ea49e9f	0.32152268
11	0xbee63c96	-0.44968098
12	0xbd97e0ac	-0.074159
13	0xbe250e65	-0.16118772
14	0xbf1a575a	-0.6028954
15	0x3f833e15	1.0253321
16	0xbf652787	-0.8951344
17	0xbe482652	-0.19545868
18	0x3eae6c83	0.34067163
19	0x3f381041	0.718998
20	0x3d66e50d	0.056370784
21	0x3d634e68	0.055494696
22	0xbe58f7d8	-0.21188295
23	0x3f0ba84b	0.5455367
24	0xbc92a15e	-0.017899211
25	0x3dbb52b4	0.09146634
26	0xbe8f7794	-0.28020918
27	0xbdade3bc	-0.084907025
28	0xbe1ded10	-0.15422463
29	0xbf0ff249	-0.5622907
30	0xbe6ac9db	-0.22928564
31	0x3d8c95fe	0.06864546
32	0xbea37901	-0.31928256
33	0xbe193113	-0.14960127
34	0xbe972bb2	-0.29525524
35	0x3dc284bd	0.09497974
36	0xbd7f92c0	-0.06239581
37	0xbd9b66a0	-0.075879335
38	0xbd049634	-0.032369807
39	0xbe52e9ca	-0.20596996
40	0x3c7b6c8c	0.015345704
41	0x3d41de44	0.04733111
42	0x3e04bf02	0.12963489
43	0x3da3b98d	0.079943754
44	0xbe69fe1f	-0.22850846
45	0x3e29e07c	0.1658954
46	0xbe625a65	-0.22104795
47	0xbe2a713e	-0.16644761
48	0xbe599ec0	-0.21251965
49	0x3eb1bb6e	0.3471331
50	0xbde3b67f	-0.11118793
51	0xbb4f0978	-0.0031591337
52	0xbf52f132	-0.82399285
53	0x3e6a00e8	0.22851908
54	0xbd807995	-0.0627319
55	0x3db6c7e9	0.089248486
56	0xbefeab46	-0.49740046
57	0x3f0a8e30	0.5412321
58	0x3dc9edec	0.09859833
59	0xbefd46d9	-0.49468115
60	0x3f74b748	0.95592165
61	0x3d738e2c	0.059461758
62	0x3f20cb58	0.6281028
63	0x3f17c17c	0.5927961
64	0x3f7d4257	0.9892935
65	0x3e698014	0.22802764
66	0xbd971bb3	-0.0737833
67	0x3e0d4104	0.13794333
68	0x3f914c2d	1.1351372
69	0x3ee63443	0.44961748
70	0x3eaa8185	0.3330194
71	0x3d0ad40b	0.033893626
72	0xbddc995c	-0.107714385
73	0xbe7b708a	-0.24554649
74	0xbe2efc78	-0.17088497
75	0x3d8dc151	0.06921638
76	0xbee7a865	-0.45245662
77	0x3f3069da	0.68911517
78	0x3f993178	1.1968222
79	0x3e7a5d98	0.24449766
80	0x3ecb02f9	0.39650705
81	0x3e27d73c	0.16390699
82	0xbf9c061f	-1.2189368
83	0x3e854454	0.26028693
84	0x3e850e4c	0.2598747
85	0xbd477c24	-0.048702374
86	0x3e96a57c	0.2942313
87	0x3f8a9c1a	1.0828888
88	0x3d32e4e2	0.04367531
89	0xbd566467	-0.052341845
90	0xbe14d27b	-0.14533417
91	0x3f0ac364	0.5420439
92	0x3eec0a1a	0.46101457
93	0xbde828d5	-0.11335913
94	0xbe042411	-0.12904383
95	0x3ebf0ba9	0.37313583
96	0xbc91b8c8	-0.017788306
97	0x3f9efc1a	1.2420685
98	0xbef1fe47	-0.4726431
99	0x3f81505c	1.0102649
100	0x3f281087	0.6565022
101	0x3f83ed47	1.0306786
102	0xbe7a8d7f	-0.24468039
103	0xbe6ef1ff	-0.23334502
104	0x3f93ce02	1.1547244
105	0xbe7509c6	-0.2392951
106	0xbef951a3	-0.48695096
107	0xbf5bd442	-0.85870755
108	0xbebed51c	-0.37271965
109	0xbd9cf70b	-0.07664307
110	0x3ecbe6fe	0.3982467
111	0xbe7ea88a	-0.2486898
112	0xc076288c	-3.8462248
113	0xbf05b262	-0.52225316
114	0x3e6c2ee3	0.23064761
115	0x3da0f043	0.07858326
116	0xbca89f26	-0.0205837
117	0x3e9401fd	0.28907767
118	0x3e2e03a4	0.16993576
119	0x3dcb621c	0.09930822
120	0x3ef0a124	0.4699794
121	0xbf3a1dc5	-0.72701675
122	0x3b030728	0.001999328
123	0x3f088951	0.5333453
124	0x3eaba55a	0.3352459
125	0x3edc07a4	0.4297458
126	0x3bfcdbc0	0.007716626
127	0x3e4cb035	0.19989093
128	0xbd39f994	-0.045404032
129	0x3eaf6df4	0.34263575
130	0x3e8a6180	0.27027512
131	0xbd8013d1	-0.0625378
132	0x3dda0c90	0.10646927
133	0x3e52e589	0.20595373
134	0xbcd974dd	-0.026544983
135	0x3f19e533	0.60115355
136	0xbd5532b6	-0.052050315
137	0xbe8b4fe3	-0.27209386
138	0xbf4c3dd3	-0.79781836
139	0x3e49247a	0.19642821
140	0xbd3d765a	-0.046255447
141	0xbc698765	-0.014253472
142	0xbe195f72	-0.14977816
143	0x3ece3a57	0.40278885
144	0xbeaf2126	-0.34204978
145	0x3f5d15ae	0.86361206
146	0xbf0f3d1c	-0.5595262
147	0xbf4dc960	-0.803854
148	0x3de43bae	0.111441955
149	0xbea03eed	-0.3129801
150	0x3e924340	0.28566933
151	0xbe50f22e	-0.20404884
152	0x3f1b7b12	0.60734665
153	0x3f7909c9	0.97280556
154	0x3f2f16ba	0.68394053
155	0xbc9cadb2	-0.019125793
156	0xbe49726d	-0.19672556
157	0x3edf75ab	0.4364446
158	0x3e546950	0.20743299
159	0x3ee6c2cd	0.45070496
160	0xbf483d7c	-0.7821882
161	0x3c4030cd	0.011730385
162	0x3e146390	0.14491105
163	0xbe808a05	-0.251053
164	0xbd35b55b	-0.044362407
165	0xbe0cebd0	-0.1376183
166	0x3e17539a	0.14777985
167	0xbe3666e9	-0.17812695
168	0xbe64458e	-0.22292158
169	0xbe6e0aaa	-0.23246256
170	0xbddc62bc	-0.107610196
171	0xbe23f5cf	-0.16011737
172	0xbd5b7e33	-0.05358715
173	0x3ddbfc22	0.1074145
174	0xbe2d5be1	-0.1692958
175	0xbe5104f8	-0.20412052
176	0xbe22cab9	-0.15897645
177	0x3e4441e9	0.19165768
178	0xbe5b6c9b	-0.21428148
179	0x3ce4ceb0	0.027930588
180	0x3f2886e5	0.6583083
181	0x3d29ef4c	0.041487977
182	0xbe3f1942	-0.18661979
183	0xbd30425e	-0.043032043
184	0x3eb3bf02	0.35106665
185	0xbdb58ea0	-0.08865094
186	0xbe591bba	-0.21201983
187	0xbeaca698	-0.3372085
188	0x3f084c8f	0.5324182
189	0x3e4b64b6	0.19862637
190	0x3eb76651	0.3582025
191	0xbe01c7bd	-0.1267385
192	0xbb9b67f5	-0.0047426173
193	0xbe574973	-0.21024112
194	0xbee2d675	-0.44304243
195	0x3e756551	0.2396443
196	0xbe831c1b	-0.2560738
197	0x3e96d322	0.29457957
198	0x3bef1eaf	0.007297359
199	0x3f1fab87	0.62371105
200	0xbe38f35a	-0.18061581
201	0xbde17efa	-0.11010547
202	0x3c8ec73c	0.017428987
203	0x3f0b25ee	0.5435475
204	0x3f037b4f	0.5136003
205	0x3f716b6b	0.9430453
206	0x3d21f550	0.03954059
207	0xbf4e8d35	-0.80684215
208	0xbe0204fe	-0.12697217
209	0xbe4c81fb	-0.19971459
210	0x3f5e77a9	0.86901337
211	0xbf682576	-0.9068216
212	0xbc6bc34b	-0.014389823
213	0x3d338bc1	0.04383445
214	0x3ee3eeac	0.4451803
215	0x3dc51008	0.09622198
216	0x3e0576b2	0.1303356
217	0xbde5b522	-0.11216189
218	0x3ee14d12	0.44004112
219	0xbe8a65f1	-0.270309
220	0x3f1a8010	0.6035166
221	0xbed61b3a	-0.41817647
222	0x3d7356ce	0.059408955
223	0xbd9f29b1	-0.07771624
224	0xbf21b6ab	-0.63169354
225	0x3e15ccdc	0.14628929
226	0x3eb05b06	0.34444445
227	0x3e34aa2a	0.17643037
228	0x3f322038	0.6958041
229	0x3f00f6a1	0.50376326
230	0x3d9687e8	0.07350141
231	0x3ceab8e1	0.02865261
232	0xbf8e4776	-1.1115558
233	0x3e188a6d	0.14896555
234	0x3e879f98	0.26488948
235	0x3e108fa2	0.14117292
236	0xbf0f12eb	-0.5588824
237	0x3ec690c3	0.3878232
238	0x3e035a80	0.12827492
239	0xbeb694d5	-0.35660425
240	0x3f1ac933	0.60463256
241	0xbe79d796	-0.24398646
242	0x3e6201dc	0.22071022
243	0x3f1dfe05	0.6171573
244	0x3f858412	1.043093
245	0x3ec834e9	0.39102867
246	0x3d1fb9c0	0.038995504
247	0xbe3f71ad	-0.18695708
248	0x3f19655f	0.59920305
249	0x3f611b65	0.87932426
250	0x3eeb9a35	0.46016088
251	0x3ec3cec0	0.38243675
252	0xbef2abf7	-0.47396824
253	0x3e4a44a2	0.19752744
254	0x3ea69e9e	0.3254289
255	0x3f9b21ee	1.211973

fc2.bias f4 [20]
0	0xbec640ee	-0.38721412
1	0xbecfc2e3	-0.40578374
2	0xbcd54e92	-0.026038442
3	0xbe78814e	-0.24268076
4	0x3f078035	0.52930003
5	0xbf7afa27	-0.9803795
6	0x3fa3383b	1.2751535
7	0xbef09147	-0.46985838
8	0x3e1fa758	0.1559118
9	0x3f145fd2	0.5795871
10	0x3dddeb69	0.108359165
11	0x3d613bb5	0.05498858
12	0x3ebeaa33	0.37239227
13	0x3f25071b	0.6446397
14	0x3e5cfeed	0.21581621
15	0xbe2e9e3b	-0.17052548
16	0x3f0e3d19	0.5556198
17	0x3eeaca77	0.45857593
18	0xbef4ead6	-0.47835416
19	0xbea929c2	-0.3303967

fc3.weight f4 [10, 20]
0	0xbfa84eb4	-1.3149018
1	0xbf92d6f9	-1.1471854
2	0x3dacdd1e	0.08440612
3	0xbeb31e93	-0.34984264
4	0xbf2c2a23	-0.67251796
5	0xbf17d05e	-0.5930232
6	0x3ee392f5	0.44448057
7	0xc0107741	-2.2572787
8	0xbf9ab29b	-1.2085756
9	0xbf6c039c	-0.9219301
10	0x3f8da9b7	1.1067418
11	0x3d7d77cf	0.061881837
12	0xbf5ed15f	-0.87038225
13	0xbd705e0c	-0.05868344
14	0xbff75953	-1.9324135
15	0xbff3928d	-1.9029099
16	0xbf921bc2	-1.1414721
17	0x3d1339c4	0.03594376
18	0xbf91331c	-1.1343722
19	0xbf053a4c	-0.5204208
20	0xbcaff57c	-0.02147936
21	0x3c527853	0.01284607
22	0xbdc51ad5	-0.096242584
23	0x3edb57c7	0.42840406
24	0xbd9cd516	-0.076578304
25	0xbdd4ae70	-0.10384834
26	0xbfb7b291	-1.4351369
27	0x3fbb18e3	1.461697
28	0xbe03b0d8	-0.1286043
29	0xbee22572	-0.44169194
30	0xbfb21ead	-1.3915612
31	0xbe53c97b	-0.20682327
32	0x3e92b778	0.286556
33	0xbe565dec	-0.20934266
34	0x3f581866	0.8441223
35	0x3f562532	0.83650506
36	0xbedc48a5	-0.43024173
37	0x3f25624c	0.64603114
38	0x3fdb3e4e	1.7128389
39	0xbe9502df	-0.29103753
40	0xbd2e0f84	-0.042495266
41	0x3c5cc080	0.01347363
42	0xbd4737eb	-0.048637312
43	0xbe5b89c8	-0.21439278
44	0xbe1abec9	-0.15111841
45	0x3f745d21	0.95454603
46	0xbf797368	-0.9744172
47	0x3f845a2b	1.0340017
48	0x3e79ab66	0.2438179
49	0xbf1a6ac5	-0.6031917
50	0xbdae7d19	-0.08519954
51	0xbcafa31c	-0.021440081
52	0xbe90f858	-0.2831447
53	0xbeae17a3	-0.34002408
54	0xbddd6df5	-0.10811988
55	0x3f8b823a	1.0899117
56	0xbe36f8aa	-0.17868295
57	0xbf218914	-0.6309979
58	0xbd8aecf3	-0.06783476
59	0xbf17bdb6	-0.5927385
60	0xbf03619e	-0.51320827
61	0xbe0e1631	-0.13875653
62	0x3c82c3e2	0.015962545
63	0xbefe0474	-0.49612772
64	0x3e85f7e7	0.26165697
65	0x3e09d797	0.13461147
66	0x400fbead	2.246013
67	0xbf7ff2eb	-0.9998004
68	0x3d552f25	0.052046914
69	0x3fa49129	1.2856799
70	0x3f385771	0.72008425
71	0xbe08d3a6	-0.13361987
72	0xbefb4059	-0.4907253
73	0x3f1d29c2	0.6139184
74	0xbf057f05	-0.5214694
75	0xbeef75a9	-0.46769455
76	0x3ecfe2d4	0.40602744
77	0xbe854605	-0.26029983
78	0xbf7b3795	-0.98131686
79	0xbec38e9f	-0.3819475
80	0x3fcf4d93	1.6195549
81	0x3fc8f6d6	1.5700328
82	0x3df01768	0.117232144
83	0x3ebe4cd4	0.3716799
84	0x3f8bd162	1.0923274
85	0x3e8cb642	0.27482802
86	0xbf4c11a2	-0.79714406
87	0x3fa337c5	1.2751395
88	0x3f0f7d66	0.5605072
89	0x3ed2c68f	0.41167113
90	0xbf331b46	-0.6996349
91	0x3c766b9f	0.015040307
92	0x3ed07f65	0.40722194
93	0x3f56656b	0.837485
94	0x3fb160ea	1.3857701
95	0x3ff40b79	1.9066001
96	0x3fbed86a	1.4909794
97	0xbe017972	-0.12643984
98	0x3fa3305c	1.2749133
99	0x3e986f49	0.29772404
100	0x3e075f75	0.13220008
101	0x3e3643d8	0.17799318
102	0x3ea3fcd8	0.32028842
103	0x3f4216c9	0.7581602
104	0xbddf84b0	-0.1091398
105	0x3ed91fb3	0.42406997
106	0xbff2cda0	-1.8969002
107	0x3fec7689	1.8473674
108	0xbcaed6dc	-0.021342687
109	0xbf4e9077	-0.80689186
110	0xbfa055f0	-1.2526226
111	0xbda48801	-0.08033753
112	0x3dddba21	0.10826517
113	0xbe54bc69	-0.20774998
114	0x3e03f42f	0.12886117
115	0x3f2bacf9	0.6706081
116	0xbd784e99	-0.06062183
117	0xbdb71fe6	-0.08941631
118	0x3e82891c	0.2549523
119	0x3f06c10d	0.5263832
120	0xbe8cb8fd	-0.27484885
121	0xbe5765a9	-0.21034874
122	0x3e8ca4c0	0.27469444
123	0x3e1629aa	0.14664331
124	0xbd0e5492	-0.03474862
125	0x3f2b36ac	0.668803
126	0xbe07f521	-0.13277103
127	0x3ffb9866	1.9655883
128	0x3e816c0d	0.2527775
129	0xbf1d69cb	-0.6148955
130	0x3e410965	0.1885124
131	0x3e16c512	0.14723614
132	0xbe34b39e	-0.17646644
133	0xbe7fc93f	-0.24979113
134	0xbc76cd65	-0.015063618
135	0x3fad977f	1.3561858
136	0xbe02a20a	-0.12757125
137	0xbf5f51ce	-0.872342
138	0xbdee8f06	-0.11648373
139	0xbf2b3d97	-0.66890854
140	0x3f84f1bd	1.0386273
141	0x3f3f0a47	0.74625057
142	0x3bc0d7ef	0.0058851163
143	0x3f0345e5	0.51278526
144	0x3f9f9cf7	1.2469777
145	0xbf817847	-1.0114831
146	0xbf0f7cb3	-0.5604965
147	0x3f931ee6	1.1493804
148	0x3ea79cd1	0.3273683
149	0x3f73e27c	0.9526746
150	0xbfb6b225	-1.4273115
151	0x3d461695	0.04836138
152	0x3fc2914b	1.520059
153	0x3f6d347f	0.9265823
154	0x3fe8cb75	1.818709
155	0x3e926a79	0.28596857
156	0x3f25672e	0.64610565
157	0x3f4e695b	0.8062951
158	0x3ff651f2	1.9243758
159	0x3d90f1da	0.070773795
160	0x3ed9202a	0.42407352
161	0x3f023b4f	0.5087175
162	0x3d15f96f	0.03661483
163	0x3e934f0f	0.28771254
164	0x3f141d89	0.5785757
165	0xbef3b3d0	-0.47598124
166	0xbf4ebb10	-0.80754185
167	0x3f7fffc9	0.9999967
168	0x3d382963	0.044961344
169	0x3e952dbf	0.29136464
170	0xbfcfe752	-1.6242468
171	0xbdeb64d6	-0.11493842
172	0x3f4a7bf6	0.790954
173	0x3ed79e5d	0.4211301
174	0x3f80126a	1.000562
175	0x3f2a9732	0.66636956
176	0x3e15e184	0.14636809
177	0x3ef876c0	0.485281
178	0x401f7159	2.4912932
179	0xbedeb65c	-0.43498504
180	0x3db7b2a9	0.089696236
181	0x3e0bc2c2	0.13648513
182	0xbdbcfd2f	-0.092279784
183	0x3f32a974	0.69789815
184	0xbeba9b63	-0.36446676
185	0x3edbaa77	0.42903492
186	0xbff3fdbc	-1.9061809
187	0x3faded3b	1.3588022
188	0x3e23b4ac	0.1598689
189	0xbf1349bd	-0.5753439
190	0xbf1b4adf	-0.6066112
191	0xbe66fb55	-0.22556813
192	0x3cdb2ed4	0.026755728
193	0xbf080ca6	-0.531443
194	0x3ebab313	0.36464748
195	0x3f04b5e4	0.51840043
196	0xbe96e669	-0.29472664
197	0x3e1f108a	0.15533653
198	0x3f3aa431	0.72906786
199	0x3e88c9a3	0.26716337

fc3.bias f4 [10]
0	0x3e86a74c	0.26299512
1	0xbebfe320	-0.3747797
2	0xbf0140ce	-0.5048951
3	0x3e73c2ae	0.23804733
4	0xbead1628	-0.33805966
5	0xbf2c8ca1	-0.6740208
6	0x3e1da041	0.15393163
7	0x3e9331d8	0.28748965
8	0x3e0097e1	0.12557937
9	0xbf45cf87	-0.77269787

fc4.weight f4 [3, 10]
0	0x3f3ed838	0.74548674
1	0xc011102e	-2.2666125
2	0xc0947bcd	-4.6401124
3	0x401dd7be	2.4662929
4	0xbfa0a465	-1.2550169
5	0xc083823e	-4.1096487
6	0xc091a1a7	-4.550983
7	0xbfb1e3ed	-1.3897682
8	0xbf66e335	-0.9019044
9	0xc0848f14	-4.1424656
10	0x3fc6104c	1.5473723
11	0xbf80478a	-1.0021832
12	0xc0b0ae9d	-5.521315
13	0x3fc83fd1	1.5644475
14	0xbf902202	-1.1260378
15	0xc090bd06	-4.523074
16	0xc0a38495	-5.1099343
17	0xbf8b210f	-1.0869464
18	0xbf0da545	-0.55330306
19	0xc085c5bf	-4.180389
20	0x3f31651a	0.69294894
21	0xc03e3b8a	-2.972384
22	0xc0548bc0	-3.3210297
23	0x406080b1	3.5078547
24	0xbfd27dd1	-1.6444646
25	0xc06932e9	-3.6437323
26	0xc04ac398	-3.168188
27	0xbfe8cf79	-1.8188316
28	0xc001cb01	-2.0280154
29	0xc070ab06	-3.7604384

fc4.bias f4 [3]
0	0xbef50e42	-0.4786244
1	0x3db7e81e	0.0897982
2	0xbf950a9c	-1.1643863

exp_avg f4 [15, 8]
0	0xbb453719	-0.0030092655
1	0x3b51118d	0.003190133
2	0xbb9d070d	-0.0047921003
3	0x3b453713	0.0030092641
4	0xbb51118d	-0.003190133
5	0x3b9d070d	0.0047921003
6	0xbc077a00	-0.008268833
7	0x3c077a00	0.008268833
8	0xb4c2d86a	-3.6292778e-07
9	0xb8e17130	-0.00010749919
10	0xb81a4a37	-3.678558e-05
11	0x34c3335b	3.6358946e-07
12	0x38e17130	0.00010749919
13	0x381a4a37	3.678558e-05
14	0x3a6467cf	0.00087129785
15	0xba6467cf	-0.00087129785
16	0x3bc28c98	0.0059371702
17	0xba3688f3	-0.0006963156
18	0x3bf5e5e1	0.0075042103
19	0xbbc28c92	-0.0059371674
20	0x3a3688f3	0.0006963156
21	0xbbf5e5e1	-0.0075042103
22	0x3bb39ad4	0.0054811034
23	0xbbb39ad4	-0.0054811034
24	0x3b315b3d	0.002706244
25	0xb8bd7e7e	-9.035783e-05
26	0x3b3a737a	0.0028450177
27	0xbb315b47	-0.0027062462
28	0x38bd7e7e	9.035783e-05
29	0xbb3a737a	-0.0028450177
30	0x3bf5e0c1	0.0075035994
31	0xbbf5e0c1	-0.0075035994
32	0x3b96c1bd	0.004600732
33	0x3bf12cd4	0.0073600803
34	0x3829ad76	4.0454288e-05
35	0xbb96c1bf	-0.004600733
36	0xbbf12cd4	-0.0073600803
37	0xb829ad76	-4.0454288e-05
38	0xbad3d391	-0.0016161074
39	0x3ad3d391	0.0016161074
40	0x3b3df2cd	0.0028983832
41	0x3b1ad643	0.0023626245
42	0x3b28a957	0.00257357
43	0xbb3df2cd	-0.0028983832
44	0xbb1ad643	-0.0023626245
45	0xbb28a957	-0.00257357
46	0xbad8e990	-0.0016549099
47	0x3ad8e990	0.0016549099
48	0x00000000	0.0
49	0x00000004	6e-45
50	0x00000004	6e-45
51	0x80000004	-6e-45
52	0x00000000	0.0
53	0x00000000	0.0
54	0x00000004	6e-45
55	0x00000000	0.0
56	0xbb1c97ef	-0.002389427
57	0xbc377258	-0.011196695
58	0xba3d7bdc	-0.00072282343
59	0x3b1c97ef	0.002389427
60	0x3c377258	0.011196695
61	0x3a3d7bdc	0.00072282343
62	0xbbe664f3	-0.007031077
63	0x3be664f3	0.007031077
64	0xbb0913c7	-0.002091633
65	0x3b317e38	0.002708329
66	0xbb87a2cf	-0.0041392813
67	0x3b0913c7	0.002091633
68	0xbb317e38	-0.002708329
69	0x3b87a2cf	0.0041392813
70	0xbaddba75	-0.001691653
71	0x3addba75	0.001691653
72	0x3c13cb12	0.009020584
73	0x3b6ba134	0.003595424
74	0x3baa45ce	0.0051963096
75	0xbc13cb12	-0.009020584
76	0xbb6ba134	-0.003595424
77	0xbbaa45ce	-0.0051963096
78	0x3a887a56	0.0010412436
79	0xba887a56	-0.0010412436
80	0x3b21e74e	0.0024704519
81	0x3c0c67ff	0.0085697165
82	0x392ff426	0.00016780253
83	0xbb21e74e	-0.0024704519
84	0xbc0c67ff	-0.0085697165
85	0xb92ff426	-0.00016780253
86	0xbc022c3d	-0.007945118
87	0x3c022c3d	0.007945118
88	0xbba6c78d	-0.0050897063
89	0xbc011fbc	-0.007881101
90	0xb8294057	-4.035266e-05
91	0x3ba6c78d	0.0050897063
92	0x3c011fbc	0.007881101
93	0x38294057	4.035266e-05
94	0x3afe81d7	0.0019417357
95	0xbafe81d7	-0.0019417357
96	0xbbf8dca4	-0.007594662
97	0xbbc4764c	-0.0059955474
98	0xbbd1d1a2	-0.006403164
99	0x3bf8dca4	0.007594662
100	0x3bc4764c	0.0059955474
101	0x3bd1d1a2	0.006403164
102	0x3c0b3b38	0.008498006
103	0xbc0b3b38	-0.008498006
104	0x00000000	0.0
105	0x00000000	0.0
106	0x00000000	0.0
107	0x00000000	0.0
108	0x00000000	0.0
109	0x00000000	0.0
110	0x80000004	-6e-45
111	0x00000004	6e-45
112	0xbb0834d7	-0.0020783448
113	0xbb91f8f9	-0.0044547287
114	0x381d6e2d	3.7534326e-05
115	0x3b0834d7	0.0020783448
116	0x3b91f8f9	0.0044547287
117	0xb81d6e2d	-3.7534326e-05
118	0x3a9ae64f	0.0011817905
119	0xba9ae64f	-0.0011817905

exp_avg_sq f4 [15, 8]
0	0x3afb5bb0	0.0019177105
1	0x3aef0ba1	0.0018237719
2	0x3ad91521	0.0016562083
3	0x3afb5b01	0.0019176902
4	0x3aef0ba1	0.0018237719
5	0x3ad91521	0.0016562083
6	0x3a3ba9b7	0.00071587734
7	0x3a3ba9b7	0.00071587734
8	0x331d1a61	3.6578403e-08
9	0x377850b9	1.4800747e-05
10	0x33b64836	8.4881705e-08
11	0x33c38af7	9.105673e-08
12	0x377850b9	1.4800747e-05
13	0x33b647d1	8.488099e-08
14	0x38ee71ad	0.00011369898
15	0x38ee71ad	0.00011369898
16	0x3b862a10	0.0040943697
17	0x3b5cdedb	0.0033702168
18	0x3b81ba26	0.003958958
19	0x3b862976	0.004094298
20	0x3b5cdedb	0.0033702168
21	0x3b81ba27	0.0039589587
22	0x3aaa4b5d	0.0012992431
23	0x3aaa4b5d	0.0012992431
24	0x3aae55bf	0.0013300701
25	0x3a5dc494	0.00084597734
26	0x3adc224f	0.0016794893
27	0x3aae768e	0.0013310479
28	0x3a5dc494	0.00084597734
29	0x3adc224c	0.0016794889
30	0x3a379abb	0.00070039526
31	0x3a379abb	0.00070039526
32	0x39002700	0.0001222156
33	0x3991412a	0.00027705106
34	0x382799dc	3.9959195e-05
35	0x39004b91	0.00012235182
36	0x3991412a	0.00027705106
37	0x382799d8	3.995918e-05
38	0x397d1c5d	0.00024138526
39	0x397d1c5d	0.00024138526
40	0x39b5329c	0.00034560717
41	0x399cb7fe	0.00029891724
42	0x39b30611	0.0003414606
43	0x39b53026	0.00034558884
44	0x399cb7fe	0.00029891724
45	0x39b30611	0.0003414606
46	0x390a4636	0.00013186861
47	0x390a4636	0.00013186861
48	0x00000000	0.0
49	0x00000000	0.0
50	0x17b8747c	1.1920126e-24
51	0x21be349f	1.288883e-18
52	0x00000000	0.0
53	0x00000000	0.0
54	0x00000000	0.0
55	0x00000000	0.0
56	0x3b5f92c4	0.0034114579
57	0x3b32ad4e	0.0027263942
58	0x3b978d78	0.0046250187
59	0x3b5faa82	0.003412873
60	0x3b32ad4e	0.0027263942
61	0x3b978d78	0.0046250187
62	0x3b3e2f33	0.0029019832
63	0x3b3e2f33	0.0029019832
64	0x3abf46f7	0.0014593293
65	0x3aad4fa7	0.0013222591
66	0x3aabd6f2	0.0013110323
67	0x3abf4735	0.0014593365
68	0x3aad4fa7	0.0013222591
69	0x3aabd6f2	0.0013110323
70	0x3a073912	0.00051583454
71	0x3a073912	0.00051583454
72	0x3c448206	0.011993891
73	0x3c1b3b96	0.009474656
74	0x3c3e35cb	0.011609505
75	0x3c4486af	0.011995002
76	0x3c1b3b96	0.009474656
77	0x3c3e35cb	0.011609505
78	0x3b6ef9e8	0.0036464874
79	0x3b6ef9e8	0.0036464874
80	0x3abb7384	0.0014301394
81	0x3a61c667	0.0008612633
82	0x3adaa033	0.0016679823
83	0x3abb7385	0.0014301395
84	0x3a61c667	0.0008612633
85	0x3adaa033	0.0016679823
86	0x3a679b68	0.0008835108
87	0x3a679b68	0.0008835108
88	0x384de518	4.908917e-05
89	0x399f2751	0.00030356136
90	0x33117c14	3.387329e-08
91	0x384de518	4.908917e-05
92	0x399f2751	0.00030356136
93	0x33117c14	3.387329e-08
94	0x3954ae16	0.00020282748
95	0x3954ae16	0.00020282748
96	0x3bf46f1a	0.0074595334
97	0x3b8e19f6	0.004336591
98	0x3c0b1c75	0.008490671
99	0x3bf482b3	0.0074618696
100	0x3b8e19f6	0.004336591
101	0x3c0b1c73	0.00849067
102	0x3b3530b1	0.002764743
103	0x3b3530b1	0.002764743
104	0x00000000	0.0
105	0x00000000	0.0
106	0x00000000	0.0
107	0x00000000	0.0
108	0x00000000	0.0
109	0x00000000	0.0
110	0x258b0d89	2.4121828e-16
111	0x258b0d89	2.4121828e-16
112	0x38365881	4.3474607e-05
113	0x39b83214	0.00035132526
114	0x33a2dd9c	7.5840234e-08
115	0x38365881	4.3474607e-05
116	0x39b83214	0.00035132526
117	0x33a2dd9c	7.5840234e-08
118	0x39b14eb7	0.00033818718
119	0x39b14eb7	0.00033818718

exp_avg f4 [15]
0	0xbb54e567	-0.0032485367
1	0xb9d7c393	-0.0004115371
2	0x39967ab9	0.00028701665
3	0xb9dec0d2	-0.00042486802
4	0x3aefc5cc	0.0018293201
5	0x3b96f520	0.004606858
6	0x00000004	6e-45
7	0x3b6f719f	0.003653623
8	0xbb5c5ad7	-0.003362348
9	0x3bca3c13	0.006171712
10	0x3b6dad9c	0.003626681
11	0xbbd1d75e	-0.0064038476
12	0xbb9a09fa	-0.0047008963
13	0x00000004	6e-45
14	0xba57762f	-0.000821921

exp_avg_sq f4 [15]
0	0x3b3af2ca	0.0028526061
1	0x39a9275e	0.00032263523
2	0x3ba54a30	0.005044244
3	0x3b2a5c08	0.0025994796
4	0x3a561ca8	0.0008167722
5	0x39f7d88c	0.0004727285
6	0x20be1cfd	3.2206435e-19
7	0x3c0c016c	0.008545261
8	0x3b031247	0.0019999908
9	0x3c61a0df	0.013771265
10	0x3b39bdaa	0.0028341808
11	0x3a1de0e6	0.0006022587
12	0x3c22291a	0.009897495
13	0x25a8e677	2.9299523e-16
14	0x3a83d869	0.0010059002

exp_avg f4 [20, 15]
0	0xbb5df510	-0.0033867992
1	0x371f4045	9.492102e-06
2	0xbad34a4b	-0.0016120163
3	0xbaf5986f	-0.0018737445
4	0xbb95f9fd	-0.00457692
5	0xb97dddcf	-0.0002421059
6	0x00000004	6e-45
7	0x39f86caa	0.00047383207
8	0xbb3a4eaf	-0.0028428247
9	0x3a12ae5b	0.0005595439
10	0xbb0d269a	-0.00215379
11	0x3933c7d2	0.00017145209
12	0xba44bc92	-0.0007504906
13	0x80000004	-6e-45
14	0x00000004	6e-45
15	0xbb1396aa	-0.0022520223
16	0x3849e377	4.8133978e-05
17	0xb98ce091	-0.00026870196
18	0x3a401ae2	0.00073282246
19	0xbb2f3a7f	-0.0026737747
20	0x3a47cf6e	0.0007622157
21	0x00000000	0.0
22	0x3947ccc4	0.000190544
23	0xbb02d9cf	-0.001996625
24	0x3b438b6d	0.0029837743
25	0xbaed6a22	-0.0018113295
26	0x399f7e35	0.00030420875
27	0x3b0584f5	0.0020373438
28	0x00000000	0.0
29	0x38092df9	3.270616e-05
30	0x00000004	6e-45
31	0x00000004	6e-45
32	0x80000004	-6e-45
33	0x00000004	6e-45
34	0x00000004	6e-45
35	0x00000004	6e-45
36	0x80000004	-6e-45
37	0x80000004	-6e-45
38	0x00000004	6e-45
39	0x00000004	6e-45
40	0x00000004	6e-45
41	0x00000004	6e-45
42	0x00000004	6e-45
43	0x00000004	6e-45
44	0x00000004	6e-45
45	0xbc28ba7c	-0.010298368
46	0xb6722079	-3.6079712e-06
47	0xbbc6106a	-0.006044437
48	0xbc0fdbd6	-0.00878044
49	0xbc7e62ee	-0.015526516
50	0xbb7e5cb8	-0.003881259
51	0x80000004	-6e-45
52	0x35a1dbcc	1.2059404e-06
53	0xbbfef031	-0.007780098
54	0xbb560436	-0.0032656319
55	0xbbdf95b3	-0.0068232655
56	0xb82bf815	-4.100062e-05
57	0xbbf86868	-0.0075808056
58	0x00000004	6e-45
59	0xb93dd6b6	-0.0001810443
60	0x3b556582	0.0032561724
61	0xba132e29	-0.00056144834
62	0x3b711b67	0.0036790015
63	0x3c18edf0	0.0093340725
64	0x3bd4ca3e	0.0064938357
65	0x3b48d737	0.0030645856
66	0x80000004	-6e-45
67	0xb9af24f1	-0.00033406125
68	0x3b18ef54	0.002333601
69	0x3bbbbfff	0.005729675
70	0x3aa9fc23	0.0012968819
71	0x3a7d6f7b	0.0009667796
72	0x3c1fd657	0.009755692
73	0x00000000	0.0
74	0x39833056	0.0002502228
75	0x3a8568ec	0.0010178364
76	0xb890a8af	-6.897875e-05
77	0xbaa57176	-0.0012622315
78	0x39bf1d8a	0.00036452367
79	0x398f03c3	0.00027277888
80	0xbaf76da1	-0.0018877276
81	0x00000000	0.0
82	0xbaa5b8a7	-0.0012643532
83	0x3b217a8f	0.00246397
84	0xbb5f2fa6	-0.00340555
85	0xb98377c6	-0.00025075505
86	0x3ad69039	0.0016369886
87	0xbabab2c5	-0.0014243951
88	0x80000004	-6e-45
89	0x3b1367d2	0.0022492302
90	0x3ccd6418	0.025072142
91	0x3a2d4e7c	0.00066111214
92	0x3c9287b8	0.017886981
93	0x3cae071c	0.021243624
94	0x3d1e9d5a	0.03872428
95	0x3bfdc063	0.0077438815
96	0x00000000	0.0
97	0x3a7495cd	0.00093301834
98	0x3ca10cf2	0.019659493
99	0x3ba82cf3	0.0051323115
100	0x3c989dc9	0.018629925
101	0xbb0771dc	-0.002066723
102	0x3c3fe035	0.01171117
103	0x00000000	0.0
104	0xbaccc737	-0.0015623335
105	0x3acc184b	0.0015571205
106	0x3b015c64	0.0019738907
107	0x3b5b8114	0.0033493685
108	0x3b64fc95	0.003494059
109	0x3b491cad	0.0030687258
110	0x3c409d2f	0.0117562255
111	0x00000000	0.0
112	0x38f60e2b	0.00011732833
113	0x00000004	6e-45
114	0x3c9cd090	0.01914242
115	0x3acf23a3	0.0015803467
116	0x3b228b5a	0.0024802298
117	0x3c20e197	0.00981941
118	0x00000000	0.0
119	0x3bc07286	0.0058730273
120	0x3ada13b5	0.0016637953
121	0xba029b18	-0.0004982217
122	0x3ae16a1f	0.0017197764
123	0x3bc2eb9f	0.0059484984
124	0x3b5ce4bb	0.003370567
125	0x39b152f1	0.00033821867
126	0x00000000	0.0
127	0xb9b22841	-0.00033980797
128	0x3b08da96	0.002088224
129	0x3a67b091	0.0008838261
130	0x3a1c36e4	0.0005959107
131	0x3a98bfc8	0.0011653835
132	0x3b8dc719	0.004326713
133	0x80000004	-6e-45
134	0x3a2aa450	0.000650947
135	0x3c900bf5	0.017583827
136	0xb891cc3e	-6.952182e-05
137	0x3bb5db9e	0.005549862
138	0x3bea2d9f	0.0071465517
139	0x3cb9729c	0.022637658
140	0x3c355fb7	0.0110701835
141	0x00000004	6e-45
142	0x39271c29	0.00015936852
143	0x3bd8164c	0.006594455
144	0x3c68221e	0.01416829
145	0x3c03d0d4	0.008045394
146	0x92707133	-7.5870176e-28
147	0x3c9e3841	0.019313933
148	0x80000004	-6e-45
149	0xb91564ff	-0.00014247371
150	0x3c749916	0.014929077
151	0x3a5d215d	0.00084354525
152	0x3c36cb7b	0.011156912
153	0x3c325b2c	0.010885995
154	0x3cbc3ad8	0.022977278
155	0x3b4fde6a	0.0031718262
156	0x00000000	0.0
157	0x3aa9950a	0.0012938094
158	0x3c54f050	0.012996748
159	0xb8c7e0fa	-9.5309646e-05
160	0x3c49d960	0.012319893
161	0xba96fe5b	-0.0011519896
162	0x3ad248fd	0.0016043481
163	0x00000000	0.0
164	0xb9a1c3e1	-0.00030854254
165	0x80000004	-6e-45
166	0x80000004	-6e-45
167	0x80000004	-6e-45
168	0x00000000	0.0
169	0x00000000	0.0
170	0x00000000	0.0
171	0x00000004	6e-45
172	0x80000004	-6e-45
173	0x80000004	-6e-45
174	0x80000004	-6e-45
175	0x80000004	-6e-45
176	0x80000004	-6e-45
177	0x80000004	-6e-45
178	0x00000000	0.0
179	0x80000004	-6e-45
180	0xbb528578	-0.003212301
181	0xb9ec7898	-0.00045103277
182	0xb9d210eb	-0.00040066926
183	0x3b425706	0.002965392
184	0xbb546ec0	-0.0032414645
185	0x3aecd31c	0.0018068287
186	0x80000004	-6e-45
187	0xb95abc1c	-0.00020860176
188	0xbb590872	-0.0033116606
189	0x3babc89d	0.005242421
190	0xbb40d2db	-0.0029422555
191	0x3a4aee73	0.000774122
192	0x3bca3349	0.0061706644
193	0x80000004	-6e-45
194	0x381f63fa	3.8001665e-05
195	0x3b8ab435	0.004232908
196	0xb905f400	-0.00012774765
197	0x3b929f3b	0.004474548
198	0x3bf533f5	0.0074830004
199	0x3bf97ee2	0.0076140026
200	0x3b51ba62	0.0032001962
201	0x00000000	0.0
202	0x37f58bc6	2.9271363e-05
203	0x3b3ea9cf	0.0029092913
204	0x3bb12817	0.0054063904
205	0x3b278066	0.002555871
206	0xb7df0868	-2.6587586e-05
207	0x3bf053ea	0.007334222
208	0x00000000	0.0
209	0xb9a97954	-0.00032324588
210	0xbb976545	-0.0046202266
211	0xb91eabb4	-0.00015132019
212	0xbafd61f9	-0.0019331566
213	0x3abbb018	0.0014319448
214	0xbbb36f53	-0.0054759174
215	0x3affa466	0.0019503951
216	0x80000004	-6e-45
217	0xbaa8a89d	-0.0012867633
218	0xbb921903	-0.004458548
219	0x3bd248c3	0.0064173653
220	0xbb959f62	-0.004566119
221	0x3a2100dd	0.0006141791
222	0x3be8c7e6	0.007103908
223	0x80000004	-6e-45
224	0x3683c587	3.9270994e-06
225	0xba3f3890	-0.00072945
226	0xb89da100	-7.516332e-05
227	0xbb75a920	-0.003748484
228	0x3b46d0bc	0.0030336818
229	0xbb3b532f	-0.0028583517
230	0xba98a968	-0.0011647167
231	0x00000004	6e-45
232	0xbb675ead	-0.0035304234
233	0x3a9550b7	0.0011391853
234	0x3610bd47	2.1567846e-06
235	0xbb849606	-0.0040462045
236	0x3b17815b	0.0023117873
237	0x3bc7276c	0.0060776975
238	0x00000000	0.0
239	0x3b356ed1	0.002768446
240	0x3b35693a	0.0027681128
241	0xb9716a88	-0.00023023237
242	0x3b636fd8	0.0034704115
243	0x3bcca07a	0.0062447162
244	0x3baf77d4	0.005354861
245	0x3ac469f4	0.001498519
246	0x00000000	0.0
247	0xb6b2330e	-5.310757e-06
248	0x3b206e58	0.0024479833
249	0x3b3efd14	0.0029142546
250	0x3ae413e9	0.0017400953
251	0x3944b6c7	0.00018760106
252	0x3b985613	0.0046489327
253	0x00000000	0.0
254	0xb95e7596	-0.00021215374
255	0xbbc45b50	-0.0059923306

exp_avg_sq f4 [20, 15]
0	0x3a2863f4	0.00064235856
1	0x33f7a4c6	1.1531806e-07
2	0x39cbe4aa	0.00038889545
3	0x3a8d20eb	0.0010767257
4	0x3ae877fd	0.0017735955
5	0x38a36507	7.7912635e-05
6	0x1ba43102	2.7163195e-22
7	0x37c7db74	2.382484e-05
8	0x3a086584	0.0005203115
9	0x38b7e4e8	8.768757e-05
10	0x39b0f06d	0.00033748467
11	0x34d6d12d	4.0012802e-07
12	0x39fca2a5	0.00048186365
13	0x215830d6	7.324828e-19
14	0x3595ff36	1.1175641e-06
15	0x39e36eba	0.00043379312
16	0x34370b7f	1.7047385e-07
17	0x3991bfe3	0.00027799522
18	0x3a47fdfa	0.0007629093
19	0x3a9c69eb	0.0011933421
20	0x3887deb6	6.478785e-05
21	0x00000000	0.0
22	0x37c95551	2.4000796e-05
23	0x39b54cb4	0.00034580159
24	0x38e3a551	0.00010854996
25	0x396977fe	0.00022265312
26	0x359e468b	1.1792448e-06
27	0x39bfe3f0	0.00036600186
28	0x00000000	0.0
29	0x364382d3	2.9133414e-06
30	0x252921ca	1.4669862e-16
31	0x266d85c3	8.2407174e-16
32	0x281c75f1	8.685314e-15
33	0x247cc18a	5.4807723e-17
34	0x25a3bbba	2.84032e-16
35	0x2a2d42e9	1.5388701e-13
36	0x1ac6ff77	8.2303606e-23
37	0x293b5816	4.1598743e-14
38	0x248ccefb	6.106596e-17
39	0x2a18dce8	1.3576954e-13
40	0x29921d6f	6.4888084e-14
41	0x28e495f5	2.5378118e-14
42	0x29e02f4f	9.955805e-14
43	0x228c2e3d	3.7996033e-18
44	0x29745fe2	5.426205e-14
45	0x3c249a6d	0.010046584
46	0x350ec8d3	5.319136e-07
47	0x3bb91101	0.005647779
48	0x3c7781dd	0.015106645
49	0x3cdc1744	0.026866563
50	0x3a8d7ace	0.0010794045
51	0x1ad71f61	8.897261e-23
52	0x3761f983	1.3469139e-05
53	0x3c015516	0.007893821
54	0x3a888dc8	0.0010418231
55	0x3ba40fbb	0.005006758
56	0x35942708	1.1038219e-06
57	0x3bdcf2b0	0.006742798
58	0x20cdd68b	3.4870323e-19
59	0x3682c3df	3.8971043e-06
60	0x3ad7de38	0.0016469425
61	0x363e1c83	2.8328802e-06
62	0x3a767a27	0.00094023574
63	0x3b211570	0.0024579428
64	0x3b8d9aa2	0.004321412
65	0x398f7d05	0.00027368232
66	0x1714eee2	4.812289e-25
67	0x38b8f8ef	8.820171e-05
68	0x3aa3f34b	0.001250842
69	0x39f45834	0.00046605023
70	0x3a559827	0.00081479776
71	0x3747bafb	1.1904859e-05
72	0x3aa421ed	0.0012522318
73	0x00000000	0.0
74	0x381a887c	3.6843572e-05
75	0x3c01133f	0.007878124
76	0x36f325eb	7.2463786e-06
77	0x3b86faeb	0.004119267
78	0x3c1e8d75	0.009677281
79	0x3ca1f1f0	0.019768685
80	0x3a8513f7	0.0010153045
81	0x00000000	0.0
82	0x38d464df	0.000101277365
83	0x3bbd3b46	0.005774888
84	0x3abfa37d	0.0014620867
85	0x3b79e961	0.003813349
86	0x37edac9e	2.8332983e-05
87	0x3b988a39	0.0046551493
88	0x20ba92b4	3.1606706e-19
89	0x387d8082	6.0439583e-05
90	0x3ddb05c6	0.106944606
91	0x36bda9b6	5.652396e-06
92	0x3d70a9a7	0.058755543
93	0x3e20174f	0.15633892
94	0x3e90c6d0	0.28276682
95	0x3c434ee3	0.0119206635
96	0x00000000	0.0
97	0x39857d77	0.00025461215
98	0x3da8ab52	0.08235802
99	0x3c4356ae	0.0119225215
100	0x3d561489	0.052265678
101	0x382229dc	3.8662794e-05
102	0x3d952339	0.07282109
103	0x00000000	0.0
104	0x38a8f5a2	8.056617e-05
105	0x373fec50	1.1439508e-05
106	0x3788d53d	1.631176e-05
107	0x3852dd29	5.0273873e-05
108	0x3900e681	0.000122929
109	0x38ae3ddb	8.308488e-05
110	0x3a34a096	0.0006890384
111	0x00000000	0.0
112	0x34b9234b	3.4484614e-07
113	0x35b4eeee	1.3480583e-06
114	0x3aef5ae8	0.0018261345
115	0x38516ead	4.9932558e-05
116	0x3899b198	7.328688e-05
117	0x3a4e857b	0.00078781665
118	0x00000000	0.0
119	0x398fb7fe	0.0002741217
120	0x39ca7db0	0.00038622087
121	0x36844961	3.942449e-06
122	0x3995ba51	0.0002855831
123	0x3a0cd5cd	0.0005372435
124	0x3a803283	0.0009780679
125	0x38d6a3e9	0.00010234846
126	0x00000000	0.0
127	0x38ef88c7	0.00011421885
128	0x399491d8	0.00028337422
129	0x396837a0	0.00022145966
130	0x395fd390	0.0002134575
131	0x3700b13f	7.670663e-06
132	0x39831c46	0.00025007332
133	0x1ebb489b	1.9829424e-20
134	0x37c089e0	2.2952387e-05
135	0x3c31b86e	0.010847194
136	0x36564e27	3.1933976e-06
137	0x3ba8ee28	0.0051553436
138	0x3c331843	0.010931077
139	0x3cd34a03	0.025792127
140	0x3a6adba8	0.0008959123
141	0x1a5882cc	4.477341e-23
142	0x37f126a1	2.8747427e-05
143	0x3bfaa9e5	0.0076496475
144	0x3a4ac444	0.00077349343
145	0x3ba6bc4a	0.005088364
146	0x34d283d9	3.921148e-07
147	0x3b916f12	0.0044382894
148	0x1e244e43	8.698272e-21
149	0x367e6f69	3.7913799e-06
150	0x3cb9133d	0.022592181
151	0x368ab56c	4.133841e-06
152	0x3c5687c0	0.013093889
153	0x3d140aa9	0.03614298
154	0x3d7c17c2	0.061546095
155	0x3b30e263	0.0026990406
156	0x00000000	0.0
157	0x3934cda5	0.00017242746
158	0x3c930cf8	0.01795052
159	0x3b3f0f40	0.0029153377
160	0x3c394707	0.011308438
161	0x378538e7	1.5881333e-05
162	0x3c88f99f	0.016720591
163	0x00000000	0.0
164	0x384d8a96	4.9004877e-05
165	0x1afa5c72	1.0354693e-22
166	0x210d1320	4.779797e-19
167	0x20ee61e4	4.0383547e-19
168	0x00000000	0.0
169	0x00000000	0.0
170	0x00000000	0.0
171	0x1ae444b9	9.440962e-23
172	0x21e3ac54	1.5427733e-18
173	0x1838173a	2.379317e-24
174	0x21534525	7.1581093e-19
175	0x1b83f77c	2.1832065e-22
176	0x1f47d687	4.2317342e-20
177	0x219e734d	1.0737016e-18
178	0x00000000	0.0
179	0x1c9cf3db	1.0386249e-21
180	0x3a2c79fa	0.0006579455
181	0x3614c375	2.216749e-06
182	0x39fc10ae	0.00048077613
183	0x3ab89680	0.0014082938
184	0x3afcb730	0.0019280668
185	0x3940550f	0.00018342234
186	0x1af6fd2a	1.02152224e-22
187	0x38420a63	4.6262878e-05
188	0x3a0ff801	0.00054919726
189	0x39d55584	0.0004069024
190	0x39be7d15	0.00036332817
191	0x372f78c4	1.0458931e-05
192	0x3a49d38b	0.0007699064
193	0x1f2525c1	3.4971338e-20
194	0x380dab59	3.37766e-05
195	0x3bbac5fc	0.005699871
196	0x35a6ee91	1.2437396e-06
197	0x3b47d728	0.0030493233
198	0x3c01f426	0.007931745
199	0x3c73166f	0.014836892
200	0x3a2d167d	0.0006602777
201	0x00000000	0.0
202	0x3823e975	3.9079652e-05
203	0x3b8d5d95	0.0043141344
204	0x3a3cc14d	0.0007200435
205	0x3b358de0	0.0027702972
206	0x3696dce0	4.4960616e-06
207	0x3b78c9d6	0.00379621
208	0x00000000	0.0
209	0x37416432	1.1527025e-05
210	0x3b5a67be	0.0033325995
211	0x364befa0	3.0388837e-06
212	0x3b0a8a58	0.0021139588
213	0x3bc42bc3	0.005986662
214	0x3c1894f7	0.00931286
215	0x3a078804	0.0005170109
216	0x1509caec	2.7827007e-26
217	0x39344864	0.00017193105
218	0x3b2e34cf	0.002658177
219	0x3a472f0f	0.000759826
220	0x3ae12132	0.0017176031
221	0x36b8cda9	5.5075693e-06
222	0x3b4436c0	0.002993986
223	0x1f725384	5.1314576e-20
224	0x37961096	1.7889117e-05
225	0x3cb46d9d	0.022024924
226	0x3877259e	5.8924423e-05
227	0x3c452b2a	0.012034217
228	0x3cef954f	0.029246
229	0x3d68450e	0.05670648
230	0x3b510b0b	0.0031897451
231	0x1a9f0fe5	6.578654e-23
232	0x39959091	0.00028527205
233	0x3c875bd6	0.016523283
234	0x3b96ff55	0.0046080747
235	0x3c33174e	0.010930849
236	0x38add67a	8.289232e-05
237	0x3c63277e	0.013864396
238	0x00000000	0.0
239	0x398af03c	0.000265004
240	0x3b0c3721	0.0021395164
241	0x357e7751	9.4796e-07
242	0x3a97924e	0.0011563988
243	0x3b4d387d	0.0031314187
244	0x3bb9a5c3	0.0056655123
245	0x398cd69c	0.00026862777
246	0x00000000	0.0
247	0x37ec01cb	2.8134227e-05
248	0x3ad68dfc	0.0016369219
249	0x399e5c92	0.0003020508
250	0x3a896868	0.0010483386
251	0x3622cd44	2.4259361e-06
252	0x3acc1c3b	0.0015572378
253	0x00000000	0.0
254	0x36f85039	7.400315e-06
255	0x3ad3155a	0.0016104386

exp_avg f4 [20]
0	0xb93596f1	-0.00017317735
1	0x399f7c3d	0.00030419408
2	0x00000004	6e-45
3	0xbb0b6663	-0.0021270744
4	0x3a8a5e00	0.0010556579
5	0xbad006a3	-0.0015871119
6	0x3bcd7898	0.0062704794
7	0x3bf0ee64	0.007352637
8	0xb9301947	-0.00016794085
9	0x3b75d04b	0.0037508185
10	0x3b886771	0.004162722
11	0x80000004	-6e-45
12	0x398259ac	0.00024862343
13	0x3ae4a4c8	0.0017444128
14	0xb955d723	-0.00020393408
15	0xbb4c5ce4	-0.0031183297
16	0x3a72b9da	0.00092592614
17	0xb87d8b41	-6.044959e-05
18	0xbb3179a2	-0.0027080555
19	0xbaa37dcd	-0.0012473405

exp_avg_sq f4 [20]
0	0x38412671	4.6050587e-05
1	0x382482ee	3.9222585e-05
2	0x2afce9dc	4.4926465e-13
3	0x3a111377	0.00055342115
4	0x392c318f	0.0001642166
5	0x3a0e7491	0.000543424
6	0x3bbf96cb	0.0058468333
7	0x39a1f96a	0.0003089414
8	0x38ce10e5	9.825992e-05
9	0x3a08d440	0.0005219616
10	0x3ab3b83f	0.0013711526
11	0x223d14e2	2.5625332e-18
12	0x38e041a0	0.00010693376
13	0x39ab1e0b	0.00032638045
14	0x399cbe79	0.00029896552
15	0x3aec5ade	0.0018032452
16	0x390b7131	0.0001329824
17	0x39295498	0.0001614861
18	0x3a4d14d3	0.00078232324
19	0x394bce54	0.00019436452

exp_avg f4 [10, 20]
0	0x31ce6999	6.007394e-09
1	0x352ae0d8	6.3657126e-07
2	0x80000004	-6e-45
3	0xaab99bbe	-3.297067e-13
4	0x3a1229ca	0.0005575685
5	0xb8c45205	-9.3612856e-05
6	0x3a99aaec	0.0011723912
7	0xb48b0563	-2.5894687e-07
8	0x396f2653	0.00022807093
9	0x3548d13c	7.481028e-07
10	0x399e89e1	0.00030238836
11	0x00000004	6e-45
12	0x389b9db6	7.420352e-05
13	0x39f82e72	0.0004733685
14	0x37eb86b8	2.8076916e-05
15	0xb7aaffd8	-2.0384716e-05
16	0x3a2160f0	0.00061561074
17	0xb576e70e	-9.197837e-07
18	0x29c0ead3	8.567248e-14
19	0x371092a0	8.617208e-06
20	0xbb9f1ea5	-0.004855948
21	0xbb913cbb	-0.0044322885
22	0x00000004	6e-45
23	0x3a05698e	0.0005089276
24	0xbc15d066	-0.009143924
25	0xbb4f3940	-0.0031619817
26	0x39a99f03	0.00032352665
27	0x32e34c87	2.6461079e-08
28	0xbb05e08b	-0.0020428027
29	0xbab3ff1b	-0.0013732644
30	0xbbaa944b	-0.005205666
31	0x00000004	6e-45
32	0xbb0fb704	-0.0021929154
33	0xbbbb606c	-0.0057182815
34	0xbb77685b	-0.003775141
35	0xbb24f997	-0.0025173181
36	0xbbd623aa	-0.006535013
37	0xbb88e481	-0.0041776304
38	0xbb472c7a	-0.00303915
39	0x3aa0007f	0.0012207179
40	0x3c1c05ef	0.009522899
41	0x3c1efc81	0.009703756
42	0x00000004	6e-45
43	0x3b85eda5	0.0040871673
44	0x3cb16566	0.021654796
45	0x3cb28d5c	0.021795921
46	0x3c03596a	0.008016923
47	0x3a77b2e2	0.0009448958
48	0x3c4014cb	0.011723707
49	0x3afe1c03	0.001938701
50	0x3c753615	0.014966507
51	0x00000004	6e-45
52	0x3bea558b	0.007151311
53	0x3badb406	0.0053010015
54	0x3bf309ef	0.0074169557
55	0x3c506ddc	0.012721505
56	0x3ca1e5a3	0.01976282
57	0x3c15ee51	0.009151057
58	0x3be78445	0.0070653283
59	0x3c62c1c7	0.013840145
60	0x3bc5a540	0.006031662
61	0x3be32fe0	0.0069331974
62	0x80000004	-6e-45
63	0x3ad54e77	0.0016273995
64	0x3c5cbf94	0.01347341
65	0x3c11d8d7	0.008901796
66	0x3a356766	0.00069200096
67	0xafdfa435	-4.068014e-10
68	0x3ba206be	0.0049446514
69	0xb9e1389c	-0.00042957522
70	0x3c07ff41	0.008300603
71	0x80000004	-6e-45
72	0x3b860969	0.0040904772
73	0x3bc4e8c8	0.006009195
74	0x3bb6838b	0.0055698804
75	0x3bcb1e3b	0.006198672
76	0x3c2f7a3c	0.010710295
77	0x3b92b0d9	0.0044766483
78	0x3b57eb02	0.0032946472
79	0x3b7f8e99	0.0038994907
80	0xae458423	-4.4909975e-11
81	0x3498a09f	2.8429073e-07
82	0x00000004	6e-45
83	0xadd39ade	-2.4056698e-11
84	0xb9c40085	-0.0003738442
85	0x376d3cc9	1.41404535e-05
86	0xba577900	-0.00082196295
87	0x3601965f	1.9310025e-06
88	0xb937aaef	-0.00017515918
89	0xb51dc04c	-5.8766886e-07
90	0xb9568f52	-0.00020462021
91	0x00000004	6e-45
92	0xb855dda0	-5.098956e-05
93	0xb99e47ef	-0.00030189703
94	0x35543b73	7.9062664e-07
95	0xb7591cb5	-1.2940892e-05
96	0xb9eedcf4	-0.0004555952
97	0x35d7165f	1.6025259e-06
98	0x80000004	-6e-45
99	0xb7f11cab	-2.8742788e-05
100	0xbc658dde	-0.014010875
101	0xbc8dbb14	-0.01730112
102	0x00000004	6e-45
103	0xbbcecd9b	-0.006311131
104	0xbd04a591	-0.03238446
105	0xbcaf16ad	-0.021373117
106	0xbb8da41d	-0.0043225423
107	0x34104477	1.3435952e-07
108	0xbc635274	-0.013874639
109	0xba9d955b	-0.0012022661
110	0xbc91a6dd	-0.017779762
111	0x00000004	6e-45
112	0xbc429e9d	-0.011878637
113	0xbc5e2359	-0.013558232
114	0xbc7b2a75	-0.015329947
115	0xbc801c02	-0.015638355
116	0xbcdb32fb	-0.026757708
117	0xbc51f5c9	-0.012814947
118	0xbc083c4a	-0.008315155
119	0xbc7a0c25	-0.015261685
120	0x3c35021e	0.011047868
121	0x3c20a7e2	0.009805651
122	0x00000004	6e-45
123	0x3b2951e9	0.0025836176
124	0x3c4f1fa2	0.012641819
125	0x3c80425a	0.015656639
126	0xbc265de8	-0.010154225
127	0x3a616873	0.0008598633
128	0x3bb07ced	0.005385986
129	0x39a95e60	0.00032304507
130	0x3c1e8294	0.009674687
131	0x00000004	6e-45
132	0x3b796aa0	0.0038057938
133	0x3a87c62b	0.0010358741
134	0x3bfbbc51	0.007682361
135	0x3c01622e	0.007896943
136	0x3bfe3ed0	0.0077589527
137	0x3bf9ad5d	0.0076195435
138	0x3bef3ce0	0.007300958
139	0x3b92faeb	0.004485478
140	0x377a0f79	1.4904764e-05
141	0x3b383217	0.0028106028
142	0x00000004	6e-45
143	0x3a8c433d	0.0010701191
144	0x3c5053e4	0.012715314
145	0x3c9c21d8	0.019059107
146	0x3c1046df	0.0088059595
147	0x39a0f618	0.00030700932
148	0x3c121ec7	0.008918471
149	0xb5bb2c13	-1.3945413e-06
150	0x3c646e5b	0.013942326
151	0x00000004	6e-45
152	0x3af41fe1	0.0018625223
153	0x3a8ded2b	0.0010828128
154	0x3a9191c2	0.0011106061
155	0x3c1e5dd1	0.009665922
156	0x3c4d9657	0.012548051
157	0x37a88bfe	2.009235e-05
158	0x91674e89	-1.8246887e-28
159	0x3bb0aeed	0.0053919465
160	0xb9afa593	-0.00033501963
161	0xbaac62ef	-0.0013152043
162	0x00000004	6e-45
163	0xb8c9b36e	-9.617848e-05
164	0xbc02c8bc	-0.007982429
165	0xbb6c2db2	-0.0036037979
166	0xbc0a0f06	-0.008426433
167	0x382771a5	3.9921742e-05
168	0xbb82bc3c	-0.0039897244
169	0xb9a786f8	-0.00031953282
170	0xbbae3b5c	-0.005317135
171	0x00000004	6e-45
172	0xbaecad15	-0.0018056954
173	0xbba0164e	-0.0048854714
174	0xbabb9500	-0.0014311373
175	0xbb3ce825	-0.0028824892
176	0xbc0793d6	-0.008274993
177	0x371122d5	8.6507835e-06
178	0xb837e17f	-4.384061e-05
179	0xb8884db5	-6.4994594e-05
180	0xbc12e656	-0.008966049
181	0xbc4127fc	-0.011789318
182	0x00000004	6e-45
183	0xbba838f6	-0.0051337434
184	0xbcad26a4	-0.02113659
185	0xbc5e047e	-0.013550876
186	0xbb7d2869	-0.0038628823
187	0x334b329c	4.731065e-08
188	0xbc1d9af0	-0.0096194595
189	0xba465385	-0.0007565546
190	0xbc3127a1	-0.010812671
191	0x00000004	6e-45
192	0xbc0a7e4c	-0.008452963
193	0xbc099448	-0.008397169
194	0xbc29b816	-0.010358831
195	0xbc23af4a	-0.009990523
196	0xbc939314	-0.018014468
197	0xbc18e7dd	-0.009332624
198	0xbbac950f	-0.0052667926
199	0xbc536f1d	-0.012904909

exp_avg_sq f4 [10, 20]
0	0x308c62f5	1.0214466e-09
1	0x31d85cee	6.2969923e-09
2	0x2a2248f8	1.4413807e-13
3	0x31f41549	7.1037545e-09
4	0x374c3313	1.2171239e-05
5	0x32b76ed6	2.1354406e-08
6	0x382b2967	4.0808136e-05
7	0x30a7a1fd	1.2196889e-09
8	0x3648ce4a	2.9922398e-06
9	0x32a77f12	1.9499144e-08
10	0x3701cf1d	7.7372215e-06
11	0x1ce1364a	1.4903284e-21
12	0x335719b1	5.0081955e-08
13	0x36c76f91	5.94365e-06
14	0x33146945	3.4554677e-08
15	0x31b4ec9d	5.2655893e-09
16	0x372d8db8	1.03446e-05
17	0x34180a48	1.4159843e-07
18	0x30cd045a	1.491695e-09
19	0x3398f586	7.122712e-08
20	0x3b83becf	0.004020549
21	0x3bb6040a	0.0055546807
22	0x28d127f2	2.3220985e-14
23	0x3a200007	0.00061035197
24	0x3c9e746e	0.019342627
25	0x3c1445a3	0.009049806
26	0x397ce9ef	0.0002411974
27	0x34bb4259	3.4879739e-07
28	0x3b77aaab	0.0037790935
29	0x38d9d745	0.000103874634
30	0x3bd14d9a	0.0063874247
31	0x1f466760	4.201364e-20
32	0x3b139835	0.0022521142
33	0x3b61802a	0.0034408667
34	0x3b8a39ba	0.0042183073
35	0x3b9a385d	0.004706426
36	0x3c4aa4ab	0.012368361
37	0x3b32d340	0.002728656
38	0x3acb383d	0.0015504431
39	0x3b34083f	0.0027470735
40	0x3c420499	0.0118419165
41	0x3c816ef7	0.015799982
42	0x29e9fc0b	1.0391001e-13
43	0x3ae5f6f2	0.0017544909
44	0x3d5e6977	0.054299798
45	0x3cc9b05a	0.024620224
46	0x3b4b5bb4	0.003103
47	0x37e49b96	2.7252168e-05
48	0x3c319a59	0.010840022
49	0x390d8738	0.00013497181
50	0x3c915507	0.01774074
51	0x1f4d84c7	4.352027e-20
52	0x3bd9bc81	0.006644786
53	0x3c20b496	0.00980868
54	0x3c46bace	0.012129499
55	0x3c503cfb	0.012709851
56	0x3d125f53	0.03573544
57	0x3c0b2a69	0.008493998
58	0x3b9bc732	0.0047539705
59	0x3c0b4063	0.008499238
60	0x3be84218	0.007087957
61	0x3c1ba016	0.009498617
62	0x2a3a161f	1.6527793e-13
63	0x3a870f8c	0.0010304316
64	0x3d040237	0.032228675
65	0x3c6bc8d5	0.014391144
66	0x397cbd7b	0.0002410318
67	0x321da412	9.175908e-09
68	0x3bca81bf	0.0061800177
69	0x399fdcc3	0.00030491324
70	0x3c2717fa	0.010198588
71	0x2001306e	1.0942749e-19
72	0x3b7f00c5	0.003891037
73	0x3bc23b13	0.0059274524
74	0x3bee4c2b	0.0072722635
75	0x3bfc716d	0.007703951
76	0x3ca89880	0.02058053
77	0x3ba69842	0.0050840685
78	0x3b3b2d85	0.0028561067
79	0x3b94a659	0.0045364317
80	0x3172c40b	3.5327072e-09
81	0x3304a84b	3.0886707e-08
82	0x28ecfa62	2.630985e-14
83	0x33914eba	6.766409e-08
84	0x36b4afbc	5.384876e-06
85	0x339b0301	7.2182964e-08
86	0x3818345f	3.62884e-05
87	0x32f6f4bb	2.874946e-08
88	0x357564c6	9.1416257e-07
89	0x349e50fd	2.948872e-07
90	0x35eb4f84	1.7532006e-06
91	0x1ff54eda	1.03891985e-19
92	0x34811247	2.404142e-07
93	0x365c662a	3.2842022e-06
94	0x3259588c	1.2651196e-08
95	0x337e19ce	5.9162453e-08
96	0x36c686f2	5.9165695e-06
97	0x35703313	8.948129e-07
98	0x31bf12c3	5.5609646e-09
99	0x3579215f	9.280829e-07
100	0x3cad2926	0.021137785
101	0x3ce3a791	0.027789863
102	0x29c60ab9	8.7948264e-14
103	0x3b3c5f8e	0.0028743478
104	0x3dc023d7	0.09381836
105	0x3d298eb5	0.04139586
106	0x3a1862a6	0.00058130396
107	0x34a49cfc	3.0661602e-07
108	0x3c92b195	0.017906943
109	0x3a0c7047	0.0005357307
110	0x3cf3cbab	0.029760202
111	0x1d28e1f2	2.2351426e-21
112	0x3c376ab6	0.011194875
113	0x3c8e2abc	0.017354362
114	0x3cace266	0.021104049
115	0x3cb7c00e	0.022430446
116	0x3d7418e9	0.05959407
117	0x3c6d6426	0.014489209
118	0x3c0b6e51	0.008510188
119	0x3c475d0e	0.012168182
120	0x3baee883	0.005337776
121	0x3bd5f647	0.0065296027
122	0x291957cd	3.404898e-14
123	0x3a04908a	0.00050569384
124	0x3cd970b6	0.026543003
125	0x3bd510fe	0.00650227
126	0x3c505419	0.012715363
127	0x3718f60c	9.117193e-06
128	0x3ba0eaa8	0.0049107857
129	0x39938541	0.00028137307
130	0x3c0aa8e6	0.00846312
131	0x1ed8b80d	2.2946011e-20
132	0x3b3f5fd0	0.0029201396
133	0x3be937de	0.0071172556
134	0x3baf5d55	0.005351702
135	0x3b852971	0.004063778
136	0x3c992f0b	0.01869919
137	0x3b93e3a4	0.004513221
138	0x3b1134fe	0.002215683
139	0x3b237879	0.0024943633
140	0x351c0a78	5.812976e-07
141	0x37e42b48	2.7199872e-05
142	0x28c1565c	2.1464757e-14
143	0x36c2a10f	5.8004002e-06
144	0x3a2ec02b	0.00066662085
145	0x3a5440cb	0.0008096813
146	0x3a9e2b26	0.0012067303
147	0x372693d7	9.928793e-06
148	0x399c1140	0.0002976749
149	0x3515368b	5.5586196e-07
150	0x3a201a12	0.00061074004
151	0x1f8a5363	5.8583225e-20
152	0x3718e91c	9.114181e-06
153	0x38b1666b	8.4590945e-05
154	0x36fda7cb	7.5595212e-06
155	0x39705e41	0.00022923296
156	0x3a3bd429	0.0007165098
157	0x35bfaaaa	1.4280279e-06
158	0x32fb0135	2.9220795e-08
159	0x390a8f0f	0.00013213999
160	0x37fd9d32	3.023315e-05
161	0x38af9c67	8.3737825e-05
162	0x284f7c09	1.1517704e-14
163	0x37279e97	9.9909e-06
164	0x3a2b20e7	0.0006528035
165	0x39f58ed0	0.00046836445
166	0x39acd992	0.000329685
167	0x353a93c8	6.950545e-07
168	0x39389d77	0.00017606268
169	0x365c1882	3.279682e-06
170	0x39be8e56	0.00036345673
171	0x1eda49bd	2.3112145e-20
172	0x3812239e	3.4842284e-05
173	0x39118500	0.00013877824
174	0x38723945	5.7750633e-05
175	0x394227d0	0.00018516113
176	0x3a02885a	0.00049794244
177	0x376da877	1.4165525e-05
178	0x35a3c5cc	1.2202013e-06
179	0x385b3e1e	5.227152e-05
180	0x3ca9aabc	0.020711295
181	0x3ce186fb	0.027530184
182	0x29d92703	9.643503e-14
183	0x3b42be22	0.0029715379
184	0x3dbdaa7e	0.092610344
185	0x3d26384f	0.040581044
186	0x3a25e483	0.00063283014
187	0x329f2661	1.8527489e-08
188	0x3c90a28f	0.017655639
189	0x3a0c0027	0.0005340599
190	0x3cee6fe4	0.029106088
191	0x1d1922f9	2.0267462e-21
192	0x3c39c562	0.011338564
193	0x3c8b4ecb	0.017005345
194	0x3cac700b	0.02104952
195	0x3cb484fa	0.022036064
196	0x3d722db6	0.059125625
197	0x3c6f625d	0.014610854
198	0x3c08014e	0.008301092
199	0x3c54b837	0.012983373

exp_avg f4 [10]
0	0x3973a536	0.00023235832
1	0xb92bdebe	-0.00016390809
2	0x3ab3d4eb	0.0013720071
3	0x39d0c079	0.00039816255
4	0xb926e779	-0.00015917224
5	0xbadd206c	-0.0016870624
6	0xbb07d758	-0.002072772
7	0x3ac52954	0.0015042224
8	0xbafb31b5	-0.0019164594
9	0xba886d39	-0.0010408527

exp_avg_sq f4 [10]
0	0x35cffc25	1.5496086e-06
1	0x383a75dc	4.445562e-05
2	0x393dde4f	0.00018107261
3	0x388bc69c	6.6650304e-05
4	0x35f50b55	1.825722e-06
5	0x394311eb	0.00018603324
6	0x3a02b63b	0.0004986261
7	0x38209576	3.828617e-05
8	0x378fcd2d	1.714247e-05
9	0x394196d4	0.00018462102
