ver2/last_brain.pth (torch_old, 11545 bytes, 24 tensors)

fc1.weight f4 [15, 8]
0.3797273 0.2828181 0.5432242 -0.22617245 -0.31592974 -0.13377525 1.155233 -0.9998393
0.40873256 1.3540318 -0.018712826 -0.45548066 -1.8351295 0.29556665 -0.4381416 0.24795926
0.7759601 1.424432 -0.518072 -1.191265 -1.5727878 0.30934924 -0.061799727 -0.008277168
1.672717 -0.53599155 1.001099 -1.8290755 0.4823667 -1.0944495 0.6642927 -0.47784448
1.5516266 1.3378813 0.184997 -1.808638 -1.2245023 -0.0012041518 -0.1483179 0.23312446
0.10862528 0.42396855 -0.0658518 -0.4545962 -0.9208241 0.13865557 1.0250032 -1.1405617
2.0724952 0.13182668 1.4244071 -1.5234052 -0.23257694 -1.7056006 0.10572442 -0.42249656
0.33689782 -0.6415717 1.0509115 -0.33132097 0.5367357 -0.47568974 -0.43523175 0.124936394
0.11227097 1.2729585 -1.173508 -0.110020496 -1.2205622 0.8784044 0.76928693 -0.328464
0.28740263 1.0678653 0.13043246 -0.325096 -1.3265136 0.2479677 -0.3243055 0.6483134
0.15191357 1.1915281 -0.9290493 -0.35270423 -1.1188076 1.037029 0.45335224 -0.8515173
0.64186746 0.825282 -0.22128819 -0.6627726 -0.66395104 0.17833586 -0.39216113 0.54450357
0.79645455 0.93084407 -0.034455765 -0.94800615 -1.0114843 0.25640798 0.4989661 -0.6064574
1.4241613 1.3543262 0.38040692 -1.3148226 -1.4562607 -0.41568017 -0.05242231 0.10772903
0.009282937 0.69108576 0.18328235 -0.27553463 -0.7232229 -0.12950462 -0.58522403 0.44787472
00000000: 9e6b c23e 89cd 903e be10 0b3f c099 67be
00000010: 8bc1 a1be 61fc 08be adde 933f 78f5 7fbf
00000020: 6545 d13e ea50 ad3f a44b 99bc c334 e9be
00000030: 86e5 eabf 8354 973e 1954 e0be 08e9 7d3e
00000040: 52a5 463f ca53 b63f 5ea0 04bf 5f7b 98bf
00000050: 1c51 c9bf 0663 9e3e b621 7dbd f59c 07bc
00000060: 971b d63f be36 09bf 0324 803f 251f eabf
00000070: c5f8 f63e ec16 8cbf 160f 2a3f 08a8 f4be
00000080: b39b c63f b23f ab3f db6f 3d3e 7381 e7bf
00000090: 7ebc 9cbf a1d4 9dba a6e0 17be 2eb8 6e3e
000000a0: ee76 de3d 6812 d93e 4fdd 86bd d5c0 e8be
000000b0: 21bb 6bbf bafb 0d3e 4e33 833f edfd 91bf
000000c0: c3a3 0440 93fd 063e f952 b63f f1fe c2bf
000000d0: a628 6ebe 1f51 dabf 0b86 d83d 7851 d8be
000000e0: df7d ac3e 0b3e 24bf 4584 863f e7a2 a9be
000000f0: 8367 093f 9b8d f3be b2d6 debe a7de ff3d
00000100: 53ee e53d 4ef0 a23f 8335 96bf 6d52 e1bd
00000110: 623b 9cbf 1cdf 603f fdef 443f 6f2c a8be
00000120: 7026 933e cfaf 883f 1690 053e fc72 a6be
00000130: 33cb a9bf 3feb 7d3e 5f0b a6be def7 253f
00000140: 3b8f 1b3e fe83 983f 2dd6 6dbf a695 b4be
00000150: 1635 8fbf 5ebd 843f c91d e83e 0afd 59bf
00000160: 6d51 243f ae45 533f 5f99 62be 77ab 29bf
00000170: b2f8 29bf ad9d 363e 58c9 c8be 9664 0b3f
00000180: 72e4 4b3f cc4b 6e3f 7d21 0dbd 88b0 72bf
00000190: 5178 81bf e847 833e 7c78 ff3e cb40 1bbf
000001a0: eb4a b63f 905a ad3f b2c4 c23e 1b4c a8bf
000001b0: c066 babf 08d4 d4be c7b8 56bd 0aa1 dc3d
000001c0: 7617 183c ffea 303f 5eae 3b3e e012 8dbe
000001d0: 2325 39bf dc9c 04be 3ed1 15bf d64f e53e

fc1.bias f4 [15]
-0.8249129 -0.4079753 0.20259297 0.40961552 0.08629633 0.4231038 0.109496735 -0.3669069
0.65953815 -0.3936428 0.41005337 0.9137304 0.9339883 -0.122181855 0.2752363
00000000: 7e2d 53bf 23e2 d0be 8874 4f3e 20b9 d13e
00000010: 21bc b03d 10a1 d83e d33f e03d 39db bbbe
00000020: 7ed7 283f 8d8b c9be 84f2 d13e 3cea 693f
00000030: db19 6f3f 7b3a fabd c6eb 8c3e

fc2.weight f4 [20, 15]
0.047993585 1.1730051 0.92485946 -0.4180098 0.4289836 -0.6720878 -0.66165733 -1.5876352
0.31596577 1.3919456 0.20035227 0.52253157 -0.28573337 0.27061337 0.37967244 1.5245435
0.15302323 -1.6508532 0.7250018 -0.8002424 0.28997332 0.7937341 -0.13747829 -0.0960323
-0.82602197 -0.5496068 -0.3231436 0.14586705 -0.73436373 0.28024518 1.5020837 0.528312
0.15648912 0.13523205 0.6447662 -1.1611117 0.0010166744 -1.6796753 -0.91371715 0.99476147
-0.7688812 -0.09702303 -0.6022551 0.6603446 -0.057526182 0.44659922 0.5575988 -0.21963137
0.838027 -0.019396994 1.2079893 0.93168586 1.8665259 0.53376865 0.5872332 0.33435112
-0.015413849 0.006327484 0.7357867 0.13668914 1.2962662 0.15789075 0.22846907 0.4765516
0.5576472 -0.2511568 0.29780853 -2.1904037 0.18322635 0.5954478 0.3917745 0.51707155
0.35793647 0.6499021 -0.029605115 1.3422458 0.07513017 0.6106055 0.7679848 1.086412
-0.2953202 0.97219074 -1.3846786 0.05492604 0.6775065 0.011733996 0.642617 0.32043293
0.6718141 0.09931423 -2.2033873 0.3381317 0.16638646 0.08971566 -0.025785 0.4808374
0.3158659 2.0031242 0.000657337 0.24076189 0.13876246 0.32104856 -0.05451359 0.036904823
0.18309389 -0.44808322 0.93803626 0.79744077 -0.75601834 0.39482445 0.15057667 -1.142365
-1.6714463 0.8225865 0.94825685 0.5532438 -0.031780098 0.2718012 0.556738 -0.0210363
1.5133926 0.24639921 0.42654225 0.30661163 1.0367517 -0.21053343 0.4048966 -2.0986543
-0.25475025 0.87633806 -0.06778939 0.44967607 0.020318024 0.7959847 -0.1158445 -0.18040326
-0.015179262 0.04013875 -0.0679605 -0.012273598 -0.05221848 -0.07627359 0.12793568 0.122547485
0.07906991 0.018356126 -0.19571108 -0.06089483 -0.06482501 0.13787296 1.7065868 0.62913007
0.0012363329 0.47129178 0.5014591 -0.43076402 0.36624745 -1.1134435 -0.45052618 0.5780237
-0.3924691 0.16964367 -0.017270684 0.8185144 -0.19646665 0.13110238 0.20387544 -0.16212273
-0.14490895 -0.27714103 -0.033835765 -0.19355115 -0.03550276 0.04678287 0.17662913 -0.21825023
0.042832904 0.008774679 -0.02627241 -0.16031124 -2.1466925 0.51868623 0.5145222 -0.47459576
-0.45751286 0.98980445 -0.27100423 0.7290157 0.9316146 -0.18905492 0.95790434 0.5473662
0.30611932 -0.48252052 0.23007496 -0.9014543 -0.7751506 -1.1067123 1.1623152 -0.26579827
0.47292805 1.0456526 2.1016943 -0.73161525 -0.9041065 -0.6474652 0.23633474 -0.13487609
-0.018000774 0.13626899 -0.6782396 0.6443481 0.32236934 -0.48835874 -0.055035755 0.43997648
-0.9104457 0.3458303 0.8785936 0.6405035 0.81082153 0.082170546 0.43698868 0.3632331
0.26077637 0.19837016 -0.07079591 0.24007794 -0.1718478 -0.12736897 -0.028917685 -0.19004622
0.1993264 -0.1723139 -0.19102547 -0.081956655 -0.07301676 0.055357784 0.060575187 0.010145187
-0.20179784 -0.3214882 -0.18907958 0.92398006 0.4471274 1.5150304 1.0539036 1.6169001
1.1649927 0.06997249 0.98637944 0.117808916 1.1440868 0.6102728 0.24466679 -0.05327217
00000000: ec94 443d 0825 963f 97c3 6c3f 6105 d6be
00000010: bda3 db3e f20d 2cbf 6062 29bf a137 cbbf
00000020: 44c6 a13e 462b b23f 2529 4d3e a1c4 053f
00000030: a54b 92be d68d 8a3e 6d64 c23e 3e24 c33f
00000040: 1fb2 1c3e 284f d3bf b899 393f b0dc 4cbf
00000050: 6277 943e 2832 4b3f 1cc7 0cbe 95ac c4bd
00000060: 2d76 53bf 08b3 0cbf 1473 a5be 2c5e 153e
00000070: 43ff 3bbf 4c7c 8f3e 4744 c03f 753f 073f
00000080: af3e 203e 457a 0a3e 660f 253f 4f9f 94bf
00000090: ef41 853a 9aff d6bf 5ee9 69bf b0a8 7e3f
000000a0: 66d5 44bf 03b4 c6bd 642d 1abf 580c 293f
000000b0: 93a0 6bbd a7a8 e43e ccbe 0e3f 0ce7 60be
000000c0: f088 563f 72e6 9ebc 659f 9a3f f782 6e3f
000000d0: 52ea ee3f 10a5 083f ea54 163f 1230 ab3e
000000e0: 5e8a 7cbc c856 cf3b 845c 3c3f 3df8 0b3e
000000f0: 0dec a53f 1dae 213e ccf3 693e 92fe f33e
00000100: f8c1 0e3f a097 80be 5c7a 983e 932f 0cc0
00000110: b09f 3b3e 446f 183f ab96 c83e cd5e 043f
00000120: 7343 b73e fc5f 263f 6d86 f2bc b6ce ab3f
00000130: d9dd 993d a450 1c3f a79a 443f 8c0f 8b3f
00000140: 3634 97be 7ee1 783f 263d b1bf 21fa 603d
00000150: 1171 2d3f f23f 403c 8c82 243f c90f a43e
00000160: 02fc 2b3f 4265 cb3d 4c04 0dc0 991f ad3e
00000170: 3661 2a3e d8bc b73d 103b d3bc 5230 f63e
00000180: 2db9 a13e 3033 0040 2451 2c3a 498a 763e
00000190: bf17 0e3e 7a60 a43e a449 5fbd 8329 173d
000001a0: f77c 3b3e 2a6b e5be 2523 703f 1425 4c3f
000001b0: 6b8a 41bf 6e26 ca3e c530 1a3e 0439 92bf
000001c0: f4f1 d5bf 0795 523f f6c0 723f 63a1 0d3f
000001d0: d92b 02bd 8729 8b3e 6286 0e3f 5254 acbc
000001e0: d9b6 c13f 1350 7c3e bf63 da3e 33fc 9c3e
000001f0: 48b4 843f 1396 57be 9b4e cf3e 5a50 06c0
00000200: a06e 82be b157 603f 2ad5 8abd f13b e63e
00000210: fc71 a63c a7c5 4b3f e23f edbd a2bb 38be
00000220: 70b2 78bc 8868 243d e02e 8bbd 3417 49bc
00000230: 0be3 55bd 5435 9cbd 9201 033e 2dfa fa3d
00000240: 68ef a13d 965f 963c 7c68 48be db6c 79bd
00000250: fac2 84bd 922e 0d3e 7071 da3f ab0e 213f
00000260: 730c a23a 284d f13e a05f 003f 1a8d dcbe
00000270: c984 bb3e 5185 8ebf 5eab e6be 5cf9 133f
00000280: b6f1 c8be 12b7 2d3e 407b 8dbc 298a 513f
00000290: 8e2e 49be b43f 063e b9c4 503e 8003 26be
000002a0: 0363 14be 6ee5 8dbe 5f97 0abd 4632 46be
000002b0: 586b 11bd 659f 3f3d 44de 343e fd7c 5fbe
000002c0: 8e71 2f3d acc3 0f3c 3d39 d7bc a128 24be
000002d0: 6963 09c0 9fc8 043f bab7 033f 37fe f2be
000002e0: 203f eabe d363 7d3f 11c1 8abe c6a0 3a3f
000002f0: 4b7e 6e3f 9d97 41be 3839 753f 3120 0c3f
00000300: acbb 9c3e ee0c f7be c598 6b3e b6c5 66bf
00000310: 4570 46bf c0a8 8dbf bfc6 943f b616 88be
00000320: a023 f23e f2d7 853f 2982 0640 234b 3bbf
00000330: 8673 67bf 48c0 25bf bc01 723e f51c 0abe
00000340: 5c76 93bc 198a 0b3e 1ca1 2dbf fff3 243f
00000350: 980d a53e 280a fabe 2c6d 61bd 9944 e13e
00000360: f812 69bf ab10 b13e 83eb 603f 0af8 233f
00000370: 0092 4f3f 0849 a83d fbbc df3e b0f9 b93e
00000380: 7b84 853e 8c21 4b3e 72fd 90bd fed6 753e
00000390: dff8 2fbe 036d 02be c8e4 ecbc 7a9b 42be
000003a0: 381c 4c3e 0e73 30be 2e9c 43be e4d8 a7bd
000003b0: d089 95bd d8be 623d b01d 783d 0038 263c
000003c0: 18a4 4ebe 1a9a a4be 149e 41be f589 6c3f
000003d0: e2ed e43e 84ec c13f 50e6 863f 95f6 ce3f
000003e0: 7b1e 953f bd4d 8f3d 5d83 7c3f cd45 f13d
000003f0: 7071 923f d73a 1c3f ee89 7a3e eb33 5abd

fc2.bias f4 [20]
-0.12197683 0.9225853 -0.6730945 0.08242145 -0.082862176 -0.19119431 0.22474094 -0.5084909
-0.042395197 -0.219108 -0.18306303 -0.08435899 0.8799095 0.8257157 -0.049299944 -0.19091383
1.1220484 -0.31750214 -0.23824856 0.14346132
00000000: fdce f9bd 8d2e 6c3f ec4f 2cbf 94cc a83d
00000010: a5b3 a9bd 71c8 43be 7d22 663e 762c 02bf
00000020: 96a6 2dbd d95d 60be e074 3bbe 68c4 acbd
00000030: c041 613f 1b62 533f bdee 49bd ea7e 43be
00000040: 489f 8f3f a48f a2be 6ef7 73be 86e7 123e

fc3.weight f4 [10, 20]
-0.15531203 0.7016071 0.2935617 0.12656246 0.37115517 0.5619793 -0.029386675 -0.29135033
0.33817685 0.16260651 0.2612164 -0.1248921 -0.6801341 1.2823377 -0.6335497 -0.13845307
0.49180356 0.123738766 0.318664 -0.10403439 0.38846394 -0.687422 2.2012773 0.5834003
1.0851349 1.2817898 0.68343884 0.6292052 1.1849573 -0.03559308 1.1773511 0.18644118
-0.20903479 0.08635487 -0.078310035 0.10469678 -0.16489232 -0.085568205 2.2558904 0.55523205
-0.040456124 1.5496217 0.79425716 0.04270714 0.012246875 0.6103452 0.21967266 -0.2571771
0.018903622 0.16164596 0.42034155 0.056107704 -0.5706083 2.4690557 -0.68330884 0.16290987
-0.09873027 0.1300882 0.1753759 0.19246961 -0.30006704 -0.69460344 0.30082318 -0.670016
0.110799216 0.52093714 -0.2984857 -0.5328247 0.27316737 -0.06952114 0.23040095 0.012060736
-0.62653327 0.39640972 -0.7197849 0.14227751 -0.02805009 0.043200176 0.18616827 -0.33892158
0.47012076 0.7855865 -0.15372388 -0.75747174 -0.19087362 -0.5082776 -0.20553552 0.6223904
0.06543865 0.02961919 -0.4872908 -0.16746838 0.8452216 -1.582579 1.0169328 0.114363104
0.059403207 -0.051214136 -0.1504335 -0.31983134 0.272008 0.85887194 -0.3077073 -0.20427476
-0.12396785 -0.280925 0.11531803 0.6220236 -0.29837498 -0.019552575 -0.20991002 0.15786777
2.3097248 -0.6727951 2.6516628 0.14983559 0.4040854 0.0015789932 -0.24673282 0.18299079
-0.053758617 -1.2460438 0.18909536 -0.01932969 0.0017704614 0.3197205 -0.34402886 -0.3949526
0.21731137 -0.04814501 0.39577684 -0.013811044 -1.8685387 -0.2608238 -1.297484 0.1550889
-0.4646156 0.0019713894 0.34038103 -0.26299933 -0.49570277 0.027388144 0.22698265 -0.022432914
-0.40913323 -0.2617449 0.14334829 -0.56414694 -0.043092914 0.17720751 0.3266065 -0.14029622
-0.30205202 0.6617357 -0.08429122 0.22339696 0.036682043 0.12862015 0.45255938 0.021508737
0.5860243 -1.1945024 0.64382553 -0.08285165 0.3593096 0.2624495 -0.45241055 0.29334033
0.38298854 0.20666398 0.28941303 0.12498646 -0.905353 -0.36824682 -0.1065912 -0.15865482
-0.67480063 0.0054196073 0.10794029 -0.50738746 0.47702962 1.6155385 0.74406374 -0.014848381
-0.5124231 -0.5549047 0.3309188 0.18412393 -0.16023259 0.10751096 0.23948959 -0.13705412
-0.29172432 1.1649168 0.5395431 0.036453784 -0.27691874 0.15197374 -0.15431312 -0.010395766
00000000: 1e0a 1fbe 869c 333f b84d 963e 9799 013e
00000010: 0d08 be3e e0dd 0f3f 53bc f0bc df2b 95be
00000020: 8425 ad3e 5282 263e 28be 853e 6ec7 ffbd
00000030: 451d 2ebf a423 a43f 5030 22bf a4c6 0dbe
00000040: adcd fb3e c06a fd3d ee27 a33e fb0f d5bd
00000050: bfe4 c63e e3fa 2fbf bae1 0c40 b959 153f
00000060: b3e5 8a3f b011 a43f d9f5 2e3f 9813 213f
00000070: aeac 973f 0dca 11bd 71b3 963f 70ea 3e3e
00000080: 370d 56be d2da b03d 0361 a0bd 446b d63d
00000090: 88d9 28be 623e afbd 8260 1040 b023 0e3f
000000a0: 52b5 25bd 015a c63f 7054 4b3f afed 2e3d
000000b0: 1ea7 483c 953f 1c3f dff1 603e b8ac 83be
000000c0: c5db 9a3c 8586 253e 0237 d73e 31d1 653d
000000d0: 6313 12bf 0205 1e40 54ed 2ebf d8d1 263e
000000e0: 1933 cabd d735 053e bd95 333e c116 453e
000000f0: 63a2 99be 88d1 31bf 7f05 9a3e 2b86 2bbf
00000100: b3ea e23d 235c 053f 1ed3 98be 3367 08bf
00000110: 98dc 8b3e 1961 8ebd 3aee 6b3e 659a 453c
00000120: 7c64 20bf 37f6 ca3e d343 38bf 32b1 113e
00000130: 4dc9 e5bc abf2 303d e5a2 3e3e 2187 adbe
00000140: abb3 f03e 321c 493f cb69 1dbe abe9 41bf
00000150: 6074 43be 7b1e 02bf e777 52be fa54 1f3f
00000160: b304 863d f2a3 f23c 2e7e f9be d57c 2bbe
00000170: 7160 583f f391 cabf db2a 823f 3437 ea3d
00000180: c750 733d eac5 51bd 3d0b 1abe efc0 a3be
00000190: a244 8b3e 08df 5b3f d08b 9dbe 672d 51be
000001a0: dbe2 fdbd 67d5 8fbe dc2b ec3d f03c 1f3f
000001b0: 9bc4 98be b92c a0bc a7f2 56be 17a8 213e
000001c0: 88d2 1340 4d3c 2cbf d8b4 2940 806e 193e
000001d0: 48e4 ce3e 38f6 ce3a 87a7 7cbe f061 3b3e
000001e0: ff31 5cbd 5d7e 9fbf 37a2 413e 4c59 9ebc
000001f0: d40e e83a 68b2 a33e 8d24 b0be 3a37 cabe
00000200: df86 5e3e b433 45bd 43a3 ca3e b847 62bc
00000210: 472c efbf b28a 85be f513 a6bf a0cf 1e3e
00000220: 19e2 edbe 6d32 013b 6c46 ae3e d9a7 86be
00000230: c1cc fdbe 1a5d e03c 246e 683e 3bc5 b7bc
00000240: e979 d1be 6d03 86be e5c9 123e ef6b 10bf
00000250: 3282 30bd e375 353e f838 a73e d0a9 0fbe
00000260: 90a6 9abe 8367 293f e0a0 acbd 2cc2 643e
00000270: e93f 163d 00b5 033e ddb5 e73e 1733 b03c
00000280: b005 163f 74e5 98bf c0d1 243f 20ae a9bd
00000290: 6ef7 b73e c85f 863e 5ba2 e7be b430 963e
000002a0: 1317 c43e b99f 533e f22d 943e e7f8 ff3d
000002b0: 37c5 67bf d98a bcbe 7d4c dabd 6976 22be
000002c0: bcbf 2cbf f696 b13b cc0f dd3d 25e4 01bf
000002d0: 3a3d f43e f7c9 ce3f f67a 3e3f a046 73bc
000002e0: 292e 03bf 3c0e 0ebf 306e a93e fc8a 3c3e
000002f0: 0314 24be b52e dc3d c23c 753e ea57 0cbe
00000300: e45c 95be fe1b 953f 7f1f 0a3f 9050 153d
00000310: 4bc8 8dbe 019f 1b3e 4204 1ebe 0153 2abc

fc3.bias f4 [10]
-0.36158013 0.13920456 -0.04116757 -0.5711184 0.63477546 0.54339147 -0.5797323 -0.2750165
-0.77031547 -0.20293799
00000000: 0821 b9be a48b 0e3e 539f 28bd d134 12bf
00000010: a580 223f b41b 0b3f 5669 14bf f6ce 8cbe
00000020: 6533 45bf face 4fbe

fc4.weight f4 [3, 10]
-2.0903542 -1.2876439 -1.9048564 -3.1893454 -0.3166945 2.2275062 -4.18002 4.437867
-5.5658107 4.5765204 -2.0014296 -1.167343 -1.1920117 -2.0787842 0.93625385 0.5078649
-4.8344646 5.45643 -6.988334 3.2440932 -2.0195978 -1.9870477 -2.242487 -3.2649891
-0.8192749 3.3301468 -4.6651297 3.268473 -4.4180336 5.2677035
00000000: 5dc8 05c0 84d1 a4bf 56d2 f3bf 3c1e 4cc0
00000010: c825 a2be 768f 0e40 b9c2 85c0 0203 8e40
00000020: 1f1b b2c0 db72 9240 6c17 00c0 7f6b 95bf
00000030: d793 98bf cd0a 05c0 55ae 6f3f 6f03 023f
00000040: efb3 9ac0 139b ae40 6fa0 dfc0 399f 4f40
00000050: 1741 01c0 9457 febf e884 0fc0 95f5 50c0
00000060: 00bc 51bf 2021 5540 be48 95c0 a92e 5140
00000070: 8860 8dc0 0791 a840

fc4.bias f4 [3]
-1.4579887 -1.2348036 -1.3203219
00000000: 609f babf 0b0e 9ebf 4f00 a9bf

exp_avg f4 [15, 8]
-0.02038958 -0.016991291 -0.019521628 0.02038958 0.016991291 0.019521628 -0.009473987 0.009473987
-0.0031910473 -0.0019948804 -0.0034015048 0.0031910473 0.0019948804 0.0034015048 0.0009414314 -0.0009414314
-0.006488809 -0.0025883887 -0.004796225 0.006488809 0.0025883887 0.004796225 -0.0149039095 0.0149039095
0.0048225108 0.0025307797 0.0015457349 -0.0048225108 -0.0025307797 -0.0015457349 0.00022693405 -0.00022693405
-0.00054964924 0.006941691 -0.002696527 0.00054964924 -0.006941691 0.002696527 -0.01767831 0.01767831
-0.001409156 -0.009357235 9.142957e-06 0.001409156 0.009357235 -9.142957e-06 0.017039355 -0.017039355
0.0050183935 0.0008480581 0.0028530238 -0.0050183935 -0.0008480581 -0.0028530238 0.0017564183 -0.0017564183
0.0022868295 0.002098672 0.0046280515 -0.0022868295 -0.002098672 -0.0046280515 0.009313848 -0.009313848
-0.005931627 -0.01020858 -0.0034050143 0.005931627 0.01020858 0.0034050143 0.016012814 -0.016012814
-0.0019926673 0.0028150005 -0.0036672 0.0019926673 -0.0028150005 0.0036672 -0.01039696 0.01039696
-0.006041604 -0.008874556 -0.0038110085 0.006041604 0.008874556 0.0038110085 0.010041946 -0.010041946
-0.0011654461 -2.9054885e-05 0.00042308946 0.0011654461 2.9054885e-05 -0.00042308946 -0.006270534 0.006270534
-0.0013238165 -0.0041117943 0.00081044814 0.0013238165 0.0041117943 -0.00081044814 0.0045933486 -0.0045933486
-0.0008700499 0.0045838086 -0.004016889 0.0008700499 -0.0045838086 0.004016889 -0.010515271 0.010515271
-0.00031874565 -0.0018905274 0.0007536776 0.00031874565 0.0018905274 -0.0007536776 0.004536683 -0.004536683
00000000: 0c08 a7bc 5231 8bbc d2eb 9fbc 0c08 a73c
00000010: 5231 8b3c d2eb 9f3c c838 1bbc c838 1b3c
00000020: e420 51bb 8abc 02bb c8eb 5ebb e420 513b
00000030: 8abc 023b c8eb 5e3b 64ca 763a 64ca 76ba
00000040: 13a0 d4bb f5a1 29bb a729 9dbb 13a0 d43b
00000050: f5a1 293b a729 9d3b 872f 74bc 872f 743c
00000060: 2706 9e3b 70db 253b 429a ca3a 2706 9ebb
00000070: 70db 25bb 429a caba 25f5 6d39 25f5 6db9
00000080: 5616 10ba 2077 e33b 37b8 30bb 5616 103a
00000090: 2077 e3bb 37b8 303b 1ad2 90bc 1ad2 903c
000000a0: 6eb3 b8ba 174f 19bc b464 1937 6eb3 b83a
000000b0: 174f 193c b464 19b7 1e96 8b3c 1e96 8bbc
000000c0: 5671 a43b 3750 5e3a ccf9 3a3b 5671 a4bb
000000d0: 3750 5eba ccf9 3abb 9e37 e63a 9e37 e6ba
000000e0: a2de 153b e089 093b e9a6 973b a2de 15bb
000000f0: e089 09bb e9a6 97bb 1c99 183c 1c99 18bc
00000100: 185e c2bb e341 27bc a926 5fbb 185e c23b
00000110: e341 273c a926 5f3b 4e2d 833c 4e2d 83bc
00000120: 6997 02bb df7b 383b 6855 70bb 6997 023b
00000130: df7b 38bb 6855 703b 0358 2abc 0358 2a3c
00000140: a6f8 c5bb 9666 11bc 1dc2 79bb a6f8 c53b
00000150: 9666 113c 1dc2 793b f986 243c f986 24bc
00000160: e2c1 98ba e4ba f3b7 1bd2 dd39 e2c1 983a
00000170: e4ba f337 1bd2 ddb9 0d79 cdbb 0d79 cd3b
00000180: e983 adba 3bbc 86bb 4174 543a e983 ad3a
00000190: 3bbc 863b 4174 54ba cd83 963b cd83 96bb
000001a0: 0f14 64ba c633 963b 1ba0 83bb 0f14 643a
000001b0: c633 96bb 1ba0 833b 3e48 2cbc 3e48 2c3c
000001c0: 511d a7b9 93cb f7ba 7392 453a 511d a739
000001d0: 93cb f73a 7392 45ba 75a8 943b 75a8 94bb

exp_avg_sq f4 [15, 8]
0.010363112 0.010101595 0.009467009 0.010363112 0.010101595 0.009467009 0.0016575252 0.0016575252
0.0008591764 0.00091281126 0.00081661897 0.0008591764 0.00091281126 0.00081661897 0.00039236833 0.00039236833
0.0006567237 0.0004940467 0.0007280173 0.0006567237 0.0004940467 0.0007280173 0.0034793378 0.0034793378
0.00096122705 0.000950866 0.0009599917 0.00096122705 0.000950866 0.0009599917 0.00070941076 0.00070941076
0.00090762565 0.0010874959 0.00087710685 0.00090762565 0.0010874959 0.00087710685 0.0021701234 0.0021701234
0.0039465684 0.004300985 0.0035469998 0.0039465684 0.004300985 0.0035469998 0.0013350253 0.0013350253
0.0012644201 0.0013724513 0.0012400945 0.0012644201 0.0013724513 0.0012400945 0.00075435685 0.00075435685
0.008653683 0.0071108323 0.008333928 0.008653683 0.0071108323 0.008333928 0.009409097 0.009409097
0.0036014952 0.0038058625 0.003370845 0.0036014952 0.0038058625 0.003370845 0.0016244858 0.0016244858
0.00039672403 0.00045159852 0.00032283494 0.00039672403 0.00045159852 0.00032283494 0.00061056303 0.00061056303
0.003048762 0.0032162059 0.002854363 0.003048762 0.0032162059 0.002854363 0.0015979358 0.0015979358
0.0001649894 0.00016392954 0.00017239108 0.0001649894 0.00016392954 0.00017239108 0.00030497691 0.00030497691
0.0007648841 0.00081211573 0.0007121751 0.0007648841 0.00081211573 0.0007121751 0.0003408672 0.0003408672
0.0002858912 0.00037633852 0.00029038909 0.0002858912 0.00037633852 0.00029038909 0.00078624644 0.00078624644
0.00027351323 0.0002812341 0.00026380224 0.00027351323 0.0002812341 0.00026380224 0.00017506747 0.00017506747
00000000: 0bca 293c 2981 253c 841b 1b3c 0bca 293c
00000010: 2981 253c 841b 1b3c 5141 d93a 5141 d93a
00000020: 5a3a 613a ba49 6f3a 5f12 563a 5a3a 613a
00000030: ba49 6f3a 5f12 563a c9b6 cd39 c9b6 cd39
00000040: fb27 2c3a ea82 013a 6ad8 3e3a fb27 2c3a
00000050: ea82 013a 6ad8 3e3a 9a05 643b 9a05 643b
00000060: dbfa 7b3a 8943 793a f4a7 7b3a dbfa 7b3a
00000070: 8943 793a f4a7 7b3a c0f7 393a c0f7 393a
00000080: baed 6d3a 4f8a 8e3a a5ed 653a baed 6d3a
00000090: 4f8a 8e3a a5ed 653a a138 0e3b a138 0e3b
000000a0: 3752 813b 47ef 8c3b c874 683b 3752 813b
000000b0: 47ef 8c3b c874 683b 04fc ae3a 04fc ae3a
000000c0: e6ba a53a d3e3 b33a ab8a a23a e6ba a53a
000000d0: d3e3 b33a ab8a a23a 08c0 453a 08c0 453a
000000e0: 2dc8 0d3c fc01 e93b 078b 083c 2dc8 0d3c
000000f0: fc01 e93b 078b 083c 9d28 1a3c 9d28 1a3c
00000100: 1007 6c3b c76b 793b 65e9 5c3b 1007 6c3b
00000110: c76b 793b 65e9 5c3b b3ec d43a b3ec d43a
00000120: 66ff cf39 87c4 ec39 2c42 a939 66ff cf39
00000130: 87c4 ec39 2c42 a939 310e 203a 310e 203a
00000140: bdcd 473b fbc6 523b 4410 3b3b bdcd 473b
00000150: fbc6 523b 4410 3b3b d471 d13a d471 d13a
00000160: 0101 2d39 80e4 2b39 e1c3 3439 0101 2d39
00000170: 80e4 2b39 e1c3 3439 4fe5 9f39 4fe5 9f39
00000180: 8182 483a 2ae4 543a 43b1 3a3a 8182 483a
00000190: 2ae4 543a 43b1 3a3a 6cb6 b239 6cb6 b239
000001a0: abe3 9539 4d4f c539 5d3f 9839 abe3 9539
000001b0: 4d4f c539 5d3f 9839 1b1c 4e3a 1b1c 4e3a
000001c0: 5366 8f39 9a72 9339 f04e 8a39 5366 8f39
000001d0: 9a72 9339 f04e 8a39 5192 3739 5192 3739

exp_avg f4 [15]
-0.019697836 -0.0034303628 0.0150881205 0.002043422 0.035984065 -0.019401275 0.0032221207 0.003805993
-0.019273276 0.0109337 -0.0094457995 0.0073225116 -0.0016651626 0.01090956 -0.008178258
00000000: 5b5d a1bc f0cf 60bb 2a34 773c efea 053b
00000010: 0764 133d 6cef 9ebc 372a 533b f76d 793b
00000020: fde2 9dbc 4323 333c 8ec2 1abc aef1 ef3b
00000030: 9641 daba 03be 323c 1afe 05bc

exp_avg_sq f4 [15]
0.011206739 0.0012862807 0.008498593 0.0022218744 0.0062985686 0.0053810026 0.0026030054 0.019635713
0.005709856 0.0015996257 0.0052648904 0.0010052456 0.0012265682 0.0021626218 0.0005633728
00000000: 789c 373c 6b98 a83a af3d 0b3c de9c 113b
00000010: 3964 ce3b 1f53 b03b 2f97 2a3b 13db a03c
00000020: be19 bb3b 88aa d13a 1a85 ac3b 72c2 833a
00000030: cdc4 a03a c6ba 0d3b 4faf 133a

exp_avg f4 [20, 15]
-0.002955204 0.0010841183 0.00040436612 -0.0044093896 -0.0006841458 -0.002633011 -0.0041179145 -0.000571989
0.00031861197 0.0010598538 -0.00016429128 -0.00027594404 -0.0016460452 -0.000837681 0.00037164259 0.0048604356
0.0020255314 0.0043031736 0.01129423 0.0070830625 0.006661529 0.014460709 0.002304845 -0.00041395176
0.0011687906 0.0011876774 -0.004637668 0.004143562 0.009116699 -0.001984818 0.0012716536 0.007448751
0.010080634 0.0051094806 0.011049453 0.004337837 0.00712797 -0.00031473683 0.006462483 0.0056512933
0.0054395082 0.008560995 0.009567127 0.010296262 0.005184794 -0.00036826474 -0.0029038107 -0.0045171203
-0.0062006423 -0.0062361755 -0.0029733616 -0.0078495685 -0.0011267391 -0.0029897275 -0.002363875 -0.0024928541
-0.0067066867 -0.0062224064 -0.0056762877 -0.003978105 -0.0023195383 0.0051276367 0.005061019 -0.0006447087
0.004950456 -0.0013188125 -0.00037839767 0.00072950555 0.0047575906 0.0049137142 0.0020923405 0.013786383
0.005609387 0.0031870017 0.008980975 -0.003107109 0.0067640785 0.006789478 -0.00045006297 0.006932758
-0.0022957374 -0.00046781634 0.00059448695 0.0055525135 0.0064629493 0.0021911892 0.017747791 0.007069899
0.004600663 0.011222062 0.003697061 -0.005362195 -0.0050110915 0.0029057895 -0.004811633 0.002888431
0.001626981 -0.00020779953 -0.0034191585 -0.0050910525 -0.001404794 -0.010591122 -0.003197286 -0.003376872
-0.0072010397 -0.0015578584 -0.0015961678 -0.0021119136 -0.00418346 -0.0034002608 -0.0019285479 -0.0048431787
-0.00057055295 -0.00063037424 -0.001282949 -0.000637643 -0.0023099391 -0.002911613 -0.0033979076 -0.0014017448
-0.0020565002 0.004926033 0.005206744 -0.00048121423 0.005297142 -0.00063545606 0.000106782514 -0.0001834791
0.0038600424 0.0044286456 0.0021151782 0.009190787 0.0047762496 0.0040690056 0.005850621 6e-45
-6e-45 0.0 6e-45 -6e-45 -6e-45 -6e-45 -6e-45 6e-45
-6e-45 6e-45 -6e-45 -6e-45 -6e-45 -6e-45 -0.00262879 0.0031038322
0.0027684916 -0.0037272344 0.0026522016 -0.0042701806 -0.002148567 -0.00077247596 -0.0007901506 0.002648753
-0.0012441084 0.0012920052 -0.001638916 0.0025932554 0.0012462073 -6e-45 6e-45 6e-45
0.0 6e-45 6e-45 -6e-45 -6e-45 6e-45 6e-45 6e-45
6e-45 6e-45 6e-45 6e-45 0.0066502267 -0.011598914 -0.0112016145 0.005535472
-0.012355273 0.00621702 0.0036944814 0.0028009706 -0.002339599 -0.0102050835 0.00032617882 -0.0118009355
-0.0050890776 -0.009953093 -0.007897772 0.0035196037 0.0016850337 0.0052177054 0.00748507 0.006849864
0.0049418258 0.008354605 -0.0015942948 0.0010866559 -0.00012790273 0.0019058748 -0.0038453448 0.0058104517
0.007889099 -0.004103834 0.0031821341 -0.008205269 -0.009226449 -0.002870078 -0.011269146 0.003340029
-0.004987529 -0.0015926871 -0.0034030701 -0.007778735 -0.00038112933 -0.017182592 -0.0074238474 -0.009200739
-0.011247405 6e-45 6e-45 0.0 0.0 6e-45 6e-45 6e-45
6e-45 0.0 6e-45 0.0 6e-45 6e-45 6e-45 6e-45
0.0034470954 -0.0038209746 -0.0024957033 0.0061400738 -0.0012653215 0.0033810965 0.0053878445 0.0014036843
-0.00094321487 -0.0034717454 -0.00011071703 -0.0011118733 0.0010241552 -0.0009709267 -0.0016979219 6e-45
00000000: 19ac 41bb f918 8e3a 1a01 d439 a47c 90bb
00000010: 3f58 33ba 988e 2cbb 92ef 86bb 88f1 15ba
00000020: 600b a739 cbea 8a3a 9b45 2cb9 95ac 90b9
00000030: 1dc0 d7ba d297 5bba 06d9 c239 4a44 9f3b
00000040: c7be 043b a301 8d3b 6f0b 393c 0919 e83b
00000050: f548 da3b 9cec 6c3c e20c 173b aa07 d9b9
00000060: 1b32 993a d7ab 9b3a 94f7 97bb b8c6 873b
00000070: 355e 153c b813 02bb 9dad a63a a714 f43b
00000080: 3e29 253c 6e6d a73b c408 353c 6a24 8e3b
00000090: bf91 e93b 4303 a5b9 3dc3 d33b 7c2e b93b
000000a0: e73d b23b 6a43 0c3c 70bf 1c3c a7b1 283c
000000b0: 34e5 a93b a813 c1b9 dc4d 3ebb 5a04 94bb
000000c0: c22e cbbb d558 ccbb bbdc 42bb 7a9b 00bc
000000d0: 17af 93ba 4eef 43bb 3eeb 1abb 275f 23bb
000000e0: c4c3 dbbb 54e5 cbbb 2700 babb c35a 82bb
000000f0: 6503 18bb bc05 a83b e8d6 a53b ab01 29ba
00000100: 6f37 a23b 01dc acba ad63 c6b9 4a3c 3f3a
00000110: 90e5 9b3b 3903 a13b a61f 093b 48e0 613c
00000120: f3ce b73b 04dd 503b f024 133c a4a0 4bbb
00000130: 34a5 dd3b 457a de3b 6ef6 ebb9 302c e33b
00000140: 1574 16bb 3f45 f5b9 58d7 1b3a dcf1 b53b
00000150: 26c7 d33b 0e9a 0f3b d163 913c 9caa e73b
00000160: 29c1 963b bddc 373c 644a 723b 5ab5 afbb
00000170: 1534 a4bb 0f6f 3e3b e7aa 9dbb d54b 3d3b
00000180: 6c40 d53a c3e4 59b9 f613 60bb d8d2 a6bb
00000190: 1121 b8ba 6386 2dbc 8f89 51bb 834e 5dbb
000001a0: b3f6 ebbb 0e31 ccba 8136 d1ba 0868 0abb
000001b0: 6815 89bb e9d6 5ebb 54c7 fcba 87b3 9ebb
000001c0: 2991 15ba b33f 25ba a028 a8ba 7f27 27ba
000001d0: 5962 17bb c3d0 3ebb 6eaf 5ebb c0ba b7ba
000001e0: 59c6 06bb 8f6a a13b 569d aa3b 7b4b fcb9
000001f0: a693 ad3b bc94 26ba 6df0 df38 4c64 40b9
00000200: c4f8 7c3b 2c1e 913b cd9e 0a3b f494 163c
00000210: 1682 9c3b 4b55 853b 91b6 bf3b 0400 0000
00000220: 0400 0080 0000 0000 0400 0000 0400 0080
00000230: 0400 0080 0400 0080 0400 0080 0400 0000
00000240: 0400 0080 0400 0000 0400 0080 0400 0080
00000250: 0400 0080 0400 0080 c747 2cbb aa69 4b3b
00000260: 956f 353b 9e44 74bb 8fd0 2d3b dfec 8bbb
00000270: f9ce 0cbb fc7f 4aba 1c22 4fba b496 2d3b
00000280: 5a11 a3ba 8058 a93a e5d0 d6ba 9bf3 293b
00000290: c757 a33a 0400 0080 0400 0000 0400 0000
000002a0: 0000 0000 0400 0000 0400 0000 0400 0080
000002b0: 0400 0080 0400 0000 0400 0000 0400 0000
000002c0: 0400 0000 0400 0000 0400 0000 0400 0000
000002d0: 25ea d93b 5f09 3ebc fa86 37bc e862 b53b
000002e0: c56d 4abc 25b8 cb3b 1d1f 723b 7d90 373b
000002f0: f553 19bb 3933 27bc fb02 ab39 b658 41bc
00000300: 47c2 a6bb 4c12 23bc a865 01bc 27a9 663b
00000310: 59dc dc3a 49f9 aa3b 5145 f53b d374 e03b
00000320: 0aef a13b c1e1 083c a8f7 d0ba 1f6e 8e3a
00000330: a11d 06b9 8cce f93a 2e02 7cbb 9a65 be3b
00000340: 4841 013c 7479 86bb 5a8b 503b 656f 06bc
00000350: 882a 17bc eb17 3cbb 39a2 38bc 63e4 5a3b
00000360: 6d6e a3bb b6c1 d0ba 0b06 5fbb c2e4 febb
00000370: 50d2 c7b9 82c2 8cbc bf43 f3bb b2be 16bc
00000380: 0947 38bc 0400 0000 0400 0000 0000 0000
00000390: 0000 0000 0400 0000 0400 0000 0400 0000
000003a0: 0400 0000 0000 0000 0400 0000 0000 0000
000003b0: 0400 0000 0400 0000 0400 0000 0400 0000
000003c0: aae8 613b 5169 7abb f48e 23bb ac32 c93b
000003d0: 25d9 a5ba 6395 5d3b 848c b03b d4fb b73a
000003e0: 1442 77ba 3986 63bb c130 e8b8 47bc 91ba
000003f0: f23c 863a ca85 7eba ce8c deba 0400 0000

exp_avg_sq f4 [20, 15]
5.6340054e-05 0.00031673317 0.0005385214 0.0005089194 0.00084025384 0.00016905925 0.00088931504 7.96327e-06
0.00020056548 0.00018177636 0.00015997863 0.00040685877 0.0005135054 0.00080167694 0.00017594153 0.00048239436
4.994046e-05 0.00022383685 0.0024104803 0.0006864823 0.0025929273 0.0021039322 8.120516e-05 0.0012564899
2.8533528e-05 0.0010758153 0.0007297549 0.002327741 0.00066018343 0.00024021903 5.0698236e-05 0.00044847518
0.0007206605 0.0006560602 0.0011390884 0.00016699826 0.0011799204 1.8436604e-05 0.00024224103 0.0002656887
0.00018448257 0.0005459325 0.00063023577 0.0010806451 0.00024456505 8.134872e-06 6.821654e-05 0.00011702011
0.00017047439 0.0002292673 3.7227004e-05 0.00030046562 6.0261177e-06 2.4942212e-05 4.0914445e-05 2.066122e-05
0.00010696272 0.00012405633 0.00022005894 4.6428308e-05 0.00012114758 0.00031350413 0.0004773965 0.0006419227
0.0006614633 0.00064986723 0.00068547344 1.6455837e-05 0.00047498787 0.00022905135 0.00034818717 0.0012424681
0.00086987874 0.0005856096 0.0005485718 0.00014103355 0.00075335935 0.0011303308 0.0012232611 0.001810393
0.0007348597 0.001908422 3.707491e-05 0.0006265197 0.000533386 0.00043884883 0.002295855 0.001416338
0.0016720543 0.0010380174 8.559715e-05 0.00044090612 0.0007403619 0.00088315224 0.0013251475 0.00027428917
0.0015947726 2.1603386e-05 0.00022289295 0.00027463472 0.00017032854 0.0008417508 0.00076827564 0.0012824024
0.00038234462 4.0851013e-05 0.00048663793 0.0007635597 0.0008333124 0.0015073421 0.00014696497 0.0017880045
2.0689342e-05 0.00010314021 0.0002982317 8.264372e-05 0.0005607994 0.0006651752 0.0014900437 0.0002761479
4.5324607e-05 0.00029660194 0.000491328 0.00051841646 0.0008445703 0.00016382283 0.0009496956 1.3439453e-05
0.0001590348 0.0001888426 0.000117761236 0.00061395497 0.0004903195 0.0008035337 0.000277197 0.0
0.0 0.0 1.9582788e-25 1.4504719e-27 4.7688067e-25 8.183111e-26 0.0 2.9701424e-25
0.0 4.9973914e-25 0.0 6.457652e-25 0.0 2.1686846e-25 8.136291e-05 0.00032739883
0.00055177475 0.0007520736 0.0010452518 0.00028237313 0.0013290149 1.7213793e-05 0.00015886589 0.00019502839
0.00013393583 0.0004403247 0.0006256543 0.0010279419 0.00020265997 0.0 1.0384484e-10 9.690694e-11
0.0 8.3549286e-11 3.6586487e-28 0.0 0.0 3.952105e-11 7.1029495e-11 2.2344642e-11
1.0795412e-10 2.6889655e-11 7.99245e-11 7.518668e-11 0.0005959258 0.007729879 0.012201039 0.013941986
0.024558952 0.0023667696 0.029810864 0.00041285765 0.0014795905 0.0047471654 0.0011926076 0.0092952475
0.010758934 0.02429565 0.004575442 0.0004921333 0.0002393588 0.0004898783 0.0020713925 0.0010727098
0.002378309 0.002057665 5.0204006e-05 0.0010696275 0.00013899695 0.0009346033 0.00072514935 0.0021712575
0.0010742974 0.0003031047 0.00055323786 0.0059235343 0.00923087 0.010596547 0.018654205 0.0019922457
0.022579005 0.00027495908 0.0011459898 0.003690836 0.0008950423 0.00774081 0.008260322 0.01850277
0.0038123243 0.0 0.0 0.0 0.0 0.0 0.0 0.0
0.0 0.0 0.0 0.0 0.0 0.0 0.0 0.0
0.00015904261 0.0007163472 0.0012572873 0.0015770755 0.0023033659 0.000491847 0.0028666877 3.192609e-05
0.0003625465 0.0004076546 0.00030663642 0.0008810582 0.0013410343 0.0022677009 0.0003828962 2.4034203e-21
00000000: ac4e 6c38 350f a639 8f2b 0d3a 0169 053a
00000010: 7b44 5c3a 7f45 3139 ec20 693a fc99 0537
00000020: e34e 5239 389b 3e39 f0bf 2739 a94f d539
00000030: c49c 063a a127 523a f27c 3839 e0e9 fc39
00000040: 2977 5138 bfb5 6a39 26f9 1d3b 0cf5 333a
00000050: 1aee 293b 20e2 093b b04c aa38 ceb0 a43a
00000060: 495b ef37 5f02 8d3a 064d 3f3a 038d 183b
00000070: 2910 2d3a 4ee3 7b39 d1a4 5438 5221 eb39
00000080: b5ea 3c3a 74fb 2b3a 774d 953a 411c 2f39
00000090: 8fa7 9a3a 4ea8 9a37 1502 7e39 224c 8b39
000000a0: aa71 4139 e91c 0f3a 6836 253a 6fa4 8d3a
000000b0: f738 8039 027b 0837 7a0f 8f38 b168 f538
000000c0: 5fc1 3239 7967 7039 3124 1c38 d087 9d39
000000d0: f533 ca36 fe3a d137 8d9b 2b38 a251 ad37
000000e0: 2c51 e038 1e15 0239 9fbf 6639 04bc 4238
000000f0: 9d10 fe38 d05d a439 134b fa39 b446 283a
00000100: 0d66 2d3a da5b 2a3a 58b1 333a a40a 8a37
00000110: cb07 f939 812d 7039 e48c b639 50da a23a
00000120: 9308 643a 9883 193a 08ce 0f3a 68e2 1339
00000130: 177d 453a 9c27 943a d555 a03a b54a ed3a
00000140: 9aa3 403a 0424 fa3a e280 1b38 063d 243a
00000150: eed2 0b3a 4b15 e639 0e76 163b 6ba4 b93a
00000160: d528 db3a 160e 883a 9f82 b338 6b29 e739
00000170: d914 423a 5883 673a 92b0 ad3a 78ce 8f39
00000180: b007 d13a eb38 b537 5fb8 6939 d9fc 8f39
00000190: 389a 3239 f1a8 5c3a 1b66 493a 4916 a83a
000001a0: 6d75 c839 7157 2b38 7023 ff39 a029 483a
000001b0: a672 5a3a 0292 c53a 9c1a 1a39 7a5b ea3a
000001c0: 068e ad37 fb4c d838 fb5b 9c39 0251 ad38
000001d0: 9c02 133a 275f 2e3a 924d c33a f2c7 9039
000001e0: ed1a 3e38 3d81 9b39 77cc 003a 57e6 073a
000001f0: 2766 5d3a dbc7 2b39 fef4 783a 037a 6137
00000200: 94c2 2639 0d04 4639 95f6 f638 d2f1 203a
00000210: c988 003a 3ca4 523a c054 9139 0000 0000
00000220: 0000 0000 0000 0000 556c 7216 21d6 e512
00000230: 6196 1317 a19a ca15 0000 0000 c9d7 b716
00000240: 0000 0000 6aa9 1a17 0000 0000 cada 4717
00000250: 0000 0000 2e3c 8616 61a1 aa38 baa6 ab39
00000260: faa4 103a ce26 453a d500 893a 7b0b 9439
00000270: 5732 ae3a 5766 9037 3d95 2639 8980 4c39
00000280: 2071 0c39 61db e639 f302 243a 02bc 863a
00000290: 1f81 5439 0000 0000 735b e42e c219 d52e
000002a0: 0000 0000 11ba b72e f8e4 e711 0000 0000
000002b0: 0000 0000 bfd0 2d2e 0d32 9c2e a98b c42d
000002c0: c464 ed2e 1f86 ec2d 7ec1 af2e 5756 a52e
000002d0: e737 1c3a ed4a fd3b dee6 473c ed6c 643c
000002e0: db2f c93c ce1b 1b3b ea35 f43c d174 d839
000002f0: d2ee c13a 1c8e 9b3b 4551 9c3a 184b 183c
00000300: 3d46 303c ac07 c73c 97ed 953b 8202 013a
00000310: 63fc 7a39 2d6b 003a 33c0 073b 2b9a 8c3a
00000320: 67dd 1b3b e4d9 063b 2492 5238 be32 8c3a
00000330: b6bf 1139 2a00 753a f317 3e3a a84b 0e3b
00000340: 70cf 8c3a 06ea 9e39 2a07 113a 351a c23b
00000350: 133d 173c 249d 2d3c b4d0 983c 5690 023b
00000360: 9bf7 b83c 6228 9039 0935 963a f4e1 713b
00000370: 46a1 6a3a 9fa6 fd3b 4d56 073c 1f93 973c
00000380: 30d8 793b 0000 0000 0000 0000 0000 0000
00000390: 0000 0000 0000 0000 0000 0000 0000 0000
000003a0: 0000 0000 0000 0000 0000 0000 0000 0000
000003b0: 0000 0000 0000 0000 0000 0000 0000 0000
000003c0: adc4 2639 3fc9 3b3a 90cb a43a dfb5 ce3a
000003d0: 11f4 163b 4bef 003a 0adf 3b3b 61e8 0538
000003e0: 2b14 be39 79ba d539 0bc4 a039 d1f6 663a
000003f0: a5c5 af3a b59d 143b 75bf c839 e998 351d

exp_avg f4 [20]
-0.0010343407 -0.0046868073 0.0034238473 -0.0044268286 0.009037971 0.011237371 -0.0056041228 -0.001315432
0.005100852 6e-45 -0.0019872442 6e-45 -0.0017644658 -0.004242745 -0.008854967 6e-45
0.00133326 6e-45 0.00010671725 -0.0031881726
00000000: b792 87ba ca93 99bb a062 603b ee0e 91bb
00000010: ff13 143c f31c 383c caa2 b7bb 936a acba
00000020: 0c25 a73b 0400 0000 6d3c 02bb 0400 0000
00000030: a645 e7ba ba06 8bbb 6c14 11bc 0400 0000
00000040: c8c0 ae3a 0400 0000 63cd df38 a9f0 50bb

exp_avg_sq f4 [20]
6.031608e-05 0.000981003 6.758125e-05 2.4227138e-05 0.0005778289 0.0008604426 0.00020977375 5.4600616e-05
0.00015688456 3.2814972e-25 9.1699985e-05 9.03047e-12 0.0010093243 0.0007593464 0.0010715874 0.0
0.00013671811 2.095736e-19 8.572392e-05 7.88845e-05
00000000: e6fb 7c38 0095 803a 68ba 8d38 623b cb37
00000010: 7179 173a 538f 613a b6f6 5b39 f702 6538
00000020: 6181 2439 661d cb16 0e4f c038 9fdd 1e2d
00000030: 4e4b 843a e00e 473a 8274 8c3a 0000 0000
00000040: fd5b 0f39 bc6b 7720 aec6 b338 cb6e a538

exp_avg f4 [10, 20]
0.0043826164 0.0006194625 0.00018070091 0.0030390671 0.0036948214 0.004689694 0.002463199 0.0031200969
0.0032050023 -6e-45 0.0012597772 6e-45 0.005555153 0.0012326188 0.0039208927 6e-45
0.0076839137 6e-45 0.001515149 0.0025205917 3.8419563e-05 9.8190314e-05 -3.6000194e-10 0.0002174264
0.00018501503 0.00019865084 0.00013616412 4.1488252e-05 6.8295005e-05 -6e-45 7.954112e-07 -6e-45
0.0004503911 0.00012200998 0.00019967735 -6e-45 0.0006974399 0.0 2.119273e-06 0.00018133246
0.008990577 0.0006298581 0.0013314155 0.003157551 0.0058522713 0.006928195 0.004165156 0.0058679446
0.005023184 -6e-45 0.002065055 6e-45 0.009908957 0.0020122763 0.0070098583 6e-45
0.0102293985 6e-45 0.0018126285 0.0039051906 0.00981826 0.0040626707 0.004543199 0.033157915
0.02413441 0.040548407 0.013002094 0.0056261565 0.026166888 -6e-45 0.017602686 6e-45
0.0066669495 0.012993864 0.005545513 -6e-45 0.051307134 6e-45 0.024652531 0.013131914
0.002591379 0.0021813978 -0.00022644736 0.0069393497 0.005054062 0.0063853883 0.0028220764 0.0017446999
0.0034346576 6e-45 0.0011658025 6e-45 0.007927371 0.002519886 0.0041670767 6e-45
0.015464952 6e-45 0.001861667 0.0039497656 -0.0005712477 0.0016506624 -0.000354575 0.0031674143
-0.0041965256 -0.0026954848 0.003627709 -0.0002664376 -0.004133355 -6e-45 -0.001829388 -6e-45
-0.0005443329 0.005627695 -0.00022720634 -6e-45 0.0006248184 -6e-45 -0.0019294767 0.0024996148
0.006401392 -0.002013924 0.0019451089 -0.037048116 -0.024177553 -0.03875763 -0.0025250323 0.0014397808
-0.024692457 -6e-45 -0.018928384 6e-45 -3.1620137e-05 -0.016195778 0.00020733615 6e-45
-0.05433908 6e-45 -0.02603101 -0.005951339 0.0007115845 -0.010953678 0.0019802246 0.01181953
0.011970253 0.016894322 -0.0040683625 0.0024370102 0.014472782 -6e-45 0.011854581 -6e-45
-0.0060236924 -0.00885359 0.0020800729 6e-45 0.01086074 -6e-45 0.014137424 -0.0010786651
0.043287992 1.7264083e-05 0.0033392317 0.013562963 0.022661114 0.029279567 0.01695214 0.03691306
0.024539828 -6e-45 0.010131999 6e-45 0.026408957 -0.0028209055 0.02991922 6e-45
0.026155248 6e-45 0.0133061875 0.014946504 -0.024010755 0.0009122856 -0.0020529272 -0.009603403
-0.014875417 -0.019253125 -0.017341074 -0.01602654 -0.013039019 -6e-45 -0.0029690447 -6e-45
-0.027814433 -0.005668406 -0.01911139 6e-45 -0.030104361 -6e-45 -0.004406098 -0.0142971715
00000000: 0d9c 8f3b 6d63 223a 887a 3d39 162b 473b
00000010: d124 723b 01ac 993b 9f6d 213b 8a7a 4c3b
00000020: 040b 523b 0400 0080 1c1f a53a 0400 0000
00000030: 0008 b63b d38f a13a d57a 803b 0400 0000
00000040: 57c9 fb3b 0400 0000 f797 c63a 8330 253b
00000050: b124 2138 86eb cd38 c5e9 c5af f4fc 6339
00000060: 9800 4239 ee4c 5039 47c7 0e39 ac03 2e38
00000070: 9a39 8f38 0400 0080 3e84 5535 0400 0080
00000080: 7822 ec39 9cdf ff38 7b60 5139 0400 0080
00000090: 66d4 363a 0000 0000 d538 0e36 1024 3e39
000000a0: 374d 133c 101d 253a e482 ae3a eaee 4e3b
000000b0: 69c4 bf3b e905 e33b dc7b 883b e347 c03b
000000c0: 8699 a43b 0400 0080 e055 073b 0400 0000
000000d0: 2e59 223c 65e0 033b f4b2 e53b 0400 0000
000000e0: 3599 273c 0400 0000 b895 ed3a 3aee 7f3b
000000f0: c4dc 203c 2720 853b 1edf 943b 98d0 073d
00000100: 87b5 c53c 1616 263d bc06 553c 9f5b b83b
00000110: f15b d63c 0400 0080 8233 903c 0400 0000
00000120: 6d76 da3b 37e4 543c 22b7 b53b 0400 0080
00000130: 6e27 523d 0400 0000 1bf4 c93c 3d27 573c
00000140: 20d4 293b c8f5 0e3b 8072 6db9 7c63 e33b
00000150: 8c9c a53b 853c d13b 96f2 383b 6aae e43a
00000160: fe17 613b 0400 0000 d7cd 983a 0400 0000
00000170: cee1 013c ac24 253b f98b 883b 0400 0000
00000180: b660 7d3c 0400 0000 2e03 f43a 096d 813b
00000190: c9bf 15ba 0a5b d83a 40e6 b9b9 6594 4f3b
000001a0: 0283 89bb bba6 30bb dcbe 6d3b a6b0 8bb9
000001b0: 1871 87bb 0400 0080 13c8 efba 0400 0080
000001c0: 90b1 0eba 8768 b83b 3d3e 6eb9 0400 0080
000001d0: daca 233a 0400 0080 7fe6 fcba 94d0 233b
000001e0: c5c2 d13b 0afc 03bb 06f3 fe3a c4bf 17bd
000001f0: 0110 c6bc 52c0 1ebd 037b 25bb 07b7 bc3a
00000200: d647 cabc 0400 0080 b30f 9bbc 0400 0000
00000210: dd9f 04b8 02ad 84bc 6068 5939 0400 0000
00000220: a892 5ebd 0400 0000 fc3e d5bc 7303 c3bb
00000230: a189 3a3a 0e77 33bc a8c6 013b b4a6 413c
00000240: e11e 443c f665 8a3c e64f 85bb 3fb6 1f3b
00000250: 3f1f 6d3c 0400 0080 b739 423c 0400 0080
00000260: 6562 c5bb a60e 11bc d551 083b 0400 0000
00000270: 3ff1 313c 0400 0080 a7a0 673c ff61 8dba
00000280: c04e 313d 56d2 9037 03d7 5a3b 3137 5e3c
00000290: cda3 b93c b4db ef3c 37df 8a3c 2632 173d
000002a0: c007 c93c 0400 0080 af00 263c 0400 0000
000002b0: 9957 d83c f1de 38bb 2719 f53c 0400 0000
000002c0: 8843 d63c 0400 0000 3202 5a3c 2ee2 743c
000002d0: 34b2 c4bc 7326 6f3a 678a 06bb 9757 1dbc
000002e0: 05b8 73bc bbb8 9dbc de0e 8ebc 174a 83bc
000002f0: 9ca1 55bc 0400 0080 4e94 42bb 0400 0080
00000300: 18db e3bc 09be b9bb 7d8f 9cbc 0400 0000
00000310: 6c9d f6bc 0400 0080 0761 90bb af3e 6abc

exp_avg_sq f4 [10, 20]
0.0003226189 2.562271e-06 9.442736e-07 9.644384e-05 0.00017416246 0.00028354977 7.420807e-05 0.00017512382
0.00016528582 5.9235877e-27 2.1933292e-05 8.889391e-21 0.0003390965 1.2944065e-05 0.00019135434 0.0
0.0005928503 6.1632624e-36 4.3704487e-05 6.624541e-05 2.2873804e-08 2.992285e-07 6.8091224e-14 1.4866464e-06
4.6992997e-07 4.818287e-07 2.473785e-07 4.537366e-08 4.7928808e-08 1.4163771e-28 2.6902874e-11 1.870873e-35
3.0322913e-06 2.1590564e-07 6.5628575e-07 0.0 9.04885e-06 0.0 7.608146e-10 5.4759965e-07
0.0026777484 1.874763e-05 5.1623076e-05 0.0015932523 0.0018961161 0.0032950097 0.0004070491 0.0021180164
0.0020686009 7.5494955e-29 0.00055968185 2.7180406e-16 0.0013114965 1.9170067e-05 0.0015749894 0.0
0.0046025906 4.6163096e-26 0.0009609342 0.0004121591 0.0013303469 0.00026061354 0.0004790588 0.0074075055
0.004390973 0.011597886 0.0009830785 0.00038753112 0.0058076396 4.216897e-26 0.0029820947 6.2919833e-28
0.0001755232 0.0010775261 0.00029182274 0.0 0.013624971 5.207864e-31 0.005147299 0.0009029583
0.00011259957 4.286881e-05 3.3335516e-06 0.00022285723 0.0001388668 0.00023510889 2.617001e-05 8.354066e-05
0.00012786468 2.1258087e-28 3.7218295e-05 3.0381543e-17 0.00012592322 9.337061e-06 8.27146e-05 0.0
0.0007318863 2.4045423e-37 6.804999e-05 3.3596694e-05 0.0014571028 0.00044046427 0.00078107143 0.009358898
0.0052700965 0.014568981 0.0013487794 0.0002582006 0.0073667197 3.630512e-29 0.0040138005 3.387577e-33
3.3838518e-05 0.0009874025 0.00022459161 0.0 0.015971633 1.8689572e-24 0.0067181303 0.0011981309
0.008043266 2.5861691e-05 0.0046273787 0.061420042 0.03785266 0.0984526 0.006014977 0.0013524322
0.05065476 6.37031e-29 0.02756264 2.4042068e-33 6.535469e-05 0.001759232 0.0011207134 0.0
0.1067114 2.569825e-21 0.045537792 0.0057069943 0.0012899053 0.0031464214 0.0007375183 0.018940564
0.009265272 0.021637507 0.001428167 0.00020305016 0.010416989 3.1257392e-29 0.0055312887 3.0799172e-32
0.00210889 0.0018486312 0.00055867323 0.0 0.043268315 1.0471825e-24 0.009358171 0.0016299983
0.01048186 2.0381428e-06 0.00042237842 0.021170562 0.016303938 0.03433604 0.0021919739 0.008813066
0.018581592 2.392287e-29 0.0077235335 1.49632e-20 0.004879674 0.00090722064 0.006682311 0.0
0.045541182 1.8380115e-23 0.013406792 0.0024251912 0.010104129 0.0028699678 0.00026930808 0.013178167
0.007240914 0.011737557 0.0018061089 0.006613546 0.006109078 2.2819416e-29 0.0018174098 7.357501e-16
0.009434664 0.0019416807 0.0066558844 0.0 0.0444138 5.0635345e-24 0.0029700387 0.0021532432
00000000: 2d25 a939 7bf3 2b36 fd79 7d35 e441 ca38
00000010: 619f 3639 68a9 9439 27a0 9b38 71a1 3739
00000020: 9350 2d39 51a8 ea13 63fd b737 75ea 271e
00000030: c3c8 b139 562a 5937 4aa6 4839 0000 0000
00000040: 8369 1b3a fe13 0305 564f 3738 3ced 8a38
00000050: 077c c432 a7a5 a034 eb53 9929 c888 c735
00000060: af4a fc34 0457 0135 71cf 8434 dee0 4233
00000070: 48da 4d33 118c 3311 e3a3 ec2d 02f2 c605
00000080: 5e7e 4b36 b1d3 6734 9d2b 3035 0000 0000
00000090: 84d0 1737 0000 0000 9121 5130 c3fe 1235
000000a0: 2a7d 2f3b 3b44 9d37 db85 5838 add4 d03a
000000b0: 1987 f83a 17f1 573b 3569 d539 6bce 0a3b
000000c0: 5d91 073b 0767 bf10 9db7 123a 33af 9c25
000000d0: 85e6 ab3a 68cf a037 e06f ce3a 0000 0000
000000e0: 54d1 963b ad96 6415 34e7 7b3a 0f17 d839
000000f0: 095f ae3a f5a2 8839 2f2a fb39 a9ba f23b
00000100: 27e2 8f3b 0f05 3e3c a4da 803a 8c2d cb39
00000110: 034e be3b 85cf 5015 3f6f 433b a266 4712
00000120: a60c 3839 c73b 8d3a c9ff 9839 0000 0000
00000130: 453b 5f3c 3e01 290d acaa a83b 81b4 6c3a
00000140: 6f23 ec38 09ce 3338 fbb5 5f36 c8ae 6939
00000150: c69c 1139 9087 7639 ab87 db37 8d32 af38
00000160: 6a13 0639 38bd 8611 d71a 1c38 321c 0c24
00000170: 420a 0439 5fa6 1c37 1077 ad38 0000 0000
00000180: 0fdc 3f3a 09a5 a302 0fb6 8e38 2dea 0c38
00000190: 42fc be3a 1dee e639 d1c0 4c3a 1056 193c
000001a0: c6b0 ac3b bcb2 6e3c 87c9 b03a 195f 8739
000001b0: 8664 f13b bd16 3810 3386 833b e6b6 8c09
000001c0: d5ed 0d38 bb6b 813a 5a80 6b39 0000 0000
000001d0: f1d6 823c 839a 1018 c323 dc3b 9a0a 9d3a
000001e0: e7c7 033c 8ff1 d837 44a1 973b 9593 7b3d
000001f0: 640b 1b3d 84a1 c93d 4919 c53b 1844 b13a
00000200: 5e7b 4f3d ad81 a110 0ccb e13c d3bb 4709
00000210: 080f 8938 0896 e63a e7e4 923a 0000 0000
00000220: 828b da3d a52b 421d d685 3a3d bd01 bb3b
00000230: 0a12 a93a 3134 4e3b 0456 413a 3e29 9b3c
00000240: 5ecd 173c 2441 b13c 5531 bb3a dde9 5439
00000250: 05ac 2a3c 6a7e 1e10 d03f b53b 1feb 1f0b
00000260: 4e35 0a3b c54d f23a ed73 123a 0000 0000
00000270: 1e3a 313d 2c0b a217 0453 193c aba5 d53a
00000280: 1bbc 2b3c 07c7 0836 ac72 dd39 e36d ad3c
00000290: d68f 853c f3a3 0c3d 38a7 0f3b ae64 103c
000002a0: 6c38 983c 529b f20f b215 fd3b cc52 8d1e
000002b0: ace5 9f3b 8cd2 6d3a 4af7 da3b 0000 0000
000002c0: 6489 3a3d f6c2 b119 29a8 5b3c f5ef 1e3b
000002d0: ca8b 253c 1216 3c3b eb31 8d39 3de9 573c
000002e0: 3045 ed3b e24e 403c f5ba ec3a 72b6 d83b
000002f0: a92e c83b 976a e70f 2736 ee3a c610 5426
00000300: d993 1a3c fe7f fe3a 9b19 da3b 0000 0000
00000310: 3feb 353d d1e2 c318 fba4 423b 6d1d 0d3b

exp_avg f4 [10]
0.0018049055 0.00015523689 0.0034049943 0.0044533308 0.0024844997 2.5670357e-05 -0.0017905461 -0.0038889542
0.003927321 -0.009689305
00000000: 9492 ec3a 16c7 2239 5326 5f3b 3fed 913b
00000010: fdd2 223b ac56 d737 c2b0 eaba d3dd 7ebb
00000020: c2b0 803b e4bf 1ebc

exp_avg_sq f4 [10]
3.9687362e-05 2.4115587e-07 6.813361e-05 5.1516574e-05 1.0319323e-05 3.1947002e-05 0.0001147681 0.00034447556
0.0002006874 0.00073934754
00000000: fb75 2638 3678 8134 f4e2 8e38 8013 5838
00000010: 2821 2d37 d5fe 0538 a8af f038 ba9a b439
00000020: 9d6f 5239 c6d0 413a

exp_avg f4 [3, 10]
-0.0017807556 -0.0018404606 -0.0031528913 -0.00031703565 0.002934845 -0.002087621 -0.0007238693 -0.0018873698
5.2628566e-05 -0.0033949458 0.0072698435 0.007889415 0.006407513 0.0018951119 0.0064536054 0.007893032
0.0011950808 -0.0011907213 0.0005447742 0.0006276968 -0.015528624 -0.016999662 -0.011225731 -0.0014920346
-0.012789226 -0.017270368 -0.0004970434 -0.0021538266 -0.002207519 -0.007374229
00000000: 3e68 e9ba 9c3b f1ba bda0 4ebb ce37 a6b9
00000010: 8756 403b 78d0 08bb 0cc2 3dba 9f61 f7ba
00000020: 7ebd 5c38 bd7d 5ebb de37 ee3b 9b42 013c
00000030: 1df6 d13b 6765 f83a c478 d33b c751 013c
00000040: 42a4 9c3a fa11 9cba 2dcf 0e3a 058c 243a
00000050: c56b 7ebc e042 8bbc 21ec 37bc 6090 c3ba
00000060: e789 51bc 967a 8dbc 054c 02ba 3727 0dbb
00000070: 06ac 10bb 84a3 f1bb

exp_avg_sq f4 [3, 10]
0.00036753854 0.00039878828 0.00033354698 4.0408813e-05 9.641972e-05 0.00032247545 1.5678212e-05 0.00013655108
4.6889792e-05 0.00020150258 0.000439266 0.000480013 0.00041390856 0.00012646888 0.00012763185 0.00031676542
4.5147837e-05 0.00020078033 8.311378e-05 0.00020040019 0.0008454386 0.0009143491 0.0006190143 0.00018131358
0.0003844286 0.0007422577 6.1626495e-05 7.5821095e-05 0.00042733047 0.00012769146
00000000: 30b2 c039 7514 d139 ebdf ae39 a27c 2938
00000010: f134 ca38 ec11 a939 b484 8337 272f 0f39
00000020: 88ab 4438 704a 5339 494d e639 41aa fb39
00000030: de01 d939 bb9c 0439 ead4 0539 8913 a639
00000040: 1f5d 3d38 8f88 5239 5f4d ae38 8422 5239
00000050: 6da0 5d3a eeb0 6f3a 5945 223a fe1e 3e39
00000060: 228d c939 1294 423a 793d 8138 2402 9f38
00000070: 530b e039 eae4 0539

exp_avg f4 [3]
-0.0018775071 0.007938422 -0.017083537
00000000: af16 f6ba 2810 023c c6f2 8bbc

exp_avg_sq f4 [3]
0.0004006674 0.00048285618 0.00091783016
00000000: ab10 d239 dc27 fd39 8a9a 703a
